Models/model_under_2500.pth (torch, 629879 bytes, 28 tensors)

fc1.weight f4 [256, 39]
000000 61 09 75 40 ae ef 90 c0 f4 bd c7 3f f1 6d 9b 3f
       3.8286974 -4.529258 1.5604844 1.2142926
000010 d3 ee 0e c0 1c 31 03 c1 6f 11 44 bf c8 35 5d 3e
       -2.2333267 -8.19949 -0.765891 0.21602547
000020 03 66 d5 c0 b1 78 03 bf 1b 7c a7 be e1 40 95 c0
       -6.6687026 -0.51356035 -0.32711872 -4.66417
000030 3b 8f 97 bf 8e e2 26 bf 49 83 11 c0 6a 59 b1 bf
       -1.1840585 -0.65189445 -2.273638 -1.3855412
000040 64 5f 59 3f c2 27 10 be 8f 22 ca 3d b5 0e 7b be
       0.8491118 -0.14077666 0.09869873 -0.24517329
000050 35 6d c3 be 07 69 03 3e 51 52 a1 40 6d f4 8a 40
       -0.38169256 0.12833034 5.0412984 4.342337
000060 7f cf a0 be b5 13 9a 3e f7 c3 6f 40 bc 54 8f bd
       -0.31408307 0.3009316 3.7463357 -0.06998584
000070 0a 9c e7 be 38 e5 e5 be fe a0 59 40 92 f8 2b 3f
       -0.45236236 -0.44901443 3.4004512 0.67176163
000080 a7 99 55 40 fe ac 8e bf ca 6f cc c0 28 1f 88 bf
       3.3375032 -1.1146543 -6.388646 -1.0634508
000090 ca a6 59 be cd f2 99 40 75 16 96 3f 7a c0 c2 c0
       -0.21255031 4.810889 1.1725603 -6.0859957
0000a0 23 16 63 c0 66 90 76 3f 78 a3 9e be 37 89 0a c0
       -3.548226 0.96314085 -0.30984092 -2.164625
0000b0 ec c9 e7 bf f3 e5 59 be c0 6d 81 3e a9 66 0c bf
       -1.8108497 -0.21279125 0.25279045 -0.54844147
0000c0 ba 73 a5 bf 64 d5 47 be d6 a6 75 c0 5e 7f 50 c0
       -1.2925942 -0.19514996 -3.8383079 -3.2577739
0000d0 88 db da c0 c7 ac 4b 3d 52 40 2a 40 d3 bd 24 40
       -6.8392982 0.04972532 2.6601758 2.574086
0000e0 61 c2 99 3f 85 eb 6e 3e 1e 57 6e be f2 0f 0d c1
       1.2012445 0.23332031 -0.2327542 -8.816393
0000f0 5a bf 09 bd d6 3d 07 40 eb 10 72 c0 67 45 95 c0
       -0.033629753 2.1131492 -3.7822826 -4.664722
000100 17 33 4f 3e df 0f 92 c0 18 ee 89 c0 4c ff 3c bd
       0.20234333 -4.5644374 -4.310314 -0.046141908
000110 5a dd 04 be 72 c3 08 40 c1 83 0c 3f 66 2e e3 c0
       -0.12975064 2.136929 0.5488854 -7.099414
000120 e0 49 39 c0 38 dd e5 c0 78 ea 3b c0 2e 28 25 3e
       -2.895134 -7.1832542 -2.9361858 0.16128609
000130 c6 9c 36 c0 18 36 34 40 9f dc dd c0 d7 e7 70 c0
       -2.8533187 2.8158016 -6.9331813 -3.7641504
000140 33 c5 fc c0 f5 04 a7 3e 15 7d be be a2 8f 40 c0
       -7.899072 0.3262097 -0.37204805 -3.0087667
000150 6b ce 94 3f ea 0f 62 40 3c 06 93 bf 84 28 b3 3e
       1.1625494 3.5322213 -1.1486278 0.34991848
000160 8e 33 ad bd 6c 28 4e 3f 77 19 08 bf 46 f0 f8 3f
       -0.08457099 0.8053043 -0.53163856 1.9448326
000170 90 78 92 3f 06 9f c3 bd 93 9c 1d 40 61 83 5d bf
       1.1443043 -0.09551816 2.4626815 -0.86528593
000180 ee e9 d2 3e ab 48 8e 3d ed 09 71 c0 11 65 56 3e
       0.411941 0.06947454 -3.7662308 0.20936991
000190 c5 14 86 c0 98 33 83 c0 b1 c8 15 3f 0a 4b 25 bf
       -4.1900353 -4.100048 0.58509356 -0.64567626
0001a0 e5 a4 37 c0 c0 3f 04 be 3e 83 1f 3f 98 5a 3b 3f
       -2.8694394 -0.12914944 0.62309635 0.7318511
0001b0 62 c7 c9 bf 66 87 44 3e 76 3f 32 c0 a1 8d 65 3f
       -1.5763972 0.19192275 -2.7851233 0.89669234
0001c0 04 ee d0 40 c6 81 87 3f 4c f9 fa bf 31 f9 c3 3f
       6.5290546 1.0586479 -1.9607329 1.5310422
0001d0 cb da 32 c0 f6 fb ec bf 1a f0 0b 40 7b 33 58 c0
       -2.794604 -1.8514392 2.1865296 -3.378142
0001e0 e0 b7 29 c0 a9 c7 ef c0 19 18 25 3f 0f 50 9e be
       -2.6518478 -7.4931226 0.64489895 -0.30920455
0001f0 a5 36 f1 40 f0 89 b7 bf 99 f2 d5 be 29 df 96 bf
       7.5379205 -1.433897 -0.4178665 -1.1786853
000200 67 c1 0d 40 a5 fc 0c 3d 6d 96 03 c1 cf ff 82 bf
       2.2149293 0.034420628 -8.224225 -1.0234317
000210 d1 15 60 3e 0e bb e6 3f f9 d8 c5 bf e9 6a 22 be
       0.21883322 1.8025835 -1.545684 -0.15861095
000220 e6 a0 ab 3e 7f 56 43 3e ed 52 ee 3e c0 e7 d6 be
       0.33521193 0.19075964 0.46547642 -0.41973686
000230 03 aa f6 c0 87 cd 6b 3f 08 c1 5e be e7 81 ce 40
       -7.7082534 0.92110485 -0.21753323 6.453357
000240 48 8c 85 bf 1c dc e0 3d 37 e6 17 3c fa a2 af c0
       -1.0433435 0.109794825 0.009271196 -5.4886446
000250 e0 1e 7c 3f f9 bf ae 3f 7a 5e 2a c0 cf 0e c3 bf
       0.9848461 1.3652335 -2.6620164 -1.5238894
000260 ea 93 38 c0 5d 21 3e be e4 a6 20 40 dd 87 40 40
       -2.884028 -0.18567415 2.5101862 3.0082924
000270 d1 74 01 c0 b8 f7 1d 3f 30 d1 c4 c0 76 d0 78 3f
       -2.022755 0.61706114 -6.1505356 0.97193086
000280 62 99 e7 3f d3 8a 16 bf 45 f4 30 c0 ba 75 88 3f
       1.8093684 -0.5880558 -2.764909 1.0660927
000290 47 c3 f7 c0 01 04 8e be 41 80 0d 3f 6f 1c 8f c0
       -7.7425876 -0.2773743 0.55273825 -4.472221
0002a0 db 01 11 c1 60 f5 54 3f e6 d5 3e c0 e7 f7 55 c0
       -9.062953 0.8318691 -2.9818053 -3.3432558
0002b0 f9 45 e0 3f 67 c8 6e 3e 80 f4 c2 be 65 3e da be
       1.7521354 0.23318635 -0.38077164 -0.42625728
0002c0 61 c1 a0 3f 1b 52 17 3f 02 11 00 40 00 61 8c bf
       1.2559015 0.5910966 2.001038 -1.0967102
0002d0 3a a2 c0 bc c8 63 bf bf a2 03 87 3e a5 17 98 bf
       -0.023514856 -1.4952326 0.2636996 -1.1882216
0002e0 be 8c c4 3f 72 38 c1 3f ee 65 06 c0 d1 94 ff 3e
       1.5355451 1.5095351 -2.0999713 0.49918225
0002f0 91 90 72 40 70 c5 7b c0 99 6a 8e 3f 45 41 80 c0
       3.7900736 -3.9339256 1.1126281 -4.0079675
000300 96 1b c7 be 33 d6 36 40 48 74 11 c0 60 01 9d bd
       -0.38888234 2.8568237 -2.2727222 -0.07666278
000310 37 e5 9b 3f 3a ea b3 40 69 c7 9a c0 15 01 91 c0
       1.2179326 5.622342 -4.836842 -4.531382
000320 bc 5a 19 bf 7f dc a9 bf b0 48 3b 40 45 de 84 c0
       -0.59904075 -1.3270415 2.9263115 -4.1521325
000330 6f 21 de be 32 9f 69 bf 98 94 4b 40 e8 1a 04 c0
       -0.43384883 -0.9125854 3.1809444 -2.0641422
000340 a3 53 1b c1 6a d6 af 3f 4b 9f 6a be fa cd e7 3f
       -9.707919 1.3737309 -0.22912328 1.8109734
000350 ad 1f 62 c0 df b6 bc bf aa bc 8a bf b8 15 7c 3e
       -3.5331833 -1.4743308 -1.0838826 0.2461766
000360 cf 10 87 be 70 e1 2c c0 9b af 06 c0 86 eb 73 c0
       -0.2638001 -2.7012596 -2.104468 -3.8112502
000370 f8 bf bc be 68 22 c1 bf bc c8 84 bf 32 c0 ce 3d
       -0.3686521 -1.5088625 -1.0373759 0.10095252
000380 fa 77 aa 3e 67 86 7b 40 6e fe 5e be 58 46 b9 3e
       0.3329466 3.9300783 -0.21776745 0.3618648
000390 a2 6c da c0 25 62 9d 3f 40 d8 d3 c0 fe f4 86 be
       -6.825761 1.2295576 -6.6201477 -0.2635879
0003a0 c5 ad 16 3f ce 6a 3f 3f 35 ce 14 be 4c 31 bb 3f
       0.588589 0.74772346 -0.14531787 1.4624419
0003b0 ce 35 51 3e d0 57 d1 3f da b8 7d bf c2 2c ad c0
       0.20430681 1.6354923 -0.99110186 -5.4117136
0003c0 5b 03 cf bd 91 13 81 bd b3 d5 3a bf a0 4a 54 3e
       -0.10108062 -0.0630256 -0.7298233 0.20731592
0003d0 5b 1a d0 bc 2d 44 84 3f bd 48 9b c0 fe 1e 56 3f
       -0.025403192 1.0333306 -4.852629 0.8364104
0003e0 fc 24 9c 40 47 41 ac 3f af 16 0b 40 5a a1 dd be
       4.8795147 1.3457421 2.1732595 -0.43287164
0003f0 5e 61 76 3e ac d4 33 3e 5e 39 8e 3f c4 d9 a3 3e
       0.2406058 0.17561597 1.1111257 0.3200208

fc1.bias f4 [256]
000000 11 86 0a be 83 a8 19 be d6 a9 5a 3c bc 42 1b be
       -0.13527705 -0.15005688 0.013346156 -0.15162176
000010 25 ad 06 3e 8d a8 18 3c 63 8a c7 bc 55 20 1c 3e
       0.13151987 0.009317529 -0.02435798 0.15246709
000020 ac 80 ac 3b a4 2b d5 3d ff 43 1c 3e 11 63 ab bd
       0.0052643623 0.104087144 0.15260313 -0.08368505
000030 b0 5c 18 be 07 50 87 bd fd 9e 7b bd 0b a3 32 be
       -0.14879107 -0.06607061 -0.06143092 -0.17445008
000040 f8 3d ed bd 25 c9 93 bd 9b 28 17 be 86 d7 b2 bd
       -0.11584085 -0.072161 -0.14761584 -0.08732514
000050 99 93 9b bd e8 a4 c2 bd d9 f5 0a 3e 08 e8 e3 3d
       -0.075965114 -0.095041096 0.13570346 0.11128241
000060 04 3a 12 3e b1 f0 9a bd d7 af 10 be d5 ce 1a 3d
       0.14279944 -0.075654395 -0.14129578 0.037794907
000070 fa fb 72 bd 41 55 14 be 3e cf 64 bd ad c5 1b 3d
       -0.059322335 -0.14485647 -0.055861704 0.038030315
000080 30 19 a0 bd 8d 87 9a 3d d7 a7 51 3e 88 d9 83 bb
       -0.07817304 0.075453855 0.20474182 -0.0040237345
000090 c5 ef e4 bd 6e a2 03 3e 03 ed c2 bc c3 5a 11 3e
       -0.11178545 0.12854931 -0.023794657 0.14194779
0000a0 44 45 02 3e b0 c9 1d 3d 0f b6 36 3d 8e ff 5a be
       0.12721735 0.038522422 0.04460722 -0.21386549
0000b0 20 b1 a7 3d 52 a9 91 bd e4 25 2a be db 70 f3 3d
       0.08188081 -0.071123734 -0.16616017 0.1188676
0000c0 00 cb 49 3d 0a 03 d0 bd 7c 03 a9 bd ab 44 d7 bd
       0.04926586 -0.1015683 -0.08252618 -0.10511144
0000d0 e8 33 2b be 21 c6 b2 bc bc d9 47 3e e9 d4 35 bd
       -0.1671902 -0.02182299 0.19516653 -0.0443925
0000e0 e5 99 86 3d 59 da 6f 3d a5 d3 16 3e 29 c9 07 3e
       0.06572322 0.058557842 0.14729173 0.1326033
0000f0 63 c6 29 3e 77 30 8e bd 2d 4a 1e 3d 05 1c c1 bd
       0.16579585 -0.06942838 0.03864496 -0.094291724
000100 16 8a 8b bc cd 3a 23 3e 47 27 8e bd 21 3f 24 be
       -0.017033618 0.159404 -0.06941085 -0.16039707
000110 1c 0f 12 3e 9e 62 83 3d e2 af 67 bd 84 60 6b bd
       0.14263576 0.06415294 -0.05656422 -0.05746509
000120 e8 4f 03 be 3c 1b 09 3e 1b 7a b4 3d 45 07 1f 3e
       -0.1282345 0.13389295 0.08812352 0.15530117
000130 17 2e e7 3d 1e da 9d 3d 3c 3d 87 bd 66 0d 23 3e
       0.11288088 0.07707618 -0.066034764 0.1592308
000140 7a b0 a5 bd 13 18 06 3e 9f b6 91 3d 8f c9 a6 bc
       -0.08090301 0.13095121 0.0711491 -0.020359783
000150 f8 08 23 bd 9d a7 9e bd ea 04 c8 bd 9b 98 1e be
       -0.039803475 -0.077468134 -0.09766562 -0.15487902
000160 38 fc 05 3c 5d 3b be 3d 2e 2c d4 bd 77 3a c6 bd
       0.008177809 0.092886664 -0.10359989 -0.0967912
000170 c6 d5 1e 3d 07 fc 7a bd 90 8f 8f bc 6f 8c bf bd
       0.03877809 -0.06127551 -0.01752451 -0.093529575
000180 b7 df c6 bd 2f c2 07 be ce 67 90 bd 6a c3 c8 bd
       -0.09710639 -0.13257669 -0.07051049 -0.09802897
000190 6a 34 45 be 91 cc 06 3d 56 40 3c 3d 8c e4 06 3e
       -0.19258276 0.032909933 0.045959793 0.13173121
0001a0 05 e4 92 3d 5e b8 3e bd 0e 41 2a bc f5 af ba bd
       0.071723975 -0.046562545 -0.010391487 -0.091155924
0001b0 c1 be 8d bd 95 4a 34 3c 62 b1 13 be 97 45 37 bd
       -0.06921149 0.01100411 -0.14423135 -0.0447441
0001c0 2d 8a 9f 3d a5 78 ae bd b4 24 16 3e 5d 4a 9e 3d
       0.07790027 -0.08519105 0.14662439 0.077290274
0001d0 48 57 6a bd bc f4 05 3e 23 71 05 be d3 9d de 3d
       -0.057212144 0.1308164 -0.1303144 0.10869946
0001e0 1c a3 9c bd 87 61 14 3e 66 f4 5f 3d 98 2a 87 3d
       -0.07648298 0.14490329 0.054676436 0.06599921
0001f0 b0 84 77 bc 53 b7 eb 3c ad c9 8c 3a 74 b4 59 3d
       -0.015107319 0.02877394 0.0010741256 0.05315061
000200 3f 57 f6 3d b5 c9 c8 bd be 00 18 3d 9a 40 94 3d
       0.120283596 -0.098040976 0.037110083 0.07238884
000210 29 8b 31 3d c6 41 e8 bc 7c 1c d2 bd bc 8c b2 bc
       0.043345604 -0.028351676 -0.10259339 -0.021795623
000220 7c c4 f0 3c da 77 01 3e 74 4a 66 bd d5 0a 25 be
       0.029390566 0.12643376 -0.056223348 -0.16117413
000230 ed 8e df bc 0a 85 05 bd cc eb d3 3d c3 1b 23 bc
       -0.027289832 -0.03259758 0.10347709 -0.009955349
000240 34 39 d9 bd 0c f7 b2 bd e3 87 e5 3d 0c 21 17 be
       -0.10606614 -0.08738527 0.11207559 -0.147587
000250 cd 11 f3 bb c9 04 a5 3d 3d 89 1e 3d 2b d8 fc bd
       -0.0074178935 0.08057553 0.0387051 -0.12345918
000260 c1 16 0c 3d e6 41 21 3d c3 8c 1d 3e a4 65 da 3d
       0.034201387 0.039369486 0.15385728 0.10663918
000270 9d 63 2b 3e f6 65 ca 3d 1f 0a 66 3c 3f df a3 bd
       0.16737218 0.09882729 0.014040499 -0.08001565
000280 a9 d7 08 3e ac c4 fa 3d 1d 07 74 bd 34 64 b4 3c
       0.13363518 0.122445434 -0.059577096 0.022020437
000290 f7 f6 92 3d 2d 8e b4 bd 8e 56 64 bc b1 95 0e be
       0.07176011 -0.088161804 -0.013936652 -0.1392429
0002a0 ba f7 31 3e ad a9 2a be 07 2d 3b bd 75 07 1b be
       0.17379656 -0.16666289 -0.04569724 -0.15139563
0002b0 33 a3 a2 3d 69 1e d5 bc bd 76 db bd 18 e9 23 3d
       0.07941284 -0.026015477 -0.10716007 0.040017217
0002c0 5a 83 5e 3d a9 3a 8e 3d cd 4a 8e 3d 0b c2 0c be
       0.054324485 0.06944782 0.06947861 -0.13745897
0002d0 dd ab a4 bd 25 25 24 3e 6f 03 38 be e3 8f ca 3d
       -0.08040593 0.16029795 -0.1797006 0.098907255
0002e0 c8 63 0b 3e 88 49 5d bd f2 ff 4c bc 60 b7 e1 3d
       0.13612282 -0.054025203 -0.012512194 0.11021304
0002f0 ec 46 b4 3d 90 a7 c1 3c d5 ff 7c bc 33 81 0c 3d
       0.0880259 0.02363947 -0.0154418545 0.0343029
000300 ea 5a e6 3c ff ba 9c bd c3 8c 68 3d a2 48 79 3d
       0.028119523 -0.07652854 0.056774866 0.060860284
000310 82 88 c1 3d 43 fb 80 bd cc 84 1d be 45 43 fc bd
       0.09449865 -0.06297924 -0.15382689 -0.12317518
000320 be 63 7a bb d2 cb b2 bd 92 0f fc bc ff 68 bd bd
       -0.0038206424 -0.08730282 -0.030769143 -0.09248542
000330 2d 6f 10 be 2f e2 2a bd 75 7c ab bd da e1 c6 3d
       -0.1410491 -0.04171961 -0.08373348 0.097110465
000340 5d 98 6e 3d bd c7 6e bd 44 1d 91 3d df db 55 3c
       0.058250774 -0.058295954 0.0708566 0.01305291
000350 91 0e 4e bd 54 64 ca 3d ea d5 d8 3c 6a 1e df 3d
       -0.05030686 0.09882417 0.02646919 0.10894473
000360 7a 8c b9 3d 9e 8a 9d bd 5d 5c 9f bd e6 63 4b 3d
       0.09059997 -0.07692455 -0.07781289 0.049655817
000370 4c 10 68 3c c6 c1 d6 3d 46 5e 11 3e 5f 3c a1 3c
       0.014164042 0.10486178 0.14196119 0.019682107
000380 0a 9f da 3d 7a 15 55 bd 16 57 01 3e e5 ac fd bb
       0.106748655 -0.052022435 0.12630877 -0.007741558
000390 bb 52 bc 3d ef 2a ff bc ab 12 ed bd e4 88 bb bd
       0.09195467 -0.031148402 -0.11575826 -0.09156969
0003a0 2c 74 bb bc 26 23 69 3d 77 ab b7 bd ed 0c 2d 3d
       -0.022882544 0.056918286 -0.08968251 0.042248655
0003b0 7b cd 4b 3e c0 22 23 bd 7d 02 24 bb d9 b8 24 bd
       0.19902603 -0.039828062 -0.0025025897 -0.040215347
0003c0 71 35 0b be 16 86 d5 bb 78 85 33 bc a9 bc 7e 3b
       -0.13594605 -0.0065162284 -0.010957114 0.0038869774
0003d0 43 da 11 3e 78 4d 33 3e 85 0f 09 3c 7e 68 43 bb
       0.14243416 0.1751002 0.008365517 -0.002981692
0003e0 9b ae b6 bd c3 6d 8e bc 28 fd df bd 47 91 f7 bd
       -0.08920022 -0.017386323 -0.109369576 -0.12088256
0003f0 e3 ed 1b 3c 16 d5 06 bd a8 bf 14 3d f7 c6 93 bd
       0.009517166 -0.03291806 0.03631559 -0.07215684

bn1.weight f4 [256]
000000 89 2c 42 40 cc 2f 27 40 51 3d 67 40 c3 ee 27 40
       3.0339682 2.6122923 3.6131175 2.6239479
000010 59 28 2a 40 1f 1e 81 40 a0 51 57 40 55 d5 ad 40
       2.6587126 4.034927 3.364357 5.4322915
000020 10 83 e9 3f 5a a7 44 40 1b 55 3d 40 27 71 6d 40
       1.8243122 3.0727143 2.9583194 3.7100313
000030 ab 1a 83 40 1f 74 20 40 c7 00 62 40 ba b1 7c 40
       4.0970054 2.5070875 3.5312974 3.9483476
000040 0e d1 92 40 f3 7e 78 40 79 78 f8 3f 73 d4 32 40
       4.5880194 3.8827484 1.9411765 2.7942169
000050 2b 08 25 40 df ea 39 40 af b8 67 40 7c af 0a 40
       2.5786235 2.9049604 3.6206472 2.1669607
000060 cf 78 40 40 4b 16 9c 40 d5 ac 4f 40 17 97 3b 40
       3.0073736 4.8777213 3.2449238 2.9310968
000070 63 0f 3a 40 80 cb 36 40 de db 39 40 d9 dd b0 40
       2.9071891 2.8561707 2.9040446 5.527081
000080 af 18 d2 3f 78 2f 5c 40 a8 58 0d 40 0d 19 23 40
       1.6413783 3.4403973 2.2085361 2.548404
000090 1b 90 df 3f 92 76 84 40 bc 1f 93 40 26 5a 8e 40
       1.7465852 4.139474 4.597624 4.4485044
0000a0 0f 5b d9 3f f0 55 6f 40 cf 41 37 40 85 d8 14 40
       1.6980914 3.7396202 2.8633916 2.3257153
0000b0 e2 9b 41 40 5b a4 b9 3f 98 15 df 3f 4b 1c 23 40
       3.0251393 1.4503282 1.7428465 2.5486019
0000c0 08 42 85 40 64 1d 2e 40 dd 50 4c 40 a3 7e 5e 40
       4.1643105 2.7205439 3.1924355 3.4764793
0000d0 e5 05 80 40 fc 77 85 40 95 d2 6b 40 2d 78 0a 40
       4.0007195 4.1708965 3.684728 2.163585
0000e0 b9 d8 73 40 df 3d 2e 40 74 c6 27 40 b8 7e 66 40
       3.8101027 2.7225263 2.6214876 3.6014843
0000f0 a6 48 6d 40 2b 40 46 40 a7 12 19 40 6f c3 11 40
       3.707559 3.0976665 2.3917634 2.2775533
000100 35 74 40 40 85 59 68 40 86 a8 9c 40 33 4c 52 40
       3.0070927 3.6304638 4.8955717 3.2859008
000110 fb ea 86 40 29 3e 24 40 a4 99 4f 40 62 5e 7f 40
       4.216184 2.566294 3.2437525 3.9901357
000120 cb cd 9a 40 b2 e0 4c 40 bb 83 83 40 4b c8 9f 40
       4.837621 3.2012143 4.1098304 4.9932
000130 b3 c2 ef 3f ac 5f 5f 40 ef b6 12 40 21 75 90 40
       1.8731292 3.4902143 2.2924154 4.514298
000140 d9 65 f6 3f 2c 9e 1e 40 7d 75 3e 40 be b8 4b 40
       1.9249831 2.478404 2.975921 3.1831508
000150 2c f8 3c 40 59 2c 16 40 a5 c6 05 40 e9 5b 08 40
       2.9526472 2.3464568 2.0902493 2.1306098
000160 bb 16 7e 40 d8 4e 3b 40 7c be 53 40 83 48 38 40
       3.9701374 2.9266872 3.3085012 2.8794258
000170 b5 4f 56 40 e9 9b a2 40 d6 41 11 40 bb 81 bd 40
       3.348615 5.081532 2.2696433 5.9220862
000180 36 52 29 40 36 c9 21 40 72 99 87 40 3e 3b c0 3f
       2.6456428 2.527906 4.237481 1.5018079
000190 f4 a3 9f 40 3c 66 4d 40 0f 9d 43 40 52 07 48 40
       4.988764 3.209365 3.056461 3.1254468
0001a0 94 0a 47 40 c2 3f 63 40 0b 72 83 40 e3 6e 1b 40
       3.1100206 3.5507665 4.1076713 2.428643
0001b0 6b 3d 7d 40 be b6 79 40 9d 47 4f 40 b0 28 76 40
       3.9568737 3.9017787 3.238746 3.8462334
0001c0 fa 5d 6a 40 02 98 45 40 91 c3 24 40 e2 3b 52 40
       3.6619859 3.0874028 2.5744364 3.284905
0001d0 4d 25 b8 40 2a 29 10 40 41 9d 16 40 3f 7e 9c 40
       5.7545533 2.2525125 2.353348 4.890411
0001e0 02 d4 27 40 97 5a 54 40 13 fd 87 40 4f 42 11 40
       2.622315 3.3180292 4.249643 2.2696722
0001f0 87 c8 5c 40 2e 32 58 40 73 29 29 40 90 ca cb 40
       3.4497392 3.3780627 2.6431549 6.368477
000200 c9 b7 0f 40 38 99 e2 3f 73 80 0b 40 52 bf 58 40
       2.2455924 1.7703009 2.179715 3.3866773
000210 d5 5e 39 40 40 fb 0e 40 00 5d 47 40 06 db 18 40
       2.896413 2.234085 3.1150513 2.3883681
000220 03 c4 4b 40 e0 54 37 40 80 f8 03 40 8f 8e 64 40
       3.1838386 2.8645554 2.0620422 3.571201
000230 01 b6 4b 40 ca ad 75 40 56 02 41 40 40 cb 8c 40
       3.1829836 3.8387322 3.0157676 4.399811
000240 b9 77 3f 40 e1 3d f9 3f 84 77 0e 40 36 1b f9 3f
       2.9916823 1.9472009 2.2260447 1.9461429
000250 63 51 55 40 e2 79 27 40 9a c0 59 40 c1 81 58 40
       3.3330925 2.6168141 3.4023805 3.3829195
000260 6a 9d e4 3f 7b 4c 12 40 6e 13 7f 40 73 63 67 40
       1.7860539 2.285918 3.985561 3.615445
000270 4a 69 01 40 01 aa 7d 40 4e dd 26 40 d9 21 7f 40
       2.0220513 3.9635012 2.6072574 3.986441
000280 71 0e 2b 40 3a 61 4f 40 c9 f1 2a 40 ac ac 23 40
       2.6727564 3.2403092 2.6710074 2.557414
000290 97 03 6c 40 ce 5c 38 40 3b fd 3a 40 74 fc 92 40
       3.687719 2.8806643 2.921706 4.593317
0002a0 d3 a8 93 40 b3 f0 89 40 63 8e 47 40 4d ef 34 40
       4.6143584 4.310632 3.1180656 2.8271058
0002b0 ef 3e 42 40 df 76 54 40 02 2d 87 40 32 19 84 40
       3.0350912 3.3197553 4.224244 4.1280756
0002c0 56 9e 52 40 e9 d7 9f 40 0d 88 23 40 de 54 0b 40
       3.290914 4.995106 2.5551789 2.177055
0002d0 c9 1a 46 40 f3 40 17 40 a4 ef 6b 40 4f d5 3a 40
       3.0953848 2.3633392 3.6865015 2.9192693
0002e0 55 c1 8c 40 b2 aa 19 40 de 71 17 40 fc 11 dc 3f
       4.3986 2.4010434 2.366325 1.7192988
0002f0 4b cb 7c 40 b1 a2 37 40 ad 3f 49 40 dd f4 26 40
       3.949908 2.869305 3.1445115 2.6086953
000300 9b 70 33 40 dc b1 55 40 49 1f 2d 40 3e 80 96 40
       2.803748 3.3389807 2.7050345 4.7031546
000310 57 04 59 40 62 0f 51 40 60 9d 0d 40 cf 45 18 40
       3.39089 3.266564 2.2127304 2.3792608
000320 3a ec 0b 40 e4 5c 6d 40 81 39 22 40 2f 1d 08 40
       2.1862931 3.7087946 2.5347598 2.1267812
000330 b0 b7 ec 3f d9 e8 8b 40 2e b0 89 40 d5 d5 03 40
       1.8493557 4.372174 4.3027563 2.0599263
000340 89 67 a8 40 63 4a 37 40 af d9 6c 40 58 4e 26 40
       5.2626386 2.8639152 3.7007864 2.5985317
000350 15 30 7a 40 27 42 4d 40 7b 18 4b 40 af 59 42 40
       3.9091847 3.2071626 3.1733692 3.0367239
000360 88 2a 20 40 00 29 3c 40 2b 03 29 40 41 ae 68 40
       2.502596 2.9400024 2.6408184 3.6356356
000370 03 3c 1c 40 8d 9c 47 40 f0 dd 4e 40 fe 16 80 40
       2.4411628 3.11893 3.232296 4.0028067
000380 83 90 09 40 36 ee 79 40 e0 bb 8f 40 8c 52 37 40
       2.1494453 3.9051642 4.491684 2.8644133
000390 a2 cf 24 40 71 a5 fa 3f 34 8a d4 40 d2 47 0e 40
       2.575173 1.9581739 6.6418705 2.2231336
0003a0 61 dc 6f 40 b5 be 0d 40 3f eb 8d 40 d7 03 91 40
       3.7478259 2.2147648 4.4349666 4.5317187
0003b0 7b 6b 74 40 6c e3 47 40 86 a2 1b 40 a7 9b 8b 40
       3.81906 3.1232557 2.4317946 4.3627505
0003c0 95 8b 6f 40 b3 8c 4d 40 29 81 48 40 b3 f6 57 40
       3.7428944 3.2117126 3.1328833 3.3744323
0003d0 39 8d 80 40 56 bb 5c 40 50 dd 28 40 18 00 58 40
       4.017239 3.448934 2.6385078 3.3750057
0003e0 c9 a8 57 40 a2 87 1d 40 6f e1 95 40 33 5f 72 40
       3.3696768 2.4614034 4.6837687 3.7870605
0003f0 d4 93 42 40 80 c8 8d 40 93 99 58 40 1a 24 a6 40
       3.0402727 4.430725 3.3843734 5.191907

bn1.bias f4 [256]
000000 b1 41 6b c0 92 7b 95 bf ed 2f 7c c0 2b 0f 90 bf
       -3.6758845 -1.1678336 -3.9404252 -1.1254629
000010 6f ce dc bf 44 89 dd bf d5 7a 20 c0 f7 02 60 c0
       -1.7250499 -1.7307515 -2.507497 -3.500181
000020 20 c5 d1 be 20 3e f8 bf 6a 5a 8d bf 4c 03 b6 bf
       -0.40970707 -1.9393959 -1.1043217 -1.4219756
000030 0e 40 02 c0 1d a7 af bf 83 35 2e c0 21 91 2e c0
       -2.0351596 -1.3722874 -2.722016 -2.727608
000040 a9 67 55 c0 52 b7 15 c0 e1 40 98 bf 54 96 d0 bf
       -3.334452 -2.339314 -1.18948 -1.6295877
000050 60 7a eb bf ff 48 20 c0 e8 cd 07 c0 89 5c b1 bf
       -1.8396721 -2.5044553 -2.1219425 -1.3856364
000060 af 44 d5 bf d1 72 85 c0 c6 25 3f c0 78 04 15 c0
       -1.6661586 -4.1702657 -2.9866805 -2.3283978
000070 b7 c8 cd bf 9f cd f5 bf 7d af 93 bf 17 95 3e c0
       -1.6076878 -1.9203376 -1.153793 -2.9778497
000080 d9 39 ec be 40 90 39 c0 8b 25 38 bf 61 4f e6 bf
       -0.46137884 -2.8994293 -0.71932286 -1.7992975
000090 f9 14 5a bf eb 5f 32 c0 49 cf 7f c0 e9 80 25 c0
       -0.8518825 -2.7871044 -3.9970267 -2.585993
0000a0 00 d7 f0 be 9a e6 19 c0 e4 d2 e7 bf 95 cd 24 bf
       -0.47039032 -2.4046998 -1.8111234 -0.64376193
0000b0 e5 f9 00 c0 ed 4c 29 be ab 3e 05 bf 80 0a 01 c0
       -2.0152524 -0.16533251 -0.5204875 -2.0162659
0000c0 ef be 6a c0 d3 e2 ca bf d2 b2 e4 bf 9d ff 05 c0
       -3.6679037 -1.5850471 -1.7867072 -2.0937264
0000d0 8a 93 1c c0 90 27 2a c0 c4 77 24 c0 d5 f2 b8 bf
       -2.446505 -2.6586647 -2.56981 -1.4449106
0000e0 ad 52 0f c0 59 58 f1 bf 44 c1 bb bf 11 33 d4 bf
       -2.2394211 -1.8855087 -1.4668355 -1.6578084
0000f0 70 b9 00 c0 81 52 d3 bf ac 40 c0 bf b2 84 ac bf
       -2.0113182 -1.6509553 -1.5019736 -1.3477995
000100 e1 33 a7 bf db a6 92 bf 08 bb 3b c0 c2 c7 14 c0
       -1.3062707 -1.145717 -2.9332905 -2.3246922
000110 f5 12 39 c0 a3 40 9a bf 94 f9 28 c0 79 4e ef bf
       -2.891782 -1.2050976 -2.640233 -1.8695823
000120 9e 50 6f c0 5f 84 c9 bf 67 54 26 c0 26 0d 2b c0
       -3.7392955 -1.5743521 -2.5989015 -2.6726775
000130 83 a2 55 bf a2 4d 32 c0 bf 50 e0 bf 5e e8 33 c0
       -0.834511 -2.7859883 -1.7524642 -2.8110576
000140 1b 3d a3 bf 77 15 9a bf 4a c9 cf bf 6a db 1e c0
       -1.2753023 -1.20378 -1.6233304 -2.482142
000150 e3 69 e5 bf fb 58 f1 bf 16 df af bf e5 10 b1 bf
       -1.7922939 -1.885528 -1.3739955 -1.3833281
000160 00 71 45 c0 aa 62 fb bf 5f ff 12 c0 6d 81 b6 bf
       -3.085022 -1.9639485 -2.2968366 -1.4258248
000170 33 5d d4 bf 00 39 0e c0 db 14 cb bf 47 58 3c c0
       -1.6590942 -2.222229 -1.586574 -2.942888
000180 14 12 fd bf bd 9a 8d bf 3d e9 fb bf bf 2c 52 bf
       -1.9771142 -1.1062847 -1.9680554 -0.8209953
000190 4a 53 5b c0 8b 4a 43 c0 a4 89 bd bf 08 12 33 c0
       -3.4269586 -3.0514247 -1.480763 -2.7979755
0001a0 d5 77 c4 bf 68 da 27 c0 df 02 3e c0 0b e6 a0 bf
       -1.534907 -2.6227055 -2.9689252 -1.2570204
0001b0 3e b5 26 c0 7d 9c 1f c0 5d a6 a3 bf 3d 04 1e c0
       -2.6048121 -2.4939263 -1.2785145 -2.4690087
0001c0 22 5c 03 c0 5e 32 0b c0 06 92 c5 bf 58 da 0f c0
       -2.0524983 -2.1749492 -1.5435188 -2.2477016
0001d0 40 d8 7e c0 e6 2b 95 bf 0e f2 8e bf 34 eb 38 c0
       -3.9819489 -1.1654022 -1.1167619 -2.8893557
0001e0 2d 08 28 c0 24 4c fa bf 6f 25 1f c0 88 9d 6e bf
       -2.625499 -1.9554486 -2.4866598 -0.93209124
0001f0 ab 51 8b c0 af 97 af bf d2 24 ee bf 63 35 5a c0
       -4.353719 -1.3718165 -1.8604987 -3.4095085
000200 8b 3c e7 bf 01 2c 22 bf 84 14 58 bf bb b4 07 c0
       -1.8065351 -0.63348395 -0.84406304 -2.120406
000210 6f b6 e2 bf 8e 00 f0 bf bb 74 b6 bf ba 85 db bf
       -1.7711924 -1.8750169 -1.4254373 -1.7150185
000220 d6 75 b2 bf c0 45 f3 bf 86 60 a8 bf 86 f9 1d c0
       -1.3942211 -1.9005661 -1.3154457 -2.4683547
000230 da 96 dd bf 54 b7 4a c0 3d 57 87 bf 59 ef 30 c0
       -1.7311661 -3.1674395 -1.0573498 -2.7646086
000240 de ea 02 c0 f6 40 8c bf 2d 77 99 bf 1c cc c0 bf
       -2.0455852 -1.0957325 -1.1989495 -1.5062289
000250 87 ab cb bf 91 a5 05 c0 79 42 0c c0 f3 e6 b7 bf
       -1.5911721 -2.0882304 -2.1915572 -1.4367355
000260 33 ab 5c bf 82 7e ba bf 99 68 19 c0 91 3a 36 c0
       -0.8619873 -1.4569857 -2.3970091 -2.8473246
000270 67 7c af be a6 a5 95 c0 59 53 c3 bf 2c 1a 0b c0
       -0.342746 -4.6764708 -1.5259811 -2.1734724
000280 83 dd f3 bf 04 2b 15 c0 6f 76 c9 bf ed b7 91 bf
       -1.9051975 -2.3307505 -1.5739268 -1.1384255
000290 27 d2 03 c0 19 9c 2a c0 5c 48 fe bf 46 8f 3d c0
       -2.0597017 -2.6657774 -1.9865832 -2.9618697
0002a0 b4 d2 39 c0 30 af 24 c0 92 b4 cd bf ca 65 cf bf
       -2.9034853 -2.5731926 -1.6070731 -1.6202939
0002b0 b0 0d c5 bf 72 6c 71 c0 ff 56 05 c0 8f 82 2f c0
       -1.5394802 -3.772244 -2.0834348 -2.7423437
0002c0 8c b0 0c c0 43 5d 77 c0 d3 b6 22 c0 d8 70 04 bf
       -2.1982756 -3.8650672 -2.5424087 -0.51734686
0002d0 70 68 bc bf fa 78 cb bf 8e 54 3a c0 79 44 07 c0
       -1.4719372 -1.5896294 -2.9114108 -2.1135542
0002e0 f7 4b 5c c0 20 bc 3c bf 9a 4e 03 c0 d6 8f 1c bf
       -3.4421365 -0.73724556 -2.0516725 -0.61156976
0002f0 78 ce 0e c0 33 24 dd bf a2 91 24 c0 ea 04 05 c0
       -2.2313519 -1.7276672 -2.5713887 -2.078425
000300 37 5b 0e c0 5c 89 3a c0 fc f1 35 c0 23 5f 22 c0
       -2.2243173 -2.9146338 -2.8428946 -2.5370567
000310 36 84 2f c0 27 e1 e4 bf 35 b7 b5 bf 06 00 9a bf
       -2.7424445 -1.7881211 -1.4196535 -1.2031257
000320 a7 18 cb be e3 ee 5e c0 cb 43 fc bf 76 74 2d bf
       -0.39667246 -3.4833305 -1.9708189 -0.6775583
000330 5f 91 84 bf 0c 08 35 c0 40 3b 61 c0 50 3f 9a bf
       -1.0356864 -2.8286161 -3.5192413 -1.2050571
000340 8e 2c 54 c0 aa 47 b8 bf 3e c3 3f c0 2f 93 00 c0
       -3.3152194 -1.439687 -2.9962916 -2.0089834
000350 44 dd 24 c0 b0 65 d1 bf 5a 52 f8 bf 18 0c 1f c0
       -2.576005 -1.6359158 -1.9400132 -2.4851131
000360 c9 49 9d bf e4 f8 bc bf 45 31 b4 bf 85 4d ea bf
       -1.2288142 -1.4763455 -1.4077536 -1.8304907
000370 d1 9f 7f bf 10 d7 2c c0 1c 40 34 c0 c1 b5 2a c0
       -0.99853235 -2.7006264 -2.816413 -2.6673434
000380 22 e8 6c bf e3 08 09 c0 13 24 14 c0 df e2 16 c0
       -0.92541707 -2.1411674 -2.3147018 -2.357597
000390 65 ff b7 bf 6a 84 87 bf 8a c4 6c c0 ea 7b 00 bf
       -1.4374815 -1.0587285 -3.6994958 -0.5018908
0003a0 3c 71 0a c0 a1 73 4c bf 20 5a 77 c0 1f 38 8c c0
       -2.1631613 -0.79863936 -3.8648758 -4.3818507
0003b0 60 46 a0 bf 27 03 1e c0 77 35 60 bf af b3 35 c0
       -1.2521477 -2.4689424 -0.8758158 -2.839092
0003c0 b4 6c 3c c0 ee a9 86 c0 f2 ca 53 c0 dd 04 36 c0
       -2.9441347 -4.2082434 -3.3092618 -2.8440468
0003d0 a0 dc 3d c0 b4 a6 17 c0 a6 ef 5e bf 2d 91 dd bf
       -2.966591 -2.3695498 -0.87084424 -1.7309929
0003e0 73 ae 1d c0 da 54 c6 bf 70 06 35 c0 87 c2 52 c0
       -2.4637725 -1.5494645 -2.828518 -3.293123
0003f0 5b ec be bf 66 15 82 c0 d9 f3 44 c0 58 11 24 c0
       -1.491588 -4.065112 -3.0773833 -2.5635586

bn1.running_mean f4 [256]
000000 e8 5a 3d bf 63 88 5b bf 74 a8 cf 3d f0 b1 8a 3e
       -0.73966837 -0.85754985 0.10139552 0.2708888
000010 f8 04 25 bf 70 56 0e be d4 27 32 3e e9 c1 8f 3f
       -0.64460707 -0.13900161 0.17398006 1.1231052
000020 b3 63 d7 3e 6a 2e 87 3f 2d d4 21 3f 75 18 12 3e
       0.42068252 1.056104 0.6321438 0.14267142
000030 b5 91 7a bf 9e e1 fc 3d 66 2f 97 bf a3 75 57 be
       -0.9787858 0.123477206 -1.181134 -0.21040969
000040 eb 72 c7 be 62 96 3e bf e0 1b 92 3c 68 57 60 3d
       -0.38954863 -0.74448216 0.017835557 0.054770857
000050 38 8b 51 bf c1 04 7d 3e 24 be e2 be 01 91 c1 3e
       -0.81853056 0.24708845 -0.4428569 0.37805942
000060 91 fd d6 3e 22 20 57 bf 0c fe 50 3e 5f 2f 96 3e
       0.4199033 -0.84033406 0.20409411 0.29333016
000070 fc fa 23 bf 6e 8f 0c bf 20 a6 94 bc 48 46 d6 3e
       -0.64054847 -0.54906356 -0.01814562 0.41850495
000080 b0 9c 38 3e 34 0a 66 3e b9 1e 4c 3e 09 32 4a 3e
       0.18028522 0.2246483 0.19933595 0.1974565
000090 c4 6c 2d 3e 7a f9 0a be d2 43 31 be 16 16 2a bf
       0.16936022 -0.1357173 -0.17311028 -0.6643995
0000a0 24 56 09 3e 6e b9 56 bf 80 0d 85 3e 4e 36 4d be
       0.13411766 -0.83876693 0.25986862 -0.20040247
0000b0 d3 a6 59 bf 08 11 43 3f d4 a0 c4 bc dc 93 08 3e
       -0.8502018 0.7619786 -0.02400247 0.13337654
0000c0 62 75 4c 3f fc e2 fe 3e 24 b4 02 bf 5e 3f 8e bd
       0.7986661 0.4978255 -0.5105612 -0.0694568
0000d0 ac 6d 3b bf 75 e6 55 bf e4 e6 c6 be 02 d2 99 be
       -0.7321422 -0.83554775 -0.3884803 -0.30043036
0000e0 32 f5 f2 3d 17 8b d3 3e f8 4a 6d bd c2 6c 02 bf
       0.118631735 0.41317055 -0.057932824 -0.509472
0000f0 d4 82 48 bd 22 11 ee 3d 80 1b 9b bd 70 2a 8d bf
       -0.048952892 0.116243616 -0.075736046 -1.1028576
000100 d0 f6 b2 be 8c 03 ab 3d d4 2c 74 bf 6f b9 24 be
       -0.34953928 0.08350286 -0.953809 -0.16086362
000110 dd 27 9a be 88 32 8a be 02 37 95 be 76 87 51 bf
       -0.30108538 -0.26991677 -0.2914353 -0.8184732
000120 16 5c 85 be 38 a8 cd 3e f8 3e 64 3d 6f 21 3a bf
       -0.26046818 0.40167403 0.055724114 -0.72707266
000130 3c 18 a4 3e b6 e3 9d 3e 90 f2 b5 3d f0 f8 5e 3e
       0.3204974 0.30837792 0.08884156 0.2177465
000140 54 5b 11 3d bf 79 2d bf 3d 51 06 be f9 68 10 3e
       0.035487488 -0.67763895 -0.13116927 0.14102544
000150 29 9d 1a 3f cd ee 6f 3f 26 18 a7 be 66 16 c3 3e
       0.6039606 0.93723756 -0.3263561 0.38103026
000160 6c 7b 5f 3c e8 65 2c 3f a4 24 04 bf 48 dc c0 bd
       0.013640266 0.67342997 -0.5161841 -0.09417015
000170 85 ed 75 3f f8 76 ff bd a4 ca f5 3e f6 83 65 3e
       0.9606555 -0.12473863 0.48006165 0.2241362
000180 10 82 fa 3e 99 b6 9b be ac 80 e4 3e e4 2c 87 be
       0.48927355 -0.30412748 0.4462942 -0.26401436
000190 c6 ec 66 be 17 67 ca be 68 02 47 bf 37 d1 2c 3d
       -0.2255126 -0.39531776 -0.77738047 0.04219171
0001a0 f6 8c 08 bf 91 1d 9b bf d6 f2 13 be e9 7c bc bf
       -0.5334009 -1.2118398 -0.14448103 -1.472562
0001b0 c2 13 87 bf 19 e1 6e 3f 50 5a 05 bf e6 8d 33 bf
       -1.0552905 0.9331222 -0.5209093 -0.70138395
0001c0 a0 c2 52 bf 5c e7 a2 3e d7 fd e9 be 64 8a ad 3e
       -0.82328224 0.31817138 -0.45701477 0.33894646
0001d0 ef 27 af 3e 49 a9 5e 3e 4b 54 67 be 92 e5 37 bf
       0.34210154 0.21744265 -0.22590749 -0.7183467
0001e0 ba e4 4d bf 44 39 af 3e 94 cb 58 bf df b6 8a be
       -0.80427134 0.34223378 -0.84685636 -0.27092645
0001f0 e3 57 04 3f 66 b3 25 bf b1 3b c4 be 80 bb 3f bd
       0.51696604 -0.64726865 -0.3832679 -0.046809673
000200 6b 05 2f 3f 5f 22 9c bd c3 1e 08 3f 5f 48 25 3f
       0.6836764 -0.07623743 0.5317194 0.64563555
000210 24 99 32 bc 20 8c 23 3c b6 21 ea bd 3a 26 72 be
       -0.010900769 0.009982139 -0.11432211 -0.23647395
000220 06 dd 50 3f 66 f2 de be 18 77 1e bf c4 fa 57 bd
       0.81587255 -0.4354431 -0.6190047 -0.052729383
000230 56 7a 1a 3d 44 5d 58 be 1b 93 21 be 1a b0 04 bf
       0.037714325 -0.21129328 -0.15778773 -0.5183121
000240 1c fa 8c bf 84 4e 41 bf c4 5f ad 3e 2d cc 2c bf
       -1.1013827 -0.7551043 0.33862126 -0.6749905
000250 e4 2b 39 3f 7a ae 1d be 79 1d fe be fa a3 eb bd
       0.72332597 -0.15398589 -0.4963186 -0.115058854
000260 9e 51 90 be 30 3e ba bc a5 77 0b 3f 87 5b fd 3e
       -0.2818727 -0.022734731 0.5447944 0.49483892
000270 9c cb 42 3d 4c 0f 61 3e e1 92 1d 3f f8 0d 67 bf
       0.04755746 0.21978492 0.61552244 -0.9025569
000280 80 91 40 3e 30 71 2e 3f 00 b7 9c bb 54 b0 fb 3e
       0.18805504 0.6814146 -0.0047825575 0.49157965
000290 cb 84 22 be 7d 3b c0 3e 92 3b ca 3e 8f b5 14 3f
       -0.15870969 0.37545386 0.39498574 0.58089536
0002a0 3a d6 1c 3f d8 4b 0d be 4d d9 13 3f 38 fa 46 be
       0.61264384 -0.13798463 0.5775345 -0.19431388
0002b0 83 15 3d 3f aa a9 64 be a1 6f 31 3f de 7c 3d be
       0.7386095 -0.22330347 0.6931096 -0.18504664
0002c0 52 4c b2 be 1b fe 40 bf 84 13 31 be ca 7e 0b 3f
       -0.34823853 -0.75387734 -0.17292601 0.5449034
0002d0 0c 43 6a 3e 7a 60 b7 3e 9e 9f 88 bd d4 e4 8c 3d
       0.22877139 0.35815793 -0.066710696 0.06879583
0002e0 50 dd df 3e 0e 1e 7b bf 2f dc 9f 3e a6 35 e0 3e
       0.43723536 -0.98092735 0.31222674 0.4379093
0002f0 4f 71 28 bf 61 99 b2 3e 7d 58 d9 bd 70 81 e5 3d
       -0.65797895 0.34882644 -0.10612581 0.11206329
000300 19 7d 14 3e c8 ce c8 be 08 dc 82 3e a1 81 3f bf
       0.14500846 -0.39220262 0.25558496 -0.74807173
000310 6c 19 65 3e 54 3c e4 3e 80 f8 16 3e 06 9f 27 bf
       0.22372979 0.44577277 0.14743233 -0.65477026
000320 bb 38 a6 bd 2c b6 a9 be 34 0c ab bc 42 d4 1b 3e
       -0.08116289 -0.331468 -0.020879842 0.15217689
000330 7e 03 01 3f 00 cf f5 3c 92 2b 1c be 67 43 0b 3f
       0.50395954 0.030005932 -0.15250996 0.5439972
000340 df a5 d1 3e 0d 13 29 bf 93 c2 f9 3e 90 06 67 bc
       0.40946862 -0.66044694 0.4878126 -0.014100686
000350 18 55 94 3e 8c f1 52 3e e6 d2 03 bf 6f 2d b8 3d
       0.2897117 0.20599955 -0.5149368 0.08993041
000360 82 6a bb 3e 74 4b 66 3e f5 d8 e3 3d da 45 8f be
       0.36604697 0.2248972 0.11125366 -0.2798298
000370 a4 14 55 3d 46 d8 9a 3e f0 e4 24 be a3 1c 80 be
       0.052021638 0.3024313 -0.16102958 -0.25021848
000380 85 c1 c8 be 93 a7 46 bf 45 9f 51 bf 10 63 1a 3e
       -0.39210144 -0.7759945 -0.8188365 0.15076852
000390 00 20 a2 bc 19 56 1f bf 50 f3 6b be 0b 6c 91 be
       -0.01979065 -0.6224075 -0.23042035 -0.28402743
0003a0 a0 ca b6 bd 72 4e 0f 3f 61 2b 18 bf c0 eb ad 3a
       -0.089253664 0.55979073 -0.5944119 0.0013269112
0003b0 96 79 47 3f b2 5a 59 3e 7e 7f 40 3d 2a e2 c2 3e
       0.779199 0.21226004 0.046996586 0.38063174
0003c0 f6 16 1d bf 01 4c 9f 3e 4c 57 a0 3d c5 bc 9e 3e
       -0.6136316 0.31112674 0.078291506 0.31003395
0003d0 9a 08 70 3f c0 2a 68 bc a6 19 00 bf f1 98 a8 be
       0.93763125 -0.014170349 -0.50039136 -0.32929185
0003e0 4c 92 e7 be 59 b8 f9 be f5 ec a3 3e ee 74 85 bf
       -0.45228803 -0.4877346 0.3201672 -1.0426309
0003f0 a6 83 05 bf aa b9 33 3e 62 0d 5c 3e 00 d8 37 3d
       -0.52154005 0.17551294 0.2148948 0.044883728

bn1.running_var f4 [256]
000000 ca c6 18 43 9f 08 cc 43 d3 63 3a 43 09 20 eb 43
       152.77652 408.06735 186.38994 470.25027
000010 87 ee 9b 43 95 2a 99 43 51 97 80 43 e3 e5 8e 41
       311.8635 306.33267 257.18216 17.86225
000020 05 86 f9 43 e0 78 b3 43 4d 2f 1f 44 bd 19 f9 43
       499.04703 358.94434 636.7391 498.20108
000030 d3 0b a3 43 87 ab e9 42 40 63 17 44 21 2a 48 43
       326.09238 116.835014 605.5508 200.16457
000040 8a 87 50 43 e7 bc 21 44 79 8d a8 43 9d 6d bd 42
       208.52945 646.9516 337.10526 94.71409
000050 27 6b b9 43 c7 f9 26 43 1a 8e f6 43 ae be d8 43
       370.83713 166.9757 493.11017 433.4897
000060 c9 9d cf 43 61 21 35 44 b4 0b d7 43 72 ff 8e 43
       415.2327 724.52155 430.09143 285.99567
000070 14 0e b3 43 79 40 37 43 8f 1d 35 43 fe b2 f3 43
       358.11 183.25185 181.11546 487.39838
000080 af 4b 31 43 2c 33 f7 42 b0 27 ac 42 5c b6 82 43
       177.29564 123.599945 86.077515 261.42468
000090 27 75 2b 44 80 2f c6 43 0f fc 0a 43 bd 5c a6 43
       685.8305 396.3711 138.9846 332.72452
0000a0 1a 04 85 43 2d bc ed 43 42 bb 61 43 0b b4 67 43
       266.03204 475.47012 225.73148 231.7033
0000b0 2a 3a be 43 a5 65 21 43 bd 8e d2 43 00 dd 22 43
       380.4544 161.39705 421.11514 162.86328
0000c0 4e 2c 33 43 75 1e 0d 44 6e aa c3 43 9c e9 8f 43
       179.17307 564.4759 391.33148 287.82507
0000d0 04 8a b3 43 b0 e7 02 44 c2 33 f9 43 16 ea 23 43
       359.07825 523.6201 498.40436 163.9144
0000e0 b7 12 b8 42 62 82 71 43 9d 9d 81 43 d1 1b 7c 44
       92.03655 241.50931 259.23135 1008.43463
0000f0 7b 2f a2 43 37 b2 77 43 84 4a b9 43 c5 fa db 43
       324.37094 247.69615 370.58215 439.95914
000100 a7 ce 49 44 1a 53 dc 43 74 ef 50 44 22 99 80 43
       807.22894 440.64923 835.74146 257.19635
000110 b9 2b 43 43 dc cf fc 42 9f f2 d4 43 6c 61 ad 43
       195.17079 126.405975 425.89548 346.7611
000120 5d 15 88 43 56 e1 38 43 1a 24 54 43 a5 45 cd 43
       272.1669 184.88022 212.14102 410.5441
000130 e4 5e 14 43 0b 8d e6 43 f0 e3 aa 43 fc 98 9c 43
       148.37067 461.1019 341.78076 313.1952
000140 37 3f 3f 43 02 0c b9 43 6c 22 0c 43 57 04 04 44
       191.24693 370.0938 140.13446 528.0678
000150 1b 91 7e 43 32 c0 9f 43 f8 0e b6 43 9e 4a c9 42
       254.56682 319.50153 364.11694 100.64574
000160 4f 44 30 43 b6 05 e3 43 97 2f 00 44 ff 5d b9 43
       176.26683 454.04462 512.7436 370.73434
000170 92 4b 32 44 c6 6b c9 43 0a b0 5f 43 da cc da 43
       713.1808 402.84198 223.68765 437.6004
000180 8a ad 9a 43 e9 73 ba 42 f4 d9 db 43 e4 23 d4 43
       309.35577 93.22639 439.70276 424.2804
000190 0f 84 3f 43 fc 26 a3 43 04 5a da 43 1c 13 51 43
       191.51585 326.30457 436.70325 209.07465
0001a0 83 58 90 43 62 58 3c 44 ed 65 20 43 a8 36 fe 43
       288.6915 753.381 160.39815 508.427
0001b0 8d ab 92 43 b3 cd aa 43 18 93 91 43 3e 15 c8 43
       293.34024 341.60703 291.14917 400.16595
0001c0 30 2c 10 44 48 d9 2b 43 bb 0b 92 43 7b a4 3f 43
       576.6904 171.84875 292.09164 191.6425
0001d0 3c d4 b9 43 c3 0c be 43 d6 f8 4f 42 e2 6b 02 44
       371.65808 380.0997 51.993004 521.68567
0001e0 c2 88 98 43 db f4 47 43 c7 6b b7 43 6a a6 e5 43
       305.06842 199.95647 366.842 459.3001
0001f0 65 70 12 43 d3 63 65 44 bc 11 66 43 bf 75 2d 44
       146.43904 917.55975 230.06927 693.8398
000200 42 54 1c 42 0e c4 63 43 50 57 12 42 c1 df a7 43
       39.082283 227.76584 36.585266 335.74808
000210 93 c4 0b 43 ed 2d 3d 43 6b 0c ca 43 f4 c5 78 43
       139.76787 189.1794 404.09702 248.77325
000220 7b 7b c9 43 bf c5 88 43 2c 26 b2 43 bc 82 02 43
       402.9647 273.5449 356.29822 130.51068
000230 77 57 f8 43 eb d0 00 44 73 49 b5 43 27 9a 8f 43
       496.68332 515.26434 362.57382 287.2043
000240 89 ba d0 43 d0 50 23 44 60 38 65 43 7a e8 eb 43
       417.4573 653.2627 229.22021 471.81622
000250 f6 d7 cc 41 b4 c3 88 43 ad d7 73 43 67 8b e7 43
       25.60545 273.52893 243.84248 463.08908
000260 af 29 8b 43 b5 c8 35 44 3a 53 47 43 da 57 20 43
       278.32565 727.13605 199.3251 160.34317
000270 3e 17 61 43 a8 38 5e 43 57 43 92 43 ef 7f c7 43
       225.09079 222.22131 292.5261 398.99948
000280 f3 ee 17 44 91 ff 05 42 49 10 e9 43 1d ce 25 43
       607.7336 33.499577 466.12723 165.80513
000290 91 00 21 43 ef 18 bb 43 c1 0b 76 42 e5 6f 7a 42
       161.00221 374.1948 61.51148 62.609272
0002a0 99 e0 90 43 02 2b da 43 36 62 5e 43 07 b1 a3 43
       289.75467 436.336 222.38364 327.38303
0002b0 a7 a7 88 43 02 44 e9 43 06 4d 77 42 c1 31 91 43
       273.30978 466.5313 61.82522 290.3887
0002c0 44 54 44 43 62 43 69 44 d1 b1 48 44 e6 8e 61 42
       196.32916 933.05286 802.7784 56.38955
0002d0 28 56 b9 42 27 9a 53 43 1c f9 d8 42 b4 01 69 42
       92.668274 211.60216 108.48654 58.251663
0002e0 cd 6b 81 43 60 2e 1c 44 5b cd 9c 42 63 f1 4a 43
       258.8422 624.7246 78.401085 202.94292
0002f0 3a 9c e4 43 5c dd 2e 43 41 c8 1d 43 9f 6c 8c 43
       457.22052 174.86469 157.78224 280.8486
000300 7f 22 29 43 54 8a 3e 43 04 31 ed 42 75 05 07 44
       169.13475 190.54034 118.59573 540.08527
000310 8d b4 d3 43 87 24 a1 42 49 0c 88 42 43 1b 19 44
       423.41055 80.57134 68.023994 612.42596
000320 63 8d b4 43 81 0d 8f 43 7c 6f f1 42 0d 9a 97 43
       361.10458 286.1055 120.71774 303.20352
000330 a9 7a 0c 44 49 24 a2 43 43 fb cb 43 09 c9 cd 43
       561.91656 324.28348 407.96298 411.5706
000340 58 e4 ae 43 ed 1d a2 43 f5 4e 5d 43 51 35 2a 43
       349.78394 324.2338 221.30843 170.20827
000350 23 2f e1 43 09 8f 73 43 13 07 24 43 5c db 4a 43
       450.36826 243.55873 164.02763 202.85687
000360 70 fd f2 42 5a 03 c0 42 24 08 cd 43 d8 69 08 44
       121.494995 96.006546 410.0636 545.6538
000370 17 76 e4 42 75 e3 53 43 69 a9 b8 43 ff 85 05 43
       114.230644 211.8885 369.32352 133.52342
000380 95 d5 13 43 0f 48 9a 43 ac 8e 1e 44 ac 18 6c 42
       147.8343 308.56296 634.22925 59.024094
000390 d7 79 3c 43 40 d8 38 44 8a 4e 13 44 12 d6 59 43
       188.47594 739.3789 589.2272 217.83621
0003a0 9e ff 75 43 e9 d3 6d 42 bf 03 54 44 2a dc 23 43
       245.9985 59.456944 848.05853 163.86002
0003b0 4d 24 87 43 f7 72 44 43 05 94 8a 43 e4 91 1f 44
       270.2836 196.44908 277.1564 638.27954
0003c0 95 0f cb 43 ef 4a 2a 43 0a fd 63 43 cb cb a0 43
       406.12173 170.29271 227.98843 321.59213
0003d0 f8 85 0a 42 62 fe 56 43 c6 d6 ba 43 71 66 47 44
       34.63083 214.99368 373.67792 797.60065
0003e0 2d 2b 63 43 90 10 82 43 2c a1 3a 44 48 99 9c 44
       227.16866 260.1294 746.5183 1252.79
0003f0 76 64 93 43 54 5b 10 43 55 9d bf 42 7b 07 e3 43
       294.78485 144.35675 95.80729 454.05844

fc2.weight f4 [256, 256]
000000 7f d8 f8 3f b6 b3 2c 40 87 af d5 40 90 07 56 bf
       1.9441069 2.6984687 6.6776767 -0.8360529
000010 66 45 c8 3e 05 b9 74 be 2c c7 ee 3e 35 c1 ae 40
       0.39115447 -0.23898704 0.4663633 5.461085
000020 5f fe 26 3e 11 dd bf 40 ee a9 23 bf a1 8a 26 bf
       0.16307972 5.9957356 -0.6393117 -0.6505528
000030 dd 26 18 c0 11 3d ad 3f 98 27 f3 3d 32 68 48 3f
       -2.377372 1.3534261 0.11872786 0.7828399
000040 b3 35 06 40 59 21 38 3f 1f 50 55 40 ae 32 2a 40
       2.0970275 0.71925884 3.3330152 2.6593432
000050 93 31 40 c0 3f 34 98 c0 d3 56 92 bf ba b8 01 40
       -3.0030258 -4.7563777 -1.1432747 2.0268998
000060 b8 10 d8 c0 76 97 12 40 52 fe 70 3f a7 b5 38 c0
       -6.752041 2.2904944 0.9413806 -2.8860872
000070 c8 54 94 bf d0 d9 9e 3f 42 3a a1 3e a6 18 6b 40
       -1.1588373 1.2410221 0.3148976 3.6733794
000080 78 8d 61 bf 02 19 83 c0 3c f8 eb 3e bc 1c d9 3e
       -0.8810649 -4.0968027 0.46087825 0.42404735
000090 13 a1 5d 3e 20 a4 e5 c0 51 53 8e bf 8e 04 63 c0
       0.21643476 -7.176285 -1.1119176 -3.547153
0000a0 ff eb e5 3d a0 0a 2c 40 be 9f 6f 3e cb 35 7a be
       0.11226653 2.6881485 0.2340078 -0.24434583
0000b0 39 3d 19 c0 51 4a 88 3e d6 8e 4d 3f ca 6e 2b 3f
       -2.3943617 0.266192 0.80296075 0.66965926
0000c0 43 31 31 40 0d fb fb 3f 53 19 a8 3d ad cf c6 3f
       2.7686317 1.968599 0.08207955 1.5532128
0000d0 de 38 ed bf d8 20 87 bf 14 95 a6 bf a9 61 90 be
       -1.853298 -1.0556898 -1.3014245 -0.2819951
0000e0 70 a5 82 c0 6a ea c3 bf 72 94 9a 3e d5 88 85 3f
       -4.082695 -1.5305912 0.3019138 1.0432383
0000f0 10 5c 84 3e f3 12 18 3f ff 53 16 40 bd f3 2a c0
       0.25851488 0.59403914 2.3488767 -2.6711266
000100 0b da b7 3e cc e9 82 be e1 11 5c bf 3f 65 7d bf
       0.3590854 -0.25568998 -0.8596478 -0.98982614
000110 09 de 1e c0 3d c9 b0 bf 9c 68 1e 3e b0 86 20 c0
       -2.482302 -1.3811413 0.15469593 -2.5082207
000120 44 53 46 bf fc df 84 bf de 60 a3 c0 fd a8 0e bf
       -0.77470803 -1.0380855 -5.1055746 -0.55726606
000130 ca 4f d3 c0 64 30 88 3f 6c 59 4c bf bc 98 d3 c0
       -6.60349 1.0639768 -0.79823947 -6.6123943
000140 4e 98 15 40 4b 3f 80 c0 e0 3c 10 c0 fa a5 21 c1
       2.337421 -4.007726 -2.2537155 -10.103022
000150 45 da 2f 40 a4 f2 42 c0 1f 93 82 3f 24 be e8 c0
       2.747697 -3.0460596 1.0201148 -7.2732105
000160 a5 30 c2 c0 e2 cc 89 3e 5c cf a3 bf be 16 7e c1
       -6.068438 0.26914126 -1.2797656 -15.880552
000170 ee b4 22 40 dc c3 0c 40 68 b2 64 40 e7 b6 fd 3f
       2.542293 2.1994543 3.573389 1.9821442
000180 13 20 7a 3f bf 00 f5 bf e2 b7 80 40 e3 72 ea 3f
       0.9770519 -1.9140853 4.0224466 1.8316311
000190 75 17 16 c0 53 08 55 c0 4c e5 9b 3e 16 df cd c0
       -2.3451817 -3.328633 0.30448377 -6.433482
0001a0 5e b3 16 c0 ab 99 64 3f 6a 1d 59 c0 28 5f f6 3f
       -2.3546977 0.8929698 -3.3924203 1.9247789
0001b0 9e 4f 3b c0 bd c5 a5 3f ce fe e0 be 10 6a d1 c0
       -2.9267344 1.295097 -0.439444 -6.544197
0001c0 4d 46 34 c0 78 b1 bf 3f 3c 30 0c bf 46 86 23 c0
       -2.8167908 1.4976034 -0.547611 -2.5550704
0001d0 ac 78 3c c0 87 e8 4e 40 ba 4b 25 3f 2f 6b 1c 3c
       -2.9448652 3.2329423 0.64568675 0.009547039
0001e0 9e 78 0d c0 9c 3c 44 c0 ca 6b 6e be ab e1 fc be
       -2.210487 -3.0661993 -0.23283306 -0.4939092
0001f0 18 dd ef 3f 97 da ae 3e 84 23 8c 3f 01 ea 69 c0
       1.8739347 0.34151146 1.0948339 -3.6549075
000200 bf 65 30 40 7f a7 ed bf 28 88 a3 bf 02 25 a0 c0
       2.75621 -1.8566741 -1.2775927 -5.0045176
000210 26 b4 f1 c0 f5 06 1d be ec 89 f4 bf bb cc 26 c0
       -7.553241 -0.15334685 -1.910459 -2.6062458
000220 4d 37 17 40 38 a0 8a c0 ac 56 7c c0 20 b5 db 3f
       2.3627503 -4.332058 -3.94279 1.716465
000230 59 e4 35 c0 f2 ce 71 40 14 af 32 bf e6 29 a7 c0
       -2.8420622 3.778256 -0.697984 -5.2238646
000240 67 a0 89 3f c0 4c bf 3e da b3 e0 c0 b6 cb 8a bf
       1.0752076 0.37363243 -7.0219545 -1.0843418
000250 bb b2 bf 3d 86 e7 66 be 6b a0 bf c0 0b 4c 26 3e
       0.09360262 -0.22549257 -5.9883323 0.16239946
000260 3e ca c0 c0 2c d4 a4 3f fd 9a 51 c0 fc f5 1f c0
       -6.024688 1.287725 -3.2750847 -2.4993887
000270 8b 1e e2 be 0f 67 82 be d1 05 5c c0 96 c9 23 c0
       -0.44163927 -0.25469252 -3.437855 -2.5591788
000280 47 71 d2 3f 45 13 31 bf c0 97 26 3f cf ff 38 bf
       1.644082 -0.6917003 0.650753 -0.7226533
000290 a2 f3 a2 be 58 03 05 40 37 7a 32 40 da c7 3b 3f
       -0.31826502 2.078329 2.7887094 0.73351824
0002a0 e0 61 03 40 1f 24 2f 40 65 37 92 40 0d 2f df bf
       2.0528488 2.7365797 4.569262 -1.7436234
0002b0 c1 74 ea bf 28 2b 1a c0 cf 2f e3 3f e4 1b b3 c0
       -1.831688 -2.408884 1.7748965 -5.5971546
0002c0 71 a4 59 3f 3f 3f 94 bf 59 37 2b 3f f9 dc bc be
       0.8501654 -1.1581801 0.6688133 -0.3688734
0002d0 69 8e 10 40 c2 bd 8c 3f 76 c1 4c c0 6b d8 b5 bf
       2.258692 1.099541 -3.199308 -1.420667
0002e0 d7 24 96 c0 12 a7 25 bf 3e 9d a1 40 b8 49 eb be
       -4.691997 -0.64708054 5.0504446 -0.4595468
0002f0 af a5 7b bf f0 d2 1b bf 99 17 9f c0 05 6a fd c0
       -0.9829969 -0.6086874 -4.9716306 -7.919192
000300 d5 b4 8f be 02 2b be bf 07 9b 32 40 e1 b4 81 c0
       -0.2806765 -1.4856875 2.790712 -4.05333
000310 2c 0d a3 c0 ab 21 e4 c0 b3 fc b9 bf ad 17 76 bf
       -5.095358 -7.12911 -1.4530243 -0.96129876
000320 cf 2d bf bf 3d fc d3 c0 86 ab 07 40 0c a3 bd 3c
       -1.4935855 -6.624541 2.119844 0.023149036
000330 9f 8e a9 bd 07 4e 19 3f 7b 69 ed be d0 20 84 3f
       -0.08279156 0.59884685 -0.46369538 1.0322514
000340 81 b8 9d bf 94 96 88 3f ae ba 2b 3f 0c 58 8f 3f
       -1.2321931 1.0670953 0.67081726 1.1198745
000350 71 70 87 3f 70 d5 1a c0 8f bf 5d c0 8a 02 2c c0
       1.0581189 -2.4192772 -3.4648168 -2.687655
000360 4e 2b bd bf 9e d3 6e bf a8 db 2b 3e 44 52 f8 3f
       -1.477884 -0.9329165 0.16783011 1.9400105
000370 6a 05 f6 bd 92 c3 73 c0 98 82 14 c1 0c 5f 99 c0
       -0.120127514 -3.8088117 -9.281883 -4.7928524
000380 8f c0 e6 3e b0 d3 91 bf ad 72 23 bb 78 c4 81 c0
       0.45068786 -1.1392727 -0.0024940178 -4.055233
000390 fa a0 82 3e cc 0b 91 40 40 57 79 bf 3d 4b 33 c0
       0.2551344 4.53269 -0.9739876 -2.8014672
0003a0 ec dd 79 3f 3f 57 26 c1 14 74 16 c0 e3 3e 34 c0
       0.9760425 -10.3963 -2.3508348 -2.8163383
0003b0 68 8b a5 3e 6f 0c a7 c0 4d 31 4f c0 20 b1 70 40
       0.3233292 -5.220268 -3.237384 3.7608109
0003c0 6e 0f b5 3f 47 d9 8a 40 18 f6 4d c0 f2 25 7f bf
       1.4145334 4.339023 -3.2181454 -0.99667275
0003d0 6e 1e 6f be 17 8f 96 3d 21 2e 14 3f b6 ee a6 3f
       -0.23351452 0.07351511 0.5788289 1.3041599
0003e0 55 0e a5 3f 76 f7 6a bf 55 3b 3a 40 6d b3 bb bf
       1.2894999 -0.91783845 2.9098713 -1.4664131
0003f0 f6 ed 06 3f a5 d7 19 40 07 43 1a 40 c5 db 7c be
       0.5270685 2.403787 2.410341 -0.2469321
