Models/model_1000_pca_30.pth (torch, 620697 bytes, 28 tensors)

fc1.weight f4 [256, 30]
000000 c0 2d 22 c0 ed 8a 8b bf b1 d4 07 c0 06 2c b2 3f
       -2.5340424 -1.0901772 -2.1223567 1.3919685
000010 66 0c eb bf f6 df 92 bf 2d 98 1d bf d8 c4 82 bf
       -1.8363159 -1.1474597 -0.61560327 -1.0216322
000020 ce 20 e3 3d d0 77 1f bf ff 1a 68 3f 15 31 b7 3f
       0.110902414 -0.62292194 0.9066619 1.4311854
000030 38 8b a8 3e b1 0c 86 3e 67 d0 99 bf a3 d1 e0 be
       0.32918715 0.26181558 -1.2016724 -0.4390994
000040 ab 1a dd bf 50 88 95 3f 98 af dd 3d 9e 2f a2 3e
       -1.7273763 1.1682224 0.108245075 0.31676954
000050 6e 16 25 3d 74 54 c9 3f 11 0b 1e 3f d4 c8 1f c0
       0.040304594 1.5728898 0.61735636 -2.4966326
000060 64 bc 89 bf 2f 77 94 3f 06 95 bc 3f da 5e 05 41
       -1.0760617 1.1598872 1.4732978 8.335657
000070 d6 01 7d 40 38 9b e2 bc 2e 94 88 c0 7d 61 36 be
       3.953237 -0.027661905 -4.2680883 -0.17810626
000080 79 45 05 c0 65 14 d1 be dd b8 ec bf 18 40 26 bf
       -2.0823653 -0.40835872 -1.8493916 -0.6494155
000090 c4 c7 2b bf 39 30 8f 3e 7f 68 65 3e 44 bb d9 be
       -0.67101693 0.27966478 0.22403143 -0.42525685
0000a0 42 58 c6 bc df 44 e0 bf 79 f1 18 bf 8b 57 6b 3f
       -0.024212006 -1.7521018 -0.5974346 0.91930455
0000b0 a7 36 92 3f 03 96 36 3f ca 07 23 c0 16 ac 83 3f
       1.1422929 0.7132265 -2.5473504 1.0286891
0000c0 a2 38 a0 bd e3 ae c6 3f 80 fa 3b c0 3c 09 74 40
       -0.07823302 1.5522121 -2.9371643 3.8130636
0000d0 ca 77 c1 3f e6 25 52 c0 70 0d e9 3f a2 dc 5b c0
       1.5114682 -3.2835631 1.8207226 -3.4353414
0000e0 8c 80 80 40 34 87 4a bf ba 8e 77 bf 46 22 73 c0
       4.0156918 -0.79112554 -0.9670216 -3.798967
0000f0 bb 55 df 3e 6b be 3f bf e5 e3 0f 3e 12 11 1e 3f
       0.43620095 -0.7489993 0.14051779 0.617448
000100 1b 1f c8 bf 2c 54 a9 40 2e 3e 2a c0 01 28 ac bf
       -1.5634493 5.291525 -2.6600451 -1.3449708
000110 d5 72 12 c0 57 a5 0a 40 a5 e6 85 bf 01 25 2d bf
       -2.2882588 2.1663415 -1.0461012 -0.6763459
000120 cd 04 4c 3f ba 8e 1a bf 61 00 9c 3d 7a 51 e1 3e
       0.79694825 -0.60374033 0.0761726 0.44007474
000130 f0 2b 46 bf 85 ea 93 be 88 aa 4f 3e 95 31 f6 bf
       -0.77410793 -0.28889862 0.20279896 -1.9233881
000140 bb 85 0e 40 8f 85 fd bf 79 db 11 c0 94 5e 67 c0
       2.2269123 -1.9806384 -2.2790205 -3.6151476
000150 46 80 eb 3f aa 00 07 bf 4e 78 ef bf f4 eb 0e 40
       1.8398521 -0.5273539 -1.8708589 2.2331514
000160 6a 84 cc 3e 24 d9 ca 3d b5 64 19 40 58 b3 66 3f
       0.39944774 0.099046975 2.3967717 0.90117407
000170 85 f9 35 c0 ef d1 b0 3f 54 e1 17 c0 89 00 03 40
       -2.8433545 1.3814067 -2.373128 2.0469077
000180 ca cd 7f bf 5d 42 82 3f d1 13 60 bf 6d ee a8 be
       -0.99923384 1.0176502 -0.8753024 -0.32994404
000190 00 a0 9b bf 87 61 6a 3e d8 50 11 3f 76 70 cd be
       -1.2158203 0.22888766 0.5676398 -0.40124863
0001a0 a6 8d e4 be 13 f2 f1 be ae e8 51 bf 4b 81 32 be
       -0.4463932 -0.47255 -0.81995666 -0.17432134
0001b0 e9 a2 16 be 27 e8 f8 3f b2 99 1d 3f 32 2f a5 c0
       -0.14710583 1.9445847 0.61562645 -5.162011
0001c0 7f 74 03 c0 0a 9e 2e 3b 74 ac 66 c0 99 ef 6b bf
       -2.0539854 0.0026644492 -3.6042757 -0.9216247
0001d0 fc ff 72 40 5f dc 4c 3f 8d e8 2d 40 b2 df 19 3e
       3.796874 0.8002376 2.7173188 0.15026739
0001e0 79 89 47 bf 5d f0 4b bf e1 81 65 bf 02 8e aa 3f
       -0.7794414 -0.7966364 -0.89651304 1.3324587
0001f0 b8 c1 87 bf c8 15 c0 3f c4 13 ca bf e8 fc 8e 3f
       -1.0605993 1.5006647 -1.5787282 1.1170931
000200 bf f1 21 3f 69 b2 17 be ba a6 87 be 33 fb 45 3f
       0.632595 -0.14814152 -0.2649439 0.77336425
000210 38 61 1e 3f b6 cc 83 3d 7e 07 82 bf 9b 64 de bf
       0.61867094 0.0643553 -1.0158536 -1.7374452
000220 26 e1 0c 3f e6 86 87 3f 41 c7 14 be 78 12 5b be
       0.5503105 1.0588043 -0.14529134 -0.21393764
000230 aa 24 86 3f b5 7a aa 3f c9 48 25 bf 3d d6 88 c0
       1.0479939 1.3318697 -0.64564186 -4.276152
000240 5b 43 89 c0 b4 c8 a5 3d 2c 87 82 c0 f8 6a 90 40
       -4.289472 0.08094922 -4.0790005 4.5130577
000250 05 07 08 41 8e 3c 23 40 55 3f 4a bf 3b d4 05 3f
       8.501714 2.550571 -0.79002887 0.52276963
000260 b3 c0 4e 3f 4c 80 61 3f 81 eb 34 3f 61 d7 93 3f
       0.80762786 0.8808639 0.7067185 1.1550103
000270 fc ca db bd 79 9b 09 40 da 63 14 bf ec a1 0c 3e
       -0.107320756 2.1501143 -0.5796486 0.13733643
000280 fd 53 20 bf 95 d1 93 bf a0 69 11 bf 71 19 15 bf
       -0.62628156 -1.1548334 -0.56801796 -0.58241946
000290 b8 1e a8 bf ed 08 9e bf e0 9d 0c 40 3a 2f 7b c0
       -1.3134375 -1.2346474 2.197136 -3.9247575
0002a0 50 74 11 bf 94 e6 00 40 92 14 1d c0 46 b1 5e 40
       -0.56818104 2.0140734 -2.4543805 3.47957
0002b0 40 69 53 c0 60 f3 90 bd 40 24 8a 40 df 87 86 3f
       -3.303299 -0.0707767 4.316925 1.0510215
0002c0 6f 9c 85 c0 a8 89 87 c0 9b d5 a9 40 9b 16 97 bf
       -4.175346 -4.2355537 5.307325 -1.1803774
0002d0 cc 99 fc be 1b 30 22 3e 47 ea 96 3f 10 97 02 3f
       -0.49336088 0.15838663 1.1790246 0.51011753
0002e0 3f 9d 46 40 09 66 a4 3f 72 4e 47 bf 93 81 eb 3f
       3.1033475 1.2843639 -0.77854073 1.8398918
0002f0 87 df a6 bf 43 4b 9e 3e c1 9c 53 40 c3 43 80 bb
       -1.3036965 0.30916795 3.3064425 -0.003914328
000300 4b b9 05 bf 6a 8c 0e bf 21 df 29 c0 50 f6 d8 bf
       -0.5223586 -0.55683005 -2.6542437 -1.6950169
000310 e0 fc 1f 40 74 25 9a bf d6 66 eb bd a3 f8 2a 40
       2.4998093 -1.204268 -0.11494224 2.6714256
000320 0d b6 a9 be 9d 1b 95 c0 ed c6 10 bf 7b 76 85 3f
       -0.33146706 -4.659621 -0.56553537 1.0426782
000330 34 8e b0 c0 67 a2 11 bf 1f c5 a2 be 75 48 03 40
       -5.517359 -0.5688843 -0.31791016 2.0512974
000340 f8 20 ce bf 0e f3 a8 40 dd 5b bf 3e 4c 32 e9 be
       -1.6103811 5.27967 0.37374774 -0.45546186
000350 72 a3 b3 bd 02 fd 46 bf 01 9e 5a 3f c5 fd 07 3f
       -0.08771409 -0.7772981 0.85397345 0.53121597
000360 f7 c9 76 bf b3 30 04 c0 65 c7 51 3f f5 93 90 bf
       -0.96401924 -2.0654724 0.81944877 -1.1295153
000370 37 af 65 3e 27 61 30 3e e8 2a 61 3e 7f a2 19 3f
       0.2243012 0.1722456 0.21989024 0.60013574
000380 e2 bd 8a 3f 92 57 bd 3f 80 96 1c c0 fb b0 8b be
       1.0839198 1.4792349 -2.4466858 -0.27283463
000390 65 08 01 3f 3b 96 74 bf 17 df 9e 3f c1 78 0a 40
       0.50403434 -0.95541734 1.2411832 2.1636202
0003a0 85 ec df 3f ac c9 6b c0 a3 20 43 bf 5d cb b4 be
       1.7494055 -3.684184 -0.76221675 -0.35311404
0003b0 41 a0 60 40 c6 1c 95 bf 11 cc e6 3f 26 32 46 c1
       3.5097811 -1.1649406 1.8031026 -12.387243
0003c0 d2 3e 21 3f 99 79 cd 3f 58 bd b8 be 21 67 79 40
       0.6298648 1.6052734 -0.36081958 3.8969195
0003d0 f2 14 2b bf 4d b3 a2 c0 2e 0f e9 3f e8 9f bc bf
       -0.66828835 -5.0843873 1.8207757 -1.47363
0003e0 39 7f e8 bf a5 05 a9 3f f5 ea 40 c0 cd 4c fd be
       -1.8163825 1.3204848 -3.0143406 -0.49472657
0003f0 2b 67 af 3f cc f1 3c 3f 50 cf 17 bf 0f 40 dd 3f
       1.3703359 0.7380645 -0.5930071 1.7285174

fc1.bias f4 [256]
000000 ea d9 1c 3c c1 08 39 be d6 4b 9d bd 14 e6 69 3d
       0.009573439 -0.18069746 -0.0768048 0.057104185
000010 b5 41 f6 3d 51 a7 2a bd 32 2b 24 3e 33 57 f0 3d
       0.12024251 -0.04166347 0.16032103 0.11735382
000020 e0 b4 a2 3d 71 86 bd 3c 37 2f be bd e1 da aa 3d
       0.079446554 0.023135396 -0.09286349 0.08342529
000030 0d 57 c8 bd a0 d7 bd bc ee c1 1f be 3a 46 9e 3d
       -0.097822286 -0.023174107 -0.15601322 0.077282384
000040 08 62 45 bd 50 9d aa bd a1 bb a0 bb 2d f5 0a 3e
       -0.048189193 -0.08330786 -0.0049051796 0.1357009
000050 88 f1 00 3d 97 f7 e3 3b 02 60 17 be 45 9d ab 3c
       0.031480342 0.0069570052 -0.14782718 0.020949015
000060 c4 64 17 be da 19 34 3e 74 2d a8 3d 5a e6 82 3c
       -0.14784533 0.17587987 0.082117945 0.01597898
000070 bc 91 6d 3e 22 e6 e1 3d 8f 1b fd 3d 1f 41 cf 3d
       0.23200125 0.110302225 0.12358772 0.10119843
000080 58 92 0a 3c 62 b8 04 bd 2f 13 46 be 50 91 a2 3d
       0.008457743 -0.032402404 -0.19343255 0.079378724
000090 cb 95 ba bc ab 12 11 3e e1 f8 e0 3c f8 fa a9 3d
       -0.022776505 0.14167278 0.027462425 0.082998216
0000a0 e7 f6 ee 3d fe 6b f5 bd bb 00 34 bd c5 0f 3a be
       0.11668187 -0.119834885 -0.04394601 -0.18170078
0000b0 4f 6b ce bd 9d 72 fa 3d 26 8f 39 be f2 64 8f 3d
       -0.10079061 0.12228892 -0.18121013 0.07001676
0000c0 6a 61 99 3c 2d d5 0d 3e f7 5f 21 3e e3 cc 0c 3e
       0.018723208 0.13850851 0.15759264 0.13750033
0000d0 ce 67 85 bd ee 74 9c bd c6 6b 7c bd 1d 81 19 be
       -0.0651394 -0.0763949 -0.06162622 -0.14990659
0000e0 1f e5 e0 3d a8 49 24 3e af 40 bd 3d 1f 15 0f 3e
       0.109812014 0.16043723 0.09240853 0.13972901
0000f0 36 f9 9a 3d 9a f6 96 3b 5f ce 34 bd be f7 b5 bd
       0.075670645 0.004607034 -0.044142123 -0.08885144
000100 a3 e1 37 3c df b9 34 be 07 76 c3 bc a9 f6 70 3e
       0.01122323 -0.17649029 -0.02385999 0.23531593
000110 9d 39 1c be 87 a8 7b bd f2 77 8d 3d 11 a9 95 bd
       -0.15256353 -0.061440017 0.069076434 -0.073076375
000120 1e 19 89 3c d5 a5 92 bd 61 b4 1e 3e 57 25 7b bd
       0.01673561 -0.07160536 0.15498497 -0.061314907
000130 f2 ec cd bd e8 7e 5d be 85 2f 0d be 16 43 02 be
       -0.10054959 -0.21630442 -0.13787659 -0.12720904
000140 68 1e fb 3d eb 29 b2 3d 27 85 61 be 36 bc 3f be
       0.12261659 0.086994015 -0.2202345 -0.1872414
000150 8b 83 88 bd a7 2d c1 bd 65 94 bc 3d 29 dc c6 bd
       -0.06665715 -0.094325356 0.092079915 -0.09709961
000160 94 5a dc 3d ee fc 7c bc e6 92 0d 3e 78 06 58 bc
       0.10759464 -0.0154411625 0.13825569 -0.013185136
000170 d4 e6 bb bc 2f 60 89 3d 41 1e 3b 3e 13 31 b7 3c
       -0.022937216 0.06707799 0.1827326 0.022362268
000180 1f 0e 2c 3e 1b 6f d1 bc ec 16 60 3d 35 52 ac bd
       0.16802262 -0.025565675 0.05470936 -0.08414117
000190 e0 30 0a 3d 91 64 d7 bd 4d d8 05 3e 0c 96 a6 bd
       0.033738017 -0.105172284 0.13070793 -0.08134088
0001a0 b6 0e 06 3e c0 56 50 3e d4 4e 30 3b ed 47 34 3e
       0.1309155 0.20345592 0.0026902454 0.17605563
0001b0 ce 49 09 3e b2 20 d7 bd 72 e5 dd 3c 9e 5a 1e bd
       0.1340706 -0.10504283 0.027086947 -0.038660638
0001c0 ab 92 98 3d 1f 72 13 3d bf 6d 2a be 5c 73 0d bd
       0.0744985 0.035997506 -0.16643427 -0.034533843
0001d0 6b eb 45 be 5e d5 ae bc fb c2 0c be be d2 e5 3d
       -0.19328086 -0.021341976 -0.13746254 0.112218365
0001e0 46 91 7e bd ee d4 b4 bd 07 27 bf bd 20 a8 a8 bc
       -0.062150262 -0.088296756 -0.09333616 -0.02058798
0001f0 ef 97 af bd 2f 43 1e 3e ff 7c 17 3e d2 6c 2b 3d
       -0.08573901 0.15455316 0.14793776 0.041851826
000200 3b fa cb bd 1e fb 07 3e 7b ff a2 3d 5a 82 60 3c
       -0.09959837 0.13279387 0.07958885 0.013702953
000210 5b 6a b8 bc f6 a3 91 3d 1d 37 22 3e 89 1b 1a be
       -0.022511652 0.07111351 0.15841337 -0.15049566
000220 89 0e 5f bc 7e e7 26 3e 49 45 91 bc 6a 32 a0 3d
       -0.013614305 0.16299245 -0.017733233 0.07822116
000230 98 56 1c be 2a af bc bd 0b 8c 34 3e 6a 2e cc 3d
       -0.15267408 -0.092130974 0.17631547 0.0996979
000240 94 a6 e2 bd 20 f5 6d bd e0 fb 0a 3e b4 a5 3e 3e
       -0.110669285 -0.058095098 0.13572645 0.18617898
000250 ce 6e 8f bb 0f 3b 9a bd a2 aa e9 3d 7e ed b9 bd
       -0.0043772226 -0.07530796 0.11409499 -0.09078501
000260 76 83 b0 bd 98 5a 4f be f2 c0 2a be 0a 45 01 be
       -0.08618824 -0.20249403 -0.16675165 -0.12623993
000270 6c 39 8f 3d d3 3d 36 3d 0b 84 d6 bc 6f e0 8b 3d
       0.06993374 0.044492554 -0.02618601 0.06829917
000280 3d 65 82 bd 8c e0 df bd 8a 86 c0 3b 35 07 23 bc
       -0.06366966 -0.10931501 0.0058754133 -0.009950449
000290 e0 d4 00 be 72 ae 69 3d 6c b2 d5 bd 49 b1 4b be
       -0.12581205 0.05705113 -0.10434422 -0.19891848
0002a0 2a 63 3b be 7d e0 88 bd bb 77 42 be fe c2 c8 3d
       -0.18299547 -0.06683443 -0.18990986 0.09802817
0002b0 80 4e e7 bd ef 21 2a 3c dd d2 2a 3e 78 f2 c5 3d
       -0.112942696 0.010384067 0.16682 0.09665388
0002c0 87 b7 0a be 64 b6 7f bd 5e 8c dd bd 46 ee 5e bd
       -0.13546573 -0.0624298 -0.108177885 -0.054426454
0002d0 2d de 5a bd 4e 58 24 be a9 e5 df bd 89 e2 0d be
       -0.05343454 -0.1604931 -0.10932476 -0.13855948
0002e0 24 bc 93 3d 77 df ff bb c7 93 bc bd a1 5b 10 be
       0.07213619 -0.0078086215 -0.09207874 -0.14097454
0002f0 32 a0 08 be c4 18 af bb 34 87 6b 3d 9b b7 40 3d
       -0.1334236 -0.0053435285 0.057501987 0.0470501
000300 16 bf 53 3c 07 0c a2 bc e2 5f 16 be f5 9c 34 bd
       0.012923976 -0.019781126 -0.14685014 -0.044095
000310 93 9c 75 3d 00 f3 51 3e 07 49 e7 bb 52 45 31 3e
       0.059963774 0.20502853 -0.007058266 0.173116
000320 8a f3 94 bc 11 44 1c 3d e1 f1 b1 3d 23 e5 ae bd
       -0.018182535 0.03815085 0.08688713 -0.08539798
000330 de 31 80 bc 03 87 89 bc bc fe f2 bd 79 64 bb 3d
       -0.015648779 -0.016788011 -0.11864993 0.09150023
000340 90 15 fa bd fd 3f 96 bb 9c 74 0b 3d 0b 84 0e be
       -0.12211144 -0.0045852647 0.034046754 -0.13917558
000350 47 dd e5 bd 59 d5 8a 3a c7 ec 0f be 29 a7 43 be
       -0.11223846 0.0010592147 -0.14055167 -0.19106735
000360 9c c1 8d bd 19 7a 8a bc 2d 52 4a 3d 05 0f e3 ba
       -0.06921694 -0.016903924 0.049394775 -0.0017323202
000370 68 67 14 be 53 d1 f5 bd ab b8 e4 3d 43 59 45 3d
       -0.14492571 -0.12002816 0.11168035 0.04818083
000380 14 2d 0b 3e 24 b6 24 be be 83 8c 3d a4 99 cf bc
       0.13591415 -0.16085106 0.06861065 -0.025341816
000390 ff 10 18 be 9e c2 c1 3d 3d 3e 99 3d 5f 1e 2c be
       -0.14850233 0.094609484 0.07482574 -0.1680846
0003a0 3e 8e a0 3d 35 08 61 3d 66 3a 3e 3e 83 e5 41 3e
       0.078396305 0.054939467 0.18576965 0.18935208
0003b0 14 fc 82 3d b8 f8 b2 3d f9 0f 83 bd 5f 62 1f 3d
       0.06395736 0.087388456 -0.06399531 0.038912173
0003c0 85 c8 d9 3d e8 e9 e2 bd 0c 19 1f be 89 0f 0d 3e
       0.10633949 -0.1107977 -0.15536898 0.13775457
0003d0 86 47 10 be 40 d5 1c be dc b9 47 bd bc ea e2 3d
       -0.14089784 -0.15315723 -0.048761234 0.11079928
0003e0 48 a7 1e 3c 14 bc 4f bd b1 e1 82 3d 09 56 9d 3c
       0.009683438 -0.050716475 0.063907035 0.019206064
0003f0 bc 6a 2a 3e 84 97 f5 bd 15 0a d3 bd e6 38 f9 3d
       0.16642278 -0.1199179 -0.10304657 0.12169056

bn1.weight f4 [256]
000000 e4 40 05 40 2f 15 2e 40 a0 82 0c 40 6a a2 1a 40
       2.0820856 2.720043 2.1954727 2.416163
000010 0f b8 e8 3f 40 75 cc 3f 67 0c 1b 40 49 4b d5 3f
       1.818117 1.5973282 2.422632 1.66636
000020 e8 c7 d4 3f 64 37 07 40 df 22 07 40 06 af 0c 40
       1.6623507 2.1127558 2.1115034 2.1981826
000030 a1 d6 33 40 0a c4 de 3f 1e a4 12 40 1d b1 1a 40
       2.809975 1.7403576 2.291267 2.4170601
000040 54 d9 65 40 e2 e0 e8 3f e8 ec 2c 40 d0 5c 2c 40
       3.5913897 1.8193629 2.7019596 2.6931648
000050 b4 18 f8 3f 76 79 d6 3f 0b 19 8a 40 e7 72 0a 40
       1.9382539 1.6755817 4.315557 2.163263
000060 9b a2 2f 40 ce 33 23 40 ec 21 12 40 9b 58 4f 40
       2.7442997 2.550037 2.2833204 3.239783
000070 c0 57 0f 40 eb c4 1c 40 66 33 1c 40 6e 7c 3b 40
       2.2397308 2.449519 2.440637 2.9294696
000080 8f 6b f7 3f e4 0f e1 3f 63 81 13 40 3f 9c d2 3f
       1.9329699 1.7582974 2.3047721 1.6453933
000090 25 7d bf 3f 5a 28 04 40 e6 96 2e 40 99 c8 59 3f
       1.4960066 2.0649629 2.72796 0.8507171
0000a0 3d cb af 3f 4e 99 fb 3f c8 07 65 40 7a 53 0f 40
       1.3733898 1.965616 3.5786 2.23947
0000b0 31 c6 35 40 be e9 07 40 93 71 c1 3f 2a 5a 0a 40
       2.8402216 2.1236415 1.5112785 2.1617532
0000c0 fe ae 27 40 73 ce 0c 40 f2 46 11 40 07 94 2b 40
       2.6200557 2.2001007 2.2699552 2.6809099
0000d0 e7 b8 00 40 7d 17 4c 40 19 cc 61 40 4f 60 22 40
       2.0112855 3.1889336 3.5280821 2.5371282
0000e0 20 25 d4 3f 54 cf 7f 40 07 e0 39 40 a8 c5 41 40
       1.657383 3.9970293 2.9042985 3.027689
0000f0 81 8f 24 40 6a 82 29 40 a2 e5 35 40 b1 9d 25 40
       2.5712588 2.6485848 2.8421407 2.5877497
000100 46 6e 2b 40 45 23 27 40 e0 c8 1f 40 ce 49 0f 40
       2.6786056 2.6115277 2.4966354 2.2388797
000110 74 7c d2 3f bb 2e 0d 40 b6 7a b5 3f 92 6c 12 40
       1.644423 2.2059772 1.4178073 2.2878766
000120 0f 96 0a 40 36 83 0e 40 c7 ae 13 40 28 1a 0c 40
       2.1654088 2.2267585 2.3075426 2.1890965
000130 5e 32 17 40 34 ae 3e 40 c9 42 16 40 8b 39 17 40
       2.3624492 2.9793825 2.3478262 2.3628871
000140 2c 91 f6 3f 65 05 14 40 a9 15 82 40 13 ed 29 40
       1.9263053 2.3128293 4.065144 2.6550949
000150 f0 a0 06 40 8e fd 40 40 c5 ec 09 40 df 28 32 40
       2.1035728 3.0154757 2.1550763 2.7837446
000160 ef 2a 24 40 d3 99 f9 3f b9 85 16 40 b8 7b 37 40
       2.5651205 1.9500068 2.3519118 2.8669262
000170 43 5d fe 3f ae 86 2e 40 78 09 fc 3f 05 a9 a5 3f
       1.9872211 2.7269702 1.969039 1.2942206
000180 63 6f ec 3f 57 01 08 40 8a 2e 24 40 7a 69 0e 40
       1.8471493 2.1250818 2.5653405 2.2251878
000190 e0 b8 30 40 66 ae bc 3f 83 36 2f 40 63 18 14 40
       2.7612839 1.4740722 2.7377021 2.3139884
0001a0 b5 6e f0 3f 6b e2 0b 40 21 04 3e 40 84 86 18 40
       1.8783785 2.1856945 2.969002 2.3832102
0001b0 46 1b 24 40 5f 26 18 40 99 77 14 40 69 ce d5 3f
       2.5641646 2.377342 2.3197997 1.6703616
0001c0 6b d8 1e 40 c5 b0 ca 3f ff c7 07 40 d7 8b 0c 40
       2.481959 1.5835196 2.1215818 2.1960351
0001d0 72 96 0c 40 c2 8e fe 3f d7 3e 23 40 78 e6 2a 40
       2.1966825 1.9887316 2.5507104 2.6703167
0001e0 5e ad e0 3f 3d ec 3c 40 c5 53 42 40 c3 cf 3a 40
       1.7552907 2.9519188 3.036363 2.9189308
0001f0 52 5d b7 3f a1 d4 02 40 02 88 3d 40 0b 15 29 40
       1.4325354 2.0442278 2.9614263 2.6419094
000200 ec 99 e1 3f e8 6f d0 3f 25 58 0e 40 c3 05 f1 3f
       1.7625098 1.6284151 2.22413 1.8829883
000210 9c 15 68 40 6c bd 00 40 f6 41 1b 40 0d 04 36 40
       3.626319 2.0115614 2.425901 2.8439972
000220 61 7f 06 40 6a b4 25 40 d7 3e 34 40 19 3a 97 3f
       2.1015246 2.5891366 2.8163354 1.1814605
000230 b7 50 1a 40 d2 14 e7 3f 7f 33 28 40 ac 0e 6f 3f
       2.4111764 1.8053229 2.628143 0.9338176
000240 81 25 13 40 0a 9e 07 40 a7 5c 13 40 a8 1a cf 3f
       2.299164 2.119021 2.30253 1.618001
000250 19 cf 0f 40 9a 14 16 40 d9 94 f3 3f c8 1e 0f 40
       2.2470152 2.3450074 1.90298 2.2362537
000260 19 cf 2f 40 2a 4a f8 3f 54 ac 87 3f a0 74 fe 3f
       2.7470152 1.9397633 1.0599465 1.9879341
000270 e0 86 0a 40 2c d9 15 40 22 e8 16 40 49 a2 1e 40
       2.164482 2.3413801 2.3579183 2.478655
000280 ed 7a 08 40 9b a0 37 40 a6 63 e6 3f c7 17 02 40
       2.1325028 2.8691776 1.799916 2.0327013
000290 59 66 ff 3f 03 76 df 3f c7 0e ea 3f 5a eb 0f 40
       1.9953109 1.7457889 1.828576 2.2487397
0002a0 86 c6 fb 3f 1f 8c d5 3f 81 e5 08 40 31 33 ef 3f
       1.966996 1.6683387 2.1390078 1.8687497
0002b0 0a 73 e1 3f 3a 65 07 40 5f ac 5d 40 9b ae 17 40
       1.7613232 2.1155534 3.4636457 2.370032
0002c0 fc 2c 0e 40 01 65 3a 40 0a c5 17 40 b7 e6 2c 40
       2.2214956 2.9124148 2.3714013 2.7015817
0002d0 63 77 e5 3f 44 89 0b 40 c9 c4 18 40 7b 90 12 40
       1.7927059 2.180253 2.3870108 2.2900684
0002e0 02 8c df 3f 67 aa 76 40 55 aa fe 3f 24 f0 2d 40
       1.7464602 3.8541505 1.9895731 2.717782
0002f0 ac c5 1a 40 49 e5 19 40 4f 52 17 40 80 87 18 40
       2.418315 2.4046195 2.3643987 2.3832703
000300 32 1d f8 3f c6 9f 14 40 78 da ca 3f 0d ac 18 40
       1.938391 2.3222518 1.5847921 2.3855011
000310 18 86 29 40 22 40 e6 3f 98 8a 29 40 16 84 d4 3f
       2.6488094 1.7988322 2.649084 1.660281
000320 b0 f6 08 40 48 63 11 40 a3 5c 59 40 4a 65 28 40
       2.1400566 2.2716846 3.396279 2.6311822
000330 d8 99 25 40 e0 37 04 40 ae ab fa 3f cf 0a 47 40
       2.5875149 2.0659103 1.9583642 3.1100347
000340 c9 f8 d8 3f fc 47 86 3f 0a 4b 21 40 67 9b 1b 40
       1.6950923 1.0490718 2.520205 2.43136
000350 bb ec 0a 40 e5 75 df 3f 82 f6 2a 40 53 b3 1a 40
       2.170699 1.7457854 2.6712956 2.417195
000360 bc 96 e5 3f d8 da 2b 40 4d e7 0c 40 71 fa 23 40
       1.7936625 2.6852322 2.2016175 2.5621607
000370 86 e0 68 40 4f 65 02 40 12 4a 3c 40 d1 98 25 40
       3.6387038 2.0374334 2.942021 2.5874522
000380 5b be d8 3f 99 92 10 40 0c eb 24 40 fa 3d ff 3f
       1.6933092 2.2589476 2.5768461 1.9940789
000390 c4 b4 11 40 3c bb 09 40 8f 4a 19 40 7e bd 20 40
       2.276658 2.1520529 2.3951757 2.5115657
0003a0 60 3a 1a 40 0b 04 21 40 3d 4a 3a 40 42 38 11 40
       2.409813 2.5158718 2.9107811 2.2690587
0003b0 ea 3f 45 40 b1 ca 60 40 fa b8 51 40 75 27 09 40
       3.082026 3.5123713 3.276915 2.1430333
0003c0 10 b2 1c 40 a2 f8 04 40 fd 73 cf 3f 28 79 15 40
       2.448368 2.0776753 1.6207272 2.3355198
0003d0 13 ac c9 3f f7 b3 ed 3f 5d 8c e6 3f 98 a3 5b 40
       1.5755638 1.8570546 1.8011585 3.43186
0003e0 4f bb 26 40 2e 1f a3 3f cd 3e 17 40 6e 5f ae 3f
       2.6051824 1.274389 2.363208 1.3622873
0003f0 c8 d5 07 40 fd 42 e9 3f f3 d4 40 40 07 88 e5 3f
       2.1224232 1.8223568 3.0129974 1.7932137

bn1.bias f4 [256]
000000 bb b1 73 bf 36 b0 c9 bf be bd b7 bf 02 b9 f9 bf
       -0.9519307 -1.57569 -1.435478 -1.9509585
000010 12 ba 57 bf 81 9f 97 bf 98 78 e0 bf e2 c5 2f bf
       -0.84268296 -1.1845552 -1.7536802 -0.6866132
000020 03 56 36 bf 6b 90 57 bf 40 99 cd bf ba 47 f5 bf
       -0.71224993 -0.8420474 -1.6062393 -1.9162514
000030 f0 73 23 c0 69 28 41 bf 63 49 f6 bf 48 63 04 c0
       -2.5539513 -0.75452286 -1.9241146 -2.0685596
000040 76 02 2b c0 7e a0 0f bf 61 1a 36 c0 d4 5f d6 bf
       -2.6720252 -0.56104267 -2.84536 -1.6747994
000050 d1 f7 9e bf 99 f6 eb be 00 bc 11 c0 98 69 d8 bf
       -1.2419378 -0.46086577 -2.2770996 -1.6907225
000060 91 41 30 c0 9a ca fc bf 0c ce f6 bf 45 8e d5 bf
       -2.7540019 -1.9749329 -1.928163 -1.6684042
000070 87 17 b0 bf 8c 1e 2c c0 14 a8 fa bf c6 45 0a c0
       -1.375718 -2.6893644 -1.9582543 -2.1605086
000080 2a 45 c7 bf b8 73 c9 bf e6 28 d2 bf f1 e8 7e bf
       -1.5567982 -1.573844 -1.6418731 -0.9957419
000090 e8 79 04 bf cd e4 9b bf 38 07 8a bf 57 f9 20 3e
       -0.51748514 -1.21792 -1.0783453 0.15720116
0000a0 bc ae 5f bf 68 ec a7 bf cd 74 e6 bf 8a 4f aa bf
       -0.87376 -1.311902 -1.8004395 -1.3305523
0000b0 f9 04 25 c0 54 36 75 bf e3 4d 54 be 07 bb bb bf
       -2.5784285 -0.95786023 -0.20732836 -1.4666451
0000c0 33 aa 1b c0 7e ba e9 bf 32 69 9f bf 41 ac f4 bf
       -2.4322631 -1.8260038 -1.2453978 -1.9115068
0000d0 64 95 b1 bf 17 b4 ac bf cb ae de bf ac 22 b7 bf
       -1.3873715 -1.3492459 -1.7397093 -1.4307456
0000e0 87 e7 89 be 68 e6 c6 bf 16 d2 fd bf cd d2 14 c0
       -0.26934454 -1.5539064 -1.9829738 -2.3253663
0000f0 13 60 1c c0 b5 ab 97 bf d0 82 21 c0 0e 8f 08 c0
       -2.443364 -1.1849276 -2.5236092 -2.1337314
000100 70 43 29 c0 aa 97 9b bf e9 e3 00 c0 5c e2 a8 bf
       -2.644741 -1.2155659 -2.0139105 -1.3194079
000110 65 28 35 bf e1 3f 9e bf a2 90 a9 bd 1e f2 f9 bf
       -0.7076476 -1.2363244 -0.0827954 -1.9527013
000120 8c 63 58 bf d2 93 a0 bf 7a b5 29 c0 34 d4 8a bf
       -0.84526896 -1.2545111 -2.6517015 -1.0846009
000130 1c 23 06 c0 d1 0a 27 c0 8b 3d ef bf d1 54 c4 bf
       -2.095893 -2.6100352 -1.8690656 -1.5338384
000140 79 0e b2 bf 5a 65 9e bf 1a 8f 01 c0 7f 86 f7 bf
       -1.3910667 -1.237468 -2.0243592 -1.933792
000150 c7 5a a2 bf a8 67 f9 bf 29 f4 84 bf 26 df ff bf
       -1.2683953 -1.9484758 -1.0387012 -1.9989974
000160 f0 48 16 c0 46 03 b1 bf 8f 1c b5 bf 06 74 a9 bf
       -2.3482018 -1.3829124 -1.414934 -1.3238533
000170 bf 2f 6f bf 14 10 a6 bf 2d b9 65 bf 90 fe 39 bf
       -0.9343223 -1.2973657 -0.8973568 -0.72654057
000180 67 98 c6 bf a2 32 d5 bf 66 97 ce bf 4c 5f e8 bf
       -1.551526 -1.6656077 -1.6139953 -1.8154082
000190 d9 96 da bf 59 bb 81 bf 42 82 06 c0 57 50 e1 bf
       -1.7077285 -1.0135299 -2.1017003 -1.7602643
0001a0 81 e6 9a bf 46 f9 e1 bf ae 19 17 c0 c5 e5 83 bf
       -1.2101594 -1.7654197 -2.3609424 -1.0304495
0001b0 d2 dd d1 bf 56 9c ec bf da cd 9d bf ad e5 44 bf
       -1.6395819 -1.848521 -1.2328446 -0.7691296
0001c0 18 16 cf bf 35 17 88 bf 09 6f de bf 36 9a 87 bf
       -1.6178617 -1.0632082 -1.7377635 -1.0593936
0001d0 ce 50 91 bf c5 d8 27 c0 c6 9d 06 c0 ce 33 0f c0
       -1.1352785 -2.6226056 -2.1033797 -2.237537
0001e0 e5 22 ca bf dc e8 a3 bf 4e 58 df bf f5 bc 12 c0
       -1.5791899 -1.2805438 -1.7448823 -2.292783
0001f0 a3 65 21 bf fc 8a 58 bf 64 a6 26 c0 c4 4d c9 bf
       -0.6304571 -0.84587073 -2.6039057 -1.5726857
000200 b9 c3 8b bf 1e 2d 64 bf 48 ea 00 c0 17 50 b6 bf
       -1.0919105 -0.89131343 -2.0142994 -1.4243191
000210 80 b5 4c c0 9d f5 44 bf 71 fb a4 bf c1 28 0e c0
       -3.198578 -0.76937276 -1.2889234 -2.2212374
000220 0a 49 0f c0 74 05 0d c0 8f ae fd bf 5d a4 d9 be
       -2.238833 -2.2034578 -1.9818896 -0.42508212
000230 d0 83 ab bf 94 ce 70 bf 42 b4 d4 bf e5 6a c5 3d
       -1.3399601 -0.94065213 -1.661751 0.09639529
000240 4d 97 06 c0 fa 87 69 bf 0b c6 03 c0 3f 1a 7f bf
       -2.1029847 -0.9122311 -2.0589626 -0.99649423
000250 94 53 a7 bf 4f 48 b1 bf f3 b6 bd bf 72 83 a4 bf
       -1.3072381 -1.3850192 -1.4821457 -1.2852614
000260 63 df 12 c0 7a 8b 95 bf c1 18 58 be 7d 82 83 bf
       -2.2948844 -1.168319 -0.21103193 -1.0274197
000270 0c 3d a9 bf 18 05 ff bf 1a 10 84 bf f6 2a c6 bf
       -1.3221755 -1.992343 -1.0317414 -1.5481861
000280 78 f2 d6 bf 1e 37 09 c0 5f 70 6e bf 4d 1e 43 bf
       -1.6792746 -2.143989 -0.93140215 -0.7621811
000290 b0 af 6e bf 9f db 64 bf 61 64 93 bf eb 08 ef bf
       -0.9323683 -0.89397615 -1.1515008 -1.8674597
0002a0 74 00 c2 bf b3 84 2f bf 4b 3b 70 bf 6c fa d4 bf
       -1.5156388 -0.6856186 -0.93840474 -1.6638923
0002b0 96 59 d3 bf 0a 3d dc bf 9e ba 0b c0 d5 a7 97 bf
       -1.6511714 -1.7206128 -2.1832652 -1.1848093
0002c0 f5 a6 c6 bf fb 31 0d c0 54 f0 cb bf 3d c1 bf bf
       -1.5519701 -2.2061756 -1.5932717 -1.4980847
0002d0 e8 eb c3 bf 18 80 a7 bf ca 52 0c c0 8e 5e b0 bf
       -1.5306368 -1.3085966 -2.192553 -1.3778856
0002e0 d5 bb c6 bf 2d 95 14 c0 b5 bc cf bf 31 02 d2 bf
       -1.5526072 -2.321605 -1.6229464 -1.6406919
0002f0 df 05 ae bf ad 42 b1 bf 2c 6e e4 bf 0e 29 00 c0
       -1.3595542 -1.3848473 -1.7846122 -2.0025058
000300 cd 60 cf bf 9c 92 9a bf cf 12 8d bf 2b 2e d8 bf
       -1.6201416 -1.2075992 -1.1021365 -1.6889089
000310 f8 ba bf bf cb 8a 93 bf 52 2c d6 bf f3 33 83 bf
       -1.4978933 -1.1526731 -1.6732275 -1.0250229
000320 13 e3 8e bf 62 90 93 bf 17 eb 29 c0 53 29 07 c0
       -1.1163048 -1.1528437 -2.6549737 -2.1118972
000330 72 70 e7 bf 2a af c0 bf 27 66 83 bf 18 d4 09 c0
       -1.808119 -1.5053456 -1.026555 -2.1535702
000340 fc dd 88 bf 15 b3 0e be bc c5 dc bf c5 9c a9 bf
       -1.0692744 -0.13935502 -1.7247844 -1.3250967
000350 94 c9 d8 bf 53 ef dd be a3 c3 d2 bf 1a 25 e1 bf
       -1.6936517 -0.43346652 -1.6465954 -1.7589447
000360 4b a3 cb bf bc 2a f1 bf 2b 15 fb bf 63 79 e7 bf
       -1.5909208 -1.8841166 -1.9615835 -1.8083919
000370 90 cf ef bf 99 db a3 bf 02 dd a3 bf 86 f1 1a c0
       -1.8735218 -1.2801391 -1.2801821 -2.4209914
000380 6d 48 88 bf 05 b0 bc bf 27 7f fb bf bc 06 ac bf
       -1.0647103 -1.4741217 -1.9648179 -1.3439555
000390 0d 57 24 c0 af 6a 41 bf b5 34 f0 bf fa 12 9f bf
       -2.5678132 -0.7555341 -1.8766085 -1.2427666
0003a0 0d f6 c7 bf 60 86 31 c0 84 88 37 c0 89 b0 98 bf
       -1.5621964 -2.7738266 -2.8677073 -1.1928874
0003b0 aa ec 1f c0 8a ea 2f c0 56 d0 c0 bf 3a 87 15 c0
       -2.4988198 -2.7486901 -1.5063579 -2.3363786
0003c0 b7 4a 9d bf 62 4c 16 be 9a 93 82 bf d4 2b e3 bf
       -1.2288426 -0.14677575 -1.0201294 -1.774775
0003d0 83 04 57 bf e0 36 98 bf e7 bc fc bf da 96 27 c0
       -0.8399126 -1.1891747 -1.9745148 -2.6185822
0003e0 ed 6a 21 c0 26 f3 ee be 90 b5 03 c0 d6 65 07 bf
       -2.5221512 -0.46669883 -2.0579567 -0.52889764
0003f0 f1 2c c8 bf fe c6 a0 bf 3f 1c 07 c0 f6 2d 80 bf
       -1.5638715 -1.2560728 -2.111099 -1.0014026

bn1.running_mean f4 [256]
000000 ef 7c b7 3e 7c 60 1a 3e 31 99 d3 3d c8 0e 03 3e
       0.35837504 0.15075868 0.10331953 0.12798607
000010 bf 18 7a 3e 34 9b c3 be 9e 17 08 3e 7f 77 9f 3e
       0.24423502 -0.38204348 0.13290259 0.31145856
000020 7a ed 83 be e5 c2 96 3d e4 16 03 be 03 b6 98 3e
       -0.25767118 0.07361392 -0.12801701 0.29826364
000030 10 a4 06 3c 1b 7b f3 3d 15 51 35 bd 02 1e 3d be
       0.0082178265 0.11888715 -0.04426678 -0.18468478
000040 cb 92 3c bd 37 ac 22 3e d0 76 54 3e 5f cc 3b 3e
       -0.04603843 0.15886007 0.20748448 0.1833968
000050 d5 ad a0 3c a8 f1 c5 3d 90 18 96 be 93 06 dd 3d
       0.01961414 0.09665233 -0.29315615 0.107922696
000060 5e fc 00 be e6 f9 3d 3e 06 20 84 be 36 6f 95 3e
       -0.1259627 0.1855236 -0.25805682 0.2918641
000070 ed 06 ad 3e 5b 7e 57 3e 80 1d de bd d2 b1 69 3e
       0.33794346 0.21044295 -0.108454704 0.2282174
000080 dd 49 bb be 8f 6b a8 3c d2 75 1f be d2 3f d1 3e
       -0.3657979 0.0205591 -0.15572289 0.40869004
000090 a0 30 d1 bd ff 63 9a 3e 2d 63 9e 3c 7c 7d e0 be
       -0.102143526 0.30154416 0.0193344 -0.43845737
0000a0 05 78 9e 3d ff 87 01 3e 21 fd 36 be 24 84 67 3e
       0.07737736 0.12649535 -0.17869999 0.22609001
0000b0 26 94 15 bf 54 f8 0e 3f bb 2e 87 be e3 32 3d 3d
       -0.5842918 0.5584767 -0.2640284 0.046191107
0000c0 75 dc ab bd 9a 61 ee 3e 70 4b 05 3e 34 6b 25 3c
       -0.08391658 0.4655884 0.13017058 0.01009636
0000d0 01 92 a0 3d 92 12 24 3e 1e 76 c2 bd 62 f9 6b be
       0.07840348 0.16022709 -0.09495185 -0.2304435
0000e0 31 47 b4 bd 19 00 91 3e e6 4e 1b be 1b e8 5e 3e
       -0.08802641 0.28320387 -0.15166816 0.21768229
0000f0 70 a8 1e be c4 9a 66 3e 38 f9 79 bd 90 75 bc be
       -0.15493941 0.22519976 -0.06102869 -0.36808443
000100 e4 d7 6d bd 6c 96 a7 be 4e 5e 04 3e 44 8a 6e bd
       -0.058067217 -0.3273195 0.129266 -0.05823733
000110 0e ec 98 be 60 11 c4 bb 31 5f a5 3d 05 02 d5 be
       -0.29867595 -0.0059835166 0.08074797 -0.41603103
000120 94 c5 87 bd 98 eb 9c be c4 c9 a0 3e b4 b9 39 bd
       -0.06629482 -0.30648494 0.31403935 -0.045343116
000130 77 b8 c8 3d 8a af 2e bf 87 0b 8b 3e d2 25 e9 be
       0.09800809 -0.682366 0.27157232 -0.45536667
000140 8f 18 b7 3d 5f a3 13 3e d4 70 e0 bd d7 ce fa 3d
       0.08940231 0.1441779 -0.1095902 0.12246483
000150 a2 04 df 3e c4 0f 25 3d 8c 0d 60 3e bc 91 a4 be
       0.43558222 0.04029824 0.21880168 -0.32142437
000160 66 7c b2 3d 18 a4 c0 3e de 38 d7 3c d8 e5 90 3e
       0.08715133 0.37625194 0.026272234 0.28300357
000170 9a 85 7a be d0 be c5 3e a6 99 cd 3e a0 81 67 3c
       -0.24465027 0.3862214 0.40156287 0.014130026
000180 c1 ba 20 bd f6 89 dc 3d 2c 19 45 be c4 98 cd bd
       -0.039240602 0.107685015 -0.19247884 -0.10038903
000190 b0 f8 57 be 40 ab 35 be 02 a7 be 3e 89 d3 6f bd
       -0.2109096 -0.17741108 0.37236792 -0.058551345
0001a0 94 0c 67 be 3e 69 2a 3e ff 53 a3 bd d4 10 67 3e
       -0.22563392 0.16641709 -0.07975005 0.22565013
0001b0 7f 16 ab 3e 9e 7f a7 bd 40 b6 f0 3d 24 20 7a be
       0.334156 -0.08178638 0.117535114 -0.24426323
0001c0 3b e2 a1 3d df 40 7b 3e 96 bc 80 bd e1 50 2a bd
       0.07904478 0.24536465 -0.0628597 -0.04158104
0001d0 3e fd 6b be 34 fd 2f 3e bb b7 0d bf 05 c5 93 be
       -0.23045823 0.17186433 -0.55358475 -0.2886125
0001e0 34 a7 f3 bc a7 0e 73 3e a1 5d 53 3e d0 b8 b7 3b
       -0.029742815 0.23736058 0.20641185 0.005606748
0001f0 92 18 cc be f4 7e 99 bd 65 4f 33 3d b4 44 be 3d
       -0.39862496 -0.074949175 0.04377689 0.09290448
000200 16 b7 55 3d c6 cd 78 3d 64 d4 4f be 00 79 95 3d
       0.052176557 0.060743116 -0.20295864 0.072984695
000210 4e 80 cb bd 1e e0 95 3e 84 1f eb 3e d4 c9 c4 be
       -0.099365816 0.2927255 0.45922482 -0.38435233
000220 7d 11 05 be 0b 6b 43 bd 19 45 b5 be b2 4c 1c 3d
       -0.12994952 -0.047709506 -0.3540428 0.03815908
000230 38 cf 4d bc d2 b9 ab be e0 8f c7 3e 2e cb 78 be
       -0.012561612 -0.33540207 0.38976955 -0.24296257
000240 f2 26 ae be 38 19 83 3e f7 66 87 bd d9 7f de 3e
       -0.34014088 0.25605178 -0.06611436 0.43456915
000250 40 63 a7 be 5d 3d 43 be b2 b6 fc 3d 4e dd 2d bd
       -0.3269291 -0.19066377 0.12339534 -0.04244738
000260 58 75 b8 bd 58 bf ad bc 4b 1b 12 3e 03 f2 37 be
       -0.090067565 -0.021209404 0.14268224 -0.17963414
000270 13 1c 00 3e f6 4b d3 bd ea b1 de be 6d 70 8c 3d
       0.1251071 -0.10317223 -0.43495113 0.06857381
000280 d7 36 5c bd ad 0e 43 be aa 92 8e 3e 4d db dd 3e
       -0.053763237 -0.19048567 0.2784627 0.43331376
000290 14 e6 99 bc 24 1c bf 3e aa 0f 32 3d 14 37 0f bd
       -0.018786468 0.37326157 0.04347197 -0.034964636
0002a0 8e 8b 87 be a4 21 c6 3c 28 fd ca be 50 25 ab bd
       -0.2647366 0.024185963 -0.39646268 -0.08356726
0002b0 c8 28 8d be b8 ae 7f be d6 4f 2c 3e 27 a5 a2 3e
       -0.27570176 -0.24968994 0.1682733 0.31766626
0002c0 3c e1 e0 bc 30 ed 55 3c 88 7a 21 3e 84 01 ac 3d
       -0.02745115 0.013057038 0.15769398 0.083987266
0002d0 08 16 03 3d a8 0e 08 be bc ff be 3e 46 7d d8 be
       0.032003433 -0.13286841 0.37304485 -0.42283076
0002e0 46 8a 16 3e 23 12 e1 3d 7a 16 b2 be a1 23 c5 3d
       0.14701185 0.109897874 -0.34782773 0.09625936
0002f0 2e 31 94 3c 32 47 f9 bc c8 6a c9 3b 28 9c 53 3d
       0.018089857 -0.030429456 0.0061467625 0.051662594
000300 b4 b2 9b 3e a0 7d 0e be 02 4c b9 be da 56 0b bd
       0.30409777 -0.1391511 -0.36190802 -0.034018375
000310 68 e7 2e 3e 48 e4 a4 bc 45 52 92 3e 19 82 9f be
       0.17080462 -0.020128384 0.28578392 -0.31153944
000320 c2 48 fe bd d4 ab 89 3d e8 41 1b be 75 1c 09 bf
       -0.12416221 0.06722227 -0.1516186 -0.53559047
000330 04 87 d1 3d 0b a0 05 3e fb 5f 5e be d7 fd de 3d
       0.1023083 0.13049333 -0.21716301 0.1088826
000340 ec da 1c bd a0 78 d5 3d 94 7e 1b 3e 3d 25 f0 bc
       -0.038294718 0.10423398 0.15185004 -0.029314632
000350 00 4a 36 3b 00 49 d7 bd cf 8b d1 bd fc b0 e5 be
       0.0027815104 -0.105119705 -0.102317445 -0.4486159
000360 62 fd 76 be 99 a2 53 3e 4b ee 60 3c aa 4a 60 3e
       -0.24120095 0.20667495 0.0137286885 0.21903482
000370 30 9d 42 be 79 02 08 be fa 7e 6d 3e d4 d8 4c be
       -0.19005275 -0.13282193 0.23192969 -0.20004588
000380 37 b0 d8 3e 4b 55 86 bd 3a 0a 64 3e 58 d5 9c be
       0.4232194 -0.06559237 0.22269526 -0.30631518
000390 0c a5 d4 bd 0b d3 b4 bd 8c 0d 92 3e b4 02 b1 bc
       -0.10383043 -0.08829316 0.2852596 -0.021607734
0003a0 fc fd 06 be 36 5c 8b bd 92 d3 de 3e 80 cc 06 bb
       -0.13182825 -0.06804697 0.4352079 -0.002056867
0003b0 5d 47 ee bd 3b b4 f4 be bd 7a 8e bd 09 7b 8b bc
       -0.11634705 -0.47793755 -0.06957004 -0.017026441
0003c0 a4 66 63 3e 8b c7 ec bd cc b6 b0 bd ac cb d9 3e
       0.22207123 -0.11561497 -0.08628616 0.42538202
0003d0 62 9f 7f be 6c 0c 52 bd b8 7e 8f be f4 20 43 3d
       -0.24963143 -0.051281378 -0.28026366 0.04763885
0003e0 aa 8e ae 3e b5 ea 6a be a0 05 85 3c 64 b8 c4 3d
       0.3409322 -0.22941096 0.016238034 0.09605482
0003f0 6d a5 b5 3e e2 fa a2 bc ca b0 b1 bd 47 d0 de 3e
       0.35477772 -0.01989502 -0.08676298 0.43518278

bn1.running_var f4 [256]
000000 b7 d0 c0 42 41 38 15 43 fd 0c e1 42 5b c9 f3 42
       96.407646 149.21974 112.52537 121.89327
000010 cb 7b 88 42 b4 33 9b 42 1b 6f c0 42 f3 3c 5c 42
       68.24178 77.60098 96.217 55.05952
000020 e0 63 21 43 67 37 08 43 b7 32 e6 42 48 d7 83 42
       161.39014 136.21642 115.09905 65.92047
000030 02 02 9d 42 fd 8d bc 42 e2 59 f9 41 7f 2e f4 42
       78.50392 94.27732 31.168888 122.09081
000040 0a de 9b 42 d8 46 8a 42 55 29 32 42 73 02 9c 42
       77.93367 69.13837 44.540363 78.00478
000050 00 f6 a9 42 43 c6 d5 42 6b 85 11 43 4b ed ab 42
       84.98047 106.88723 145.52116 85.96346
000060 c1 19 da 42 ed 4b 8f 42 58 d0 ac 42 f1 fb c0 42
       109.0503 71.64829 86.40692 96.49207
000070 fb 4c ad 42 1c c4 bf 42 38 ac 4c 42 58 f7 a5 42
       86.65035 95.883026 51.168182 82.98309
000080 59 09 a7 42 cf 98 27 43 20 4e d5 42 9d 4c 90 42
       83.51826 167.59691 106.65259 72.149635
000090 65 f0 a1 42 64 33 be 42 a8 d2 ff 42 90 ca 78 42
       80.96952 95.10037 127.91144 62.197815
0000a0 31 8b f3 42 a1 95 ce 42 4c d8 2c 43 8b 73 d9 42
       121.77186 103.292244 172.84491 108.72567
0000b0 9e 9e 9c 42 af 38 69 42 df 49 ca 42 b5 9d 35 42
       78.3098 58.305355 101.14428 45.40401
0000c0 0a ff a9 42 40 5e 95 42 72 b4 1f 42 76 5f bc 42
       84.99812 74.68408 39.926216 94.18645
0000d0 d0 27 94 42 d9 8d e3 42 37 f4 ea 42 bd 37 e1 42
       74.07776 113.77705 117.47698 112.608864
0000e0 11 f9 7c 42 c0 37 13 43 6d c8 f6 42 b9 1a 8f 42
       63.24323 147.21777 123.39146 71.55219
0000f0 af 7e d2 42 e0 3f 1a 43 0d 8c 6e 42 5b 42 96 42
       105.24743 154.24951 59.63677 75.1296
000100 4d 19 10 43 92 70 08 43 88 14 93 42 a6 39 9f 42
       144.09883 136.43973 73.5401 79.612595
000110 83 9b bd 42 ea dd bb 42 c4 c6 81 42 cb 47 c7 42
       94.803734 93.933426 64.888214 99.64022
000120 75 bb d2 42 c1 ee ba 42 a3 4e 50 42 2b cd 77 42
       105.36613 93.46632 52.076794 61.95036
000130 87 bc 35 43 63 a9 d8 42 e5 ee b7 42 19 9d 9b 42
       181.73643 108.33083 91.96659 77.80683
000140 76 72 cd 42 d9 bb d9 42 34 28 a7 41 22 4b 85 42
       102.72356 108.86689 20.89463 66.64674
000150 d6 0c c9 42 54 b0 db 41 62 13 e4 42 3c cc bb 42
       100.52507 27.461098 114.03786 93.898895
000160 25 c2 ae 42 56 fe 60 42 04 06 fb 42 89 32 06 43
       87.37919 56.248375 125.51175 134.1974
000170 ff 99 ac 40 f9 36 ba 42 5f 16 d4 42 58 3b 05 43
       5.3937984 93.10737 106.04369 133.23181
000180 8f 42 31 43 66 da f4 42 a9 36 e8 42 b9 27 02 43
       177.26 122.42656 116.10676 130.15517
000190 1a 10 f1 42 ee d3 dd 42 27 d5 12 43 1b 67 6f 42
       120.53145 110.913925 146.83263 59.85069
0001a0 bf 29 96 42 e0 29 18 43 3f 58 91 42 f4 f2 45 42
       75.081535 152.16357 72.672356 49.48726
0001b0 1a 0e f3 42 d7 c8 df 42 0b 1e ab 42 fc df c8 42
       121.52754 111.892265 85.55868 100.43747
0001c0 4b b3 f6 42 3e 3f 01 43 83 3d 1d 43 1a 21 bd 42
       123.35018 129.24704 157.24028 94.56465
0001d0 32 5f 36 41 35 b6 4f 43 37 5b c0 42 67 03 ad 42
       11.398241 207.71175 96.178154 86.506645
0001e0 d0 fa 2d 43 1b 10 2c 43 32 d5 a8 42 ef 53 40 42
       173.97974 172.06291 84.4164 48.081966
0001f0 03 ff 87 42 e6 9e 88 40 cd 19 b1 42 a1 36 d3 42
       67.99807 4.269397 88.55039 105.6067
000200 6f f5 30 42 24 e9 76 42 c4 7a d2 42 fc a7 c6 42
       44.23968 61.727676 105.23978 99.328094
000210 bd 11 8b 42 6a bf 91 42 d0 5e d1 42 d8 c7 a2 42
       69.534645 72.873856 104.68518 81.39032
000220 59 69 ba 42 49 f8 a3 42 8a 7c c8 42 90 e8 c2 42
       93.20576 81.98493 100.24324 97.45422
000230 f6 36 ca 42 15 63 c9 42 be e1 96 42 d3 e8 90 42
       101.107346 100.69352 75.4409 72.454735
000240 2d 7e 8f 42 ad 1c 5b 42 5f 67 dd 42 0e 0d 90 42
       71.74644 54.778004 110.7019 72.0255
000250 8e 66 9d 42 05 53 71 42 ef 22 48 43 bc ea f1 42
       78.7003 60.331074 200.13646 120.958466
000260 31 7a ab 42 86 79 e5 42 10 cf f4 42 33 02 ea 42
       85.738655 114.73735 122.40442 117.004295
000270 33 38 a4 42 65 b2 ad 42 22 60 af 42 b7 53 8f 42
       82.109764 86.84843 87.68776 71.663506
000280 03 f8 cd 42 45 ee b5 42 50 be e5 42 25 28 bb 42
       102.9844 90.96537 114.871704 93.57841
000290 06 10 99 42 60 23 8a 42 de d2 9d 42 38 ce 89 42
       76.531296 69.06909 78.91185 68.90277
0002a0 b0 c6 ce 42 2e 94 ca 42 6f 7f 90 40 42 bb fd 42
       103.38806 101.28941 4.515556 126.86574
0002b0 ad 42 8b 42 b5 ea d9 42 dc 05 0a 43 3a e5 07 42
       69.630226 108.95841 138.02289 33.973854
0002c0 9f 8f aa 42 51 8d 70 42 6a 22 48 42 10 01 3a 42
       85.28051 60.138004 50.033607 46.501038
0002d0 57 1c c1 42 fb 66 dd 42 59 08 03 43 89 a5 f2 42
       96.55535 110.70113 131.03261 121.32331
0002e0 a4 70 58 42 97 3c d0 41 85 94 ae 42 49 a1 b8 42
       54.11 26.029585 87.29008 92.31501
0002f0 c8 05 be 42 e1 9a 5b 42 c8 33 a3 42 74 04 10 43
       95.01129 54.90125 81.601135 144.0174
000300 ba f1 90 42 27 aa e1 42 bb 69 9b 42 84 96 8f 42
       72.47212 112.83233 77.706505 71.793976
000310 9f 76 cf 42 e3 dd 01 43 fc 86 ff 42 f9 1c c4 42
       103.73168 129.86674 127.76364 98.05659
000320 a8 fd 98 42 23 74 47 42 d1 d2 0c 43 2f ca d0 42
       76.49542 49.863415 140.8235 104.39489
000330 cb 06 40 42 96 15 92 42 51 a4 ce 42 e1 60 b4 42
       48.006634 73.04216 103.32093 90.18922
000340 92 8c 32 43 de 63 8d 42 4f 9e cc 42 60 9d 61 42
       178.5491 70.69505 102.3092 56.403687
000350 58 d7 ec 42 7e 6c c9 41 69 c0 c1 42 62 09 0d 43
       118.42059 25.177975 96.8758 141.03665
000360 a5 e3 ac 42 31 6f 7a 42 3e ba a5 42 d4 55 4e 42
       86.44462 62.608585 82.863754 51.583817
000370 69 41 ee 42 98 1a d2 42 70 7f 12 43 d0 cc 9a 42
       119.127754 105.05194 146.4978 77.400024
000380 4b ec 40 42 56 66 96 42 08 87 87 42 43 fc e6 42
       48.230755 75.199875 67.76373 115.4927
000390 19 c2 d1 42 91 f5 e8 42 2c 8a a0 42 60 97 06 43
       104.8791 116.47962 80.26987 134.59131
0003a0 62 1c 97 42 4f 47 bd 42 05 72 4f 43 d0 1c ce 42
       75.555435 94.639275 207.44539 103.056274
0003b0 07 f6 ca 42 79 b3 01 43 63 de 0a 43 c7 1d a9 42
       101.48052 129.70107 138.8687 84.55816
0003c0 bb a1 a0 42 63 45 af 42 ff bd a4 42 c0 9f 95 42
       80.31588 87.63552 82.371086 74.81201
0003d0 c1 ad e8 42 6b f5 18 43 58 7e 14 43 1e 34 f0 42
       116.33936 152.95866 148.49353 120.10179
0003e0 f9 93 ca 42 78 05 af 42 57 c0 cc 42 2a f7 cc 42
       101.28901 87.51068 102.37566 102.48274
0003f0 f1 49 87 42 c8 60 cd 42 db 83 d6 42 84 f2 9e 42
       67.64442 102.689026 107.25753 79.47366

fc2.weight f4 [256, 256]
000000 9a e9 11 bf f9 e8 d1 bf e7 41 96 3f a7 6a 43 3f
       -0.5699707 -1.6399223 1.1738862 0.76334614
000010 a6 21 18 3f 03 27 bf 3f 8c 30 0f bf 36 08 5e c0
       0.59426343 1.493378 -0.5593345 -3.4692512
000020 0b a8 02 bf ef ba 98 3f 18 2b fe 3f b0 97 da bf
       -0.51037663 1.1932048 1.9856901 -1.7077541
000030 ce ff 8a c0 c6 37 ec bf 1c c9 fa 3f dd e2 32 bf
       -4.343726 -1.8454521 1.9592624 -0.69877416
000040 52 8c 59 bf 54 7f 79 3f 4f 27 84 bf 89 9f d3 c0
       -0.84979737 0.9745991 -1.0324496 -6.6132245
000050 d8 d7 8c 3f 75 db b6 3f 36 f2 29 3f 36 d7 c1 bf
       1.100337 1.4285723 0.6638521 -1.5143802
000060 98 07 d0 3f 13 fb 0b 3f fe e6 1a bf ad 9c 05 3f
       1.6252317 0.54679984 -0.60508716 0.52192193
000070 98 17 5b bc 81 56 40 c0 d7 ea 62 3e 69 2d ea bc
       -0.013372324 -3.0052798 0.22159897 -0.028586106
000080 16 c8 d6 3f cd e3 80 3f 02 f1 25 c0 69 80 1c c0
       1.6779811 1.0069519 -2.592835 -2.4453375
000090 d3 ba 88 3f 2f d0 92 3f 4a 63 ce 3f a9 ae db 3d
       1.0682014 1.1469783 1.6124051 0.10726673
0000a0 ba 50 9b 3e 5f 63 f3 3f 21 66 10 3f 3a 61 81 bd
       0.30335027 1.9014701 0.56405836 -0.063173726
0000b0 6a 5e ce 3e 6d 3a a6 c0 b8 d7 c3 bf c7 b9 e5 bf
       0.40306407 -5.194632 -1.5300207 -1.794732
0000c0 32 d6 3e c0 00 c2 aa 3f eb 0e a8 3e e9 0d 99 bf
       -2.9818234 1.3340454 0.32823882 -1.195737
0000d0 a0 53 0a 3e fe 25 ec 3c 72 30 4c c0 73 f2 96 c0
       0.13508463 0.02882671 -3.1904569 -4.717096
0000e0 d7 8e 22 3f 68 23 b0 bf 95 5d 1c c0 1d 5d c0 3d
       0.63499206 -1.3760805 -2.4432118 0.0939276
0000f0 b2 78 68 3f 84 50 20 bf 8c ab 82 3d fa d2 c9 bf
       0.90809166 -0.6262286 0.06380376 -1.576751
000100 74 99 82 3f 25 75 f3 3f de 0e a6 3f c6 09 34 3f
       1.020308 1.9020125 1.2973287 0.70327413
000110 a2 67 d4 c0 02 3a 9c c0 a2 fa 1a c0 27 39 b8 bf
       -6.6376505 -4.882081 -2.4215474 -1.4392442
000120 85 7d 84 3e bc 98 45 3f 5b 51 dd bf 06 96 0c 3e
       0.25877014 0.7718618 -1.7290453 0.13729104
000130 85 e5 0b 3f 26 17 e2 c0 a1 7a d4 be 78 3a 8d 3e
       0.54647094 -7.0653257 -0.41499808 0.2758367
000140 49 30 90 3f 1a 9f 9f 3f 3a 58 26 3f 2c 01 4c c0
       1.1264735 1.2470429 0.64978373 -3.1875715
000150 53 b7 81 bf 40 40 98 3f 5e cc 67 3f 5b 1c f4 3e
       -1.0134071 1.1894608 0.90546215 0.47677884
000160 2e 74 20 40 5c b6 b7 3f 0d 04 78 3f ed d7 d0 c0
       2.507091 1.4352527 0.9688118 -6.526358
000170 9d 74 4d c0 7a 69 4f bf 91 19 85 be 05 cf c7 3f
       -3.2102425 -0.8102032 -0.25996068 1.5610052
000180 8e dc 68 bf 66 aa 9f bf 0a 29 97 bf 2f 3a 51 3f
       -0.9096154 -1.2473876 -1.1809399 0.81729406
000190 87 ed 78 be 6a b7 00 c0 4a 6f 04 40 04 21 52 c0
       -0.2430936 -2.0111947 2.0692925 -3.283265
0001a0 b4 2d b0 c0 37 5f 80 3f 6f 17 11 c0 a0 79 bc bf
       -5.505579 1.0029057 -2.2670553 -1.4724617
0001b0 c5 52 d4 3e 89 5b 30 c0 81 cb 3c bd c5 e6 6f be
       0.41469398 -2.7555869 -0.046092514 -0.23427875
0001c0 a8 2a da bf 6f 1f f8 3f 9c bb a5 3e d2 78 9c 3f
       -1.7044268 1.9384593 0.32369697 1.2224371
0001d0 30 ea d0 bf 4b 2e c8 bd ec 5e 11 c0 e7 fb 45 3e
       -1.6321468 -0.09774455 -2.2714186 0.19334374
0001e0 c0 2f b7 3e e3 1c 8c bf c4 97 52 c0 15 7f 52 3e
       0.35778618 -1.0946316 -3.290513 0.2055629
0001f0 05 6e e1 bc bb f0 42 bf 66 18 b4 3f fd 27 77 c0
       -0.027518282 -0.76148576 1.4069946 -3.8618157
000200 83 72 1f c0 a5 fa 7d c0 60 c5 98 bf 9f b2 0c bf
       -2.4913642 -3.9684231 -1.1935234 -0.54960054
000210 28 e8 0f c0 7e c3 8e 3f 52 ba 95 c0 d1 79 e1 3e
       -2.2485447 1.115341 -4.678994 0.4403825
000220 be d3 9b bf 35 e3 aa be 12 cd 69 c0 94 26 88 c0
       -1.2173994 -0.3337647 -3.6531415 -4.2547092
000230 3c f2 53 3f 92 e7 29 3f 5d 8b 0c 40 c3 1f 65 3f
       0.82791495 0.66368973 2.196006 0.8950159
000240 c8 16 b0 3f 0a 06 42 c0 7e 9c cf 3e 5c 31 10 40
       1.3756952 -3.0316186 0.40549082 2.2530127
000250 ea 46 0a 3f 97 72 b3 c0 5d 6c a3 bf 63 38 4d c0
       0.54014456 -5.607738 -1.2767445 -3.2065666
000260 67 69 85 3f 1c 17 ea bf 82 2a 2b 3f 14 0a cc 3f
       1.0422791 -1.8288302 0.66861737 1.5940576
000270 cd 9c ab bf d4 e0 9f bf 6c c4 84 3e 11 6a 08 bf
       -1.3407227 -1.2490487 0.25931108 -0.53286844
000280 0a 49 81 bf 7b 3b f6 3e ad 50 ea bf 28 13 00 c1
       -1.0100415 0.48092255 -1.830587 -8.004677
000290 11 3a 3e c0 6e c3 98 bf a5 13 fd 3e 54 bc 42 c0
       -2.972294 -1.193464 0.4942905 -3.0427446
0002a0 b7 93 0b bf 70 6d 17 40 45 23 48 bf 99 17 94 3f
       -0.5452227 2.3660545 -0.7817882 1.1569701
0002b0 c6 40 89 c0 13 83 4b c0 94 7d e8 3f 20 d5 26 3f
       -4.289157 -3.1798751 1.8163323 0.6516895
0002c0 e1 f4 3e c0 5b 85 97 bd e7 8a 07 3e b7 37 5b bf
       -2.9836962 -0.073984824 0.13236581 -0.8563189
0002d0 53 2a 7f 3f 21 c9 38 c0 de 95 06 c0 8a 39 15 3f
       0.99673957 -2.887276 -2.1028972 0.5829092
0002e0 d2 04 e5 bf c0 1d d0 3f 9f d2 fb bf 2c 0c 19 3f
       -1.7892096 1.6259079 -1.9673651 0.597842
0002f0 92 43 50 3d 4d 64 6b 3f d9 d4 df 3f c5 73 05 bf
       0.05084569 0.9194992 1.7486831 -0.52129775
000300 7c f5 d8 be 88 2a b8 c0 eb 17 b8 be 0d 43 41 3f
       -0.4237479 -5.755192 -0.35955748 0.75492936
000310 b0 05 03 40 a6 19 88 3e 9c 43 96 bf 74 55 12 c0
       2.0472221 0.26582068 -1.1739383 -2.2864656
000320 ca d1 00 3f 36 23 7e c0 fd 5b dc be 58 fa ee 3f
       0.5032011 -3.970899 -0.4303893 1.8670149
000330 81 3d d2 bf 8f 46 ae 3f 8e 69 e3 bf 4d 2e d1 3c
       -1.642502 1.3615283 -1.7766588 0.025534773
000340 41 8d 33 c0 15 4b 13 c0 da 8a af 3f 71 48 19 c0
       -2.8054965 -2.3014576 1.3714249 -2.3950465
000350 82 78 ea bf 86 ff 92 3e f5 5e 25 3f 70 9c 12 be
       -1.8318026 0.28710574 0.6459802 -0.14317489
000360 85 b9 ff bc 05 35 84 c0 25 2c d1 bc 84 b1 36 40
       -0.031216392 -4.131472 -0.025533745 2.8545847
000370 57 53 8f 3f bf cd 2b bf b3 98 4b bf 9a 33 88 3f
       1.1197308 -0.6711082 -0.79529876 1.0640748
000380 3c b8 42 c0 61 ee 9b bf 98 0a 33 40 4a 8a 01 40
       -3.0424948 -1.2182122 2.7975216 2.0240655
000390 8d e2 1a c0 07 1b dc 3f 18 a7 c4 3f e3 cb cf 3f
       -2.4200776 1.7195748 1.5363493 1.6234096
0003a0 61 e7 b0 c0 ca c0 27 3d fd 2e 5c 3f 84 cf af 3e
       -5.5282445 0.040955342 0.860092 0.3433801
0003b0 1f 00 88 3f 08 80 22 c0 e1 53 b5 bf 05 4e d0 3f
       1.0625037 -2.5390644 -1.4166223 1.627381
0003c0 b0 dd c6 bf 5e 1d 95 3f 08 ec 39 3f ef 9e 5e 3e
       -1.5536404 1.1649587 0.7262578 0.21740316
0003d0 aa f4 93 bf 60 c2 f8 be 4d 97 1a 40 df 00 78 3f
       -1.155904 -0.48585796 2.4154847 0.9687633
0003e0 05 34 ab 3e 0a f9 c6 3f 44 3f 92 c0 d7 49 fb 3f
       0.33438125 1.5544751 -4.570223 1.9631909
0003f0 17 a2 a8 c0 f4 7e 8a 3d 26 f5 0e 40 fa 17 97 3e
       -5.2697864 0.06762496 2.2337127 0.2951048
