Models/model_2500.pth (torch, 629675 bytes, 28 tensors)

fc1.weight f4 [256, 39]
-1.5724227 -3.035594 -2.7196045 -0.3927293 0.47708452 0.10793898 -7.993703 -2.1395462
-2.5147789 0.8356233 -1.1413307 1.2795988 -2.3694243 -1.1802347 -7.2837443 5.3124175
0.6457737 -7.1641355 -1.2486918 -0.9133514 -2.6979344 -0.28424087 2.975559 -1.3132733
0.9845802 -0.15332244 1.4758323 -1.3402052 0.17075051 0.18922333 -2.2164798 0.5212646
6.5732102 -4.175014 -3.3934758 -4.0629754 0.04382653 3.1900756 -0.9770466 -14.184899
1.358114 1.0243287 0.7316172 0.559964 -2.7423425 -0.7954178 4.351842 5.5173225
0.5403389 -0.48123705 0.53843814 5.840033 0.006355814 5.1579995 0.04453086 3.9482176
1.8913004 0.0013884496 -0.0044975798 -2.9420934 -0.6463919 -0.15778977 -2.2637048 0.33277634
0.00049666816 2.3818617 0.13242565 -0.007884193 -0.0067664897 -2.8211725 0.2270934 -0.6287644
0.22470187 2.6345928 0.21886222 0.052132152 -2.1513891 -1.1269757 1.460508 0.99784553
2.2440307 -1.9751718 4.191591 -3.532381 -6.7818866 -1.6019138 2.996142 -1.1917545
-0.8361185 0.5714303 -5.650955 1.2136067 0.5592478 0.2104943 -2.820252 -0.21470505
-0.40166754 -0.058942053 0.09334548 -1.7530867 -3.0695505 0.6612616 -0.49090087 0.00277458
-0.44539785 -0.07218339 0.053340673 0.0281337 -17.365543 -1.920848 -12.85724 -1.1235489
-12.580873 -0.8735578 -0.6294032 -1.4103298 6.0556984 4.8849626 -4.4217787 -3.6725254
-0.19517046 1.1682856 4.2167583 3.2067947 2.3889983 -1.9640518 -0.25334805 0.118717484
2.8468103 1.6400702 -1.3542035 1.4665962 -3.4105287 0.6496206 -0.40465358 -0.6016694
-0.42984825 -3.232995 0.65126544 2.116583 6.9879465 0.7461221 0.43277186 0.8203541
-1.7615778 -0.518132 -0.47657937 2.4604475 1.3775674 -5.2213006 3.2701507 6.7236066
3.241117 0.14046346 -0.5589551 -2.1575618 4.941371 1.79551 2.4658284 -0.62343794
-4.20943 -4.6136856 -16.670187 0.32049215 7.0898285 -0.28081942 0.56774163 -5.714352
-0.07742906 1.56664 2.706333 1.2060484 0.27029014 0.89180344 -0.08225016 0.036996573
-1.3419439 0.19872352 -1.4426976 4.5422354 0.6814745 1.1861154 -14.490549 0.11872401
-0.88330853 -1.0261501 -0.106327936 -0.38019115 -2.4695034 1.3287363 -0.43984523 1.5408382
-1.4527012 -5.8605127 0.5534915 -9.914148 -0.28497937 0.5316086 0.08118832 0.71817696
4.540773 -0.6465341 -2.7946386 4.8945646 0.027905481 0.06870072 1.4989004 -2.8015692
0.70916015 -0.769886 -1.1731248 0.27426824 -6.5506754 -0.3948058 0.39028558 -2.5465562
-0.64262635 4.8233323 1.5298967 -1.8222977 -0.058781896 0.47132525 -1.1726377 -0.116488785
-0.034095015 -2.9841688 -5.857101 -0.465789 -1.3137 4.0993705 -1.3461938 -22.345535
-1.3350605 -3.1695437 -2.6538672 -0.7619125 0.9414563 0.18510826 5.4793706 3.9870167
3.7253404 9.856924 -6.2855835 0.049873963 0.62810135 -2.2532349 1.821086 0.5550878
-1.2926853 -4.3143034 2.1179447 0.06834414 -0.61139655 0.31190524 -3.1464658 -0.21058601
00000000: 2645 c9bf 2c47 42c0 000e 2ec0 d113 c9be
00000010: 6c44 f43e 1d0f dd3d 6acc ffc0 53ee 08c0
00000020: 23f2 20c0 69eb 553f 2017 92bf e5c9 a33f
00000030: a6a4 17c0 ee11 97bf 6f14 e9c0 53ff a940
00000040: 6d51 253f 9940 e5c0 22d5 9fbf 66d1 69bf
00000050: f5aa 2cc0 0588 91be 8f6f 3e40 5719 a8bf
00000060: 730d 7c3f 8f00 1dbe 13e8 bc3f d88b abbf
00000070: 39d9 2e3e c3c3 413e ceda 0dc0 9971 053f
00000080: bd57 d240 b799 85c0 b52e 59c0 e503 82c0
00000090: 7383 333d 332a 4c40 ba1f 7abf 59f5 62c1
000000a0: aed6 ad3f 341d 833f 444b 3b3f cd59 0f3f
000000b0: 8a82 2fc0 80a0 4bbf 4a42 8b40 e88d b040
000000c0: a653 0a3f b464 f6be 15d7 093f 8de1 ba40
000000d0: 6f44 d03b 550e a540 fe65 363d 99af 7c40
000000e0: 2216 f23f a3fc b53a 6f60 93bb 424b 3cc0
000000f0: f179 25bf a493 21be 8ae0 10c0 a961 aa3e
00000100: d632 023a 6c70 1840 979a 073e b42c 01bc
00000110: 6eb9 ddbb 178e 34c0 2c8b 683e b4f6 20bf
00000120: 3f18 663e 2b9d 2840 6b1d 603e 8688 553d
00000130: 5cb0 09c0 bd40 90bf edf1 ba3f ce72 7f3f
00000140: 339e 0f40 6ed2 fcbf 8321 8640 8812 62c0
00000150: 3705 d9c0 830b cdbf cac0 3f40 698b 98bf
00000160: dd0b 56bf 4249 123f a0d4 b4c0 7757 9b3f
00000170: dd2a 0f3f d18b 573e 027f 34c0 a4db 5bbe
00000180: 5ea7 cdbe 396d 71bd ea2b bf3d 2565 e0bf
00000190: 8473 44c0 7148 293f 5c57 fbbe bad5 353b
000001a0: 300b e4be e3d4 93bd c07b 5a3d a578 e63c
000001b0: a2ec 8ac1 59de f5bf 41b7 4dc1 73d0 8fbf
000001c0: 414b 49c1 7ca1 5fbf 9120 21bf b085 b4bf
000001d0: 48c8 c140 9d51 9c40 367f 8dc0 a80a 6bc0
000001e0: c4da 47be 628a 953f afef 8640 203c 4d40
000001f0: 59e5 1840 0d66 fbbf d6b6 81be 2722 f33d
00000200: 2432 3640 d2ed d13f 8a56 adbf 6db9 bb3f
00000210: 1a46 5ac0 894d 263f c12e cfbe 0107 1abf
00000220: 1215 dcbe 64e9 4ec0 55b9 263f 1976 0740
00000230: 429d df40 dc01 3f3f 4694 dd3e ba02 523f
00000240: 627b e1bf 4ca4 04bf 3602 f4be f977 1d40
00000250: 2154 b03f e514 a7c0 264a 5140 c927 d740
00000260: 766e 4f40 a7d5 0f3e ae17 0fbf 7e15 0ac0
00000270: b61f 9e40 46d3 e53f 22d0 1d40 a199 1fbf
00000280: a7b3 86c0 50a3 93c0 8b5c 85c1 8c17 a43e
00000290: e0df e240 90c7 8fbe 8457 113f f9db b6c0
000002a0: 2193 9ebd a987 c83f 8f34 2d40 cb5f 9a3f
000002b0: 7863 8a3e 3b4d 643f c672 a8bd b889 173d
000002c0: d1c4 abbf 2e7e 4b3e 51aa b8bf fe59 9140
000002d0: 1d75 2e3f a1d2 973f 4ad9 67c1 9325 f33d
000002e0: 8220 62bf e358 83bf 76c2 d9bd 6aa8 c2be
000002f0: 580c 1ec0 0814 aa3f 6533 e1be 303a c53f
00000300: 1df2 b9bf 5289 bbc0 9eb1 0d3f 5aa0 1ec1
00000310: d1e8 91be 8017 083f 1046 a63d 72da 373f
00000320: 034e 9140 4283 25bf 5cdb 32c0 46a0 9c40
00000330: 099a e43c f7b2 8c3d f8db bf3f e94c 33c0
00000340: 858b 353f 4017 45bf f428 96bf e36c 8c3e
00000350: 229f d1c0 fc23 cabe 83d3 c73e c7fa 22c0
00000360: 2983 24bf bd58 9a40 a8d3 c33f 0d41 e9bf
00000370: 49c5 70bd 8b51 f13e fe18 96bf ac91 eebd
00000380: 37a7 0bbd 9ffc 3ec0 5f6d bbc0 e57b eebe
00000390: 5227 a8bf 0b2e 8340 1450 acbf a8c3 b2c1
000003a0: 43e3 aabf ced9 4ac0 f6d8 29c0 b30c 43bf
000003b0: 4803 713f 058d 3d3e 0157 af40 482b 7f40
000003c0: fa6b 6e40 f6b5 1d41 8023 c9c0 a448 4c3d
000003d0: 40cb 203f 0035 10c0 5919 e93f 3c1a 0e3f
000003e0: b676 a5bf c60e 8ac0 688c 0740 03f8 8b3d
000003f0: 7c84 1cbf 0bb2 9f3e b25f 49c0 dca3 57be

fc1.bias f4 [256]
-0.134024 -0.0878642 0.05624944 -0.039117433 0.122089766 0.23828383 0.18389052 0.010907848
0.15990373 -0.1625875 -0.01661497 0.029055387 0.09817062 0.16601016 -0.06623051 -0.18027087
-0.04475953 -0.07323712 -0.016595135 -0.020301986 0.05343408 -0.01790738 0.052736405 0.09376544
-0.043637227 -0.124722145 0.22091801 -0.07449365 -0.060278874 0.03820866 -0.15912685 0.060678598
-0.14258227 -0.16085362 -0.045798555 0.11780944 -0.14010601 0.08636364 0.054448824 0.003130662
0.021812368 -0.08457972 -0.027605347 0.06333738 0.12523115 0.05746814 -0.10603373 -0.0031809155
-0.15610486 -0.19120008 0.10818712 0.06273699 -0.09206517 0.11592027 0.06621486 -0.093381874
0.104330264 -0.11917593 -0.01228288 0.003975681 -0.17961934 -0.056444544 0.07566433 0.056119733
0.13732 -0.03426523 0.12533678 -0.041947737 0.15578973 -0.1922976 0.13630846 -0.00992146
0.11871231 -0.12521482 0.14241925 -0.10508989 -0.0040324274 0.084313944 0.071697116 -0.096179456
0.14940852 0.14899723 0.17460991 -0.020469358 -0.11526949 0.06887236 -0.1465769 -0.13318418
-0.20238139 -0.11590421 0.13806364 -0.061573096 -0.031734087 -0.06934169 -0.033095244 0.026062895
0.0048673064 -0.027651375 0.09373171 -0.06741067 0.09452607 -0.062527955 0.05017764 -0.005936969
-0.1520288 0.037866667 -0.0030358064 0.10317058 0.09490774 0.0031596478 0.11462725 -0.018787313
-0.027625015 -0.08132837 0.017149612 -0.068720214 -0.064960025 0.104446575 0.1475512 0.047004275
0.003171871 -0.081601314 0.0063084397 -0.036687743 0.08365815 -0.064412646 0.058668688 0.15624386
0.10495924 -0.06852639 -0.029035183 -0.003915781 -0.14938286 0.045086876 -0.095190585 0.101203665
-0.00327847 0.011554194 -0.14301819 0.15612935 0.06531147 0.08042102 -0.18089733 -0.0042598112
0.15785035 -0.0038463078 -0.050661784 -0.14168763 -0.16188757 0.045137983 -0.0009577757 -0.09009939
0.013680735 0.040413417 0.07986092 -0.10589643 -0.041063376 0.054018423 -0.17919391 0.019133331
0.085166164 0.084668346 0.0073818355 -0.10363378 0.030373922 0.13053726 -0.08242329 0.106840156
0.047823906 0.032778073 -0.032653484 -0.014192347 -0.035697047 -0.04827546 -0.036414552 -0.021008404
0.115156464 0.16185589 -0.0391052 0.07229545 -0.1082405 0.13789862 0.028174266 0.11919896
0.021849727 0.020229517 -0.14802806 -0.118749164 0.087388135 -0.023149073 -0.17836024 -0.104255885
-0.042768706 0.083721474 0.032514088 -0.12686124 -0.06342497 0.032732107 -0.044939015 -0.12375039
0.12248498 0.14888497 0.0028239344 0.089576036 -0.09848617 0.13371757 0.017430136 0.028056016
0.14712305 0.119025655 -0.16535282 0.08833252 0.08748967 -0.11188198 -0.071900144 0.033737548
0.052265517 -0.090188526 0.19140609 0.018580234 -0.036983587 0.14788865 -0.04191632 0.05236003
0.030417835 0.13032062 0.13276583 -0.065465935 0.15386443 -0.032808196 -0.16124386 0.07837153
-0.052091453 -0.12618764 -0.05373811 -0.070345 0.08561119 0.020766964 0.10043225 0.012471684
-0.14553252 -0.017278165 0.019474199 -0.11029092 -0.14170879 0.10983983 0.042974558 -0.12079545
-0.059684593 0.10784161 -0.13753244 -0.03104591 -0.06630194 -0.12870866 -0.010064112 0.005442061
00000000: 963d 09be 25f2 b3bd d065 663d 9a39 20bd
00000010: 330a fa3d ad00 743e cc4d 3c3e d5b6 323c
00000020: cebd 233e 567d 26be 1e1c 88bc 9005 ee3c
00000030: ae0d c93d 91fe 293e dda3 87bd ed98 38be
00000040: c555 37bd 58fd 95bd 85f2 87bc 5a50 a6bc
00000050: b2dd 5a3d 7fb2 92bc 2102 583d 1808 c03d
00000060: f3bc 32bd 536e ffbd 5538 623e 2090 98bd
00000070: fbe6 76bd af80 1c3d 26f2 22be 1f8a 783d
00000080: 1601 12be d0b6 24be 4497 3bbd 1346 f13d
00000090: f377 0fbe 6cdf b03d bb05 5f3d cb2b 4d3b
000000a0: daaf b23c 2238 adbd 9c24 e2bc 07b7 813d
000000b0: 983c 003e b663 6b3d 3628 d9bd e876 50bb
000000c0: f4d9 1fbe f4c9 43be 3591 dd3d 407c 803d
000000d0: aa8c bcbd 9b67 ed3d a89b 873d ff3e bfbd
000000e0: 1bab d53d 8312 f4bd 223e 49bc 6e46 823b
000000f0: 22ee 37be 6532 67bd e6f5 9a3d cedd 653d
00000100: 9d9d 0c3e b359 0cbd 4958 003e 64d1 2bbd
00000110: 5887 1f3e a9e9 44be 7294 0b3e 9f8d 22bc
00000120: 711f f33d 5038 00be 5ad6 113e 5e39 d7bd
00000130: 7422 84bb caac ac3d f0d5 923d bcf9 c4bd
00000140: 8cfe 183e bb92 183e f1cc 323e 5baf a7bc
00000150: 6912 ecbd f40c 8d3d 4118 16be 6f61 08be
00000160: 113d 4fbe 305f edbd 8e60 0d3e 1234 7cbd
00000170: 9afb 01bd 0403 8ebd e18e 07bd da81 d53c
00000180: ed7d 9f3b 2385 e2bc 69f6 bf3d 9b0e 8abd
00000190: e296 c13d a80e 80bd 1287 4d3d e88a c2bb
000001a0: 70ad 1bbe 141a 1b3d 61f4 46bb 194b d33d
000001b0: fd5e c23d 1812 4f3b b1c1 ea3d dae7 99bc
000001c0: db4d e2bc 7d8f a6bd 587d 8c3c 2fbd 8cbd
000001d0: c309 85bd 16e8 d53d a917 173e 8e87 403d
000001e0: 2adf 4f3b 971e a7bd 07b7 ce3b e345 16bd
000001f0: f754 ab3d c7ea 83bd 944e 703d 64fe 1f3e
00000200: dff4 d63d 9057 8cbd 31db edbc f44f 80bb
00000210: d2f7 18be 04ad 383d 48f3 c2bd de43 cf3d
00000220: 99db 56bb cd4d 3d3c 5c73 12be 5fe0 1f3e
00000230: 05c2 853d c7b3 a43d 263d 39be e395 8bbb
00000240: 86a3 213e 5612 7cbb bb82 4fbd 9016 11be
00000250: dbc5 25be 9be2 383d 3d13 7bba 0786 b8bd
00000260: 2925 603c 8a88 253d 1f8e a33d 3ae0 d8bd
00000270: 1232 28bd 6c42 5d3d 9c7e 37be 81bd 9c3c
00000280: 996b ae3d 9966 ad3d 53e3 f13b f23d d4bd
00000290: bbd2 f83c 8fab 053e 8bcd a8bd 03cf da3d
000002a0: 00e3 433d 4d42 063d a9bf 05bd 0587 68bc
000002b0: 1137 12bd 7dbc 45bd 6d27 15bd d119 acbc
000002c0: 27d7 eb3d 8dbd 253e c62c 20bd a30f 943d
000002d0: 32ad ddbd 4c35 0d3e b8cd e63c 961e f43d
000002e0: 33fe b23c 5fb8 a53c ab94 17be c332 f3bd
000002f0: 8df8 b23d 20a3 bdbc 11a4 36be 1c84 d5bd
00000300: 3d2e 2fbd 2a76 ab3d 7e2d 053d eae7 01be
00000310: f3e4 81bd 1a12 063d f911 38bd d870 fdbd
00000320: 68d9 fa3d 4d75 183e c211 393b a473 b73d
00000330: 1eb3 c9bd 42ed 083e a5c9 8e3c bbd5 e53c
00000340: 6da7 163e b9c3 f33d 4052 29be aee7 b43d
00000350: c92d b33d 6122 e5bd 6240 93bd 6230 0a3d
00000360: 5e14 563d c3b4 b8bd f5ff 433e 9335 983c
00000370: 1a7c 17bd 1f70 173e 72b0 2bbd 7977 563d
00000380: d32e f93c c572 053e c4f3 073e 0113 86bd
00000390: a38e 1d3e e361 06bd 1c1d 25be 4181 a03d
000003a0: d95d 55bd 5537 01be 7e1c 5cbd 0a11 90bd
000003b0: eb54 af3d 7b1f aa3c 6caf cd3d 0956 4c3c
000003c0: 7a06 15be f08a 8dbc 5b88 9f3c 35e0 e1bd
000003d0: 1c1c 11be b4f3 e03d 1706 303d 9b63 f7bd
000003e0: d577 74bd 10dc dc3d 4ed5 0cbe fe53 febc
000003f0: 50c9 87bd 34cc 03be f2e3 24bc 5153 b23b

bn1.weight f4 [256]
2.4774292 2.2077727 4.8538923 4.109357 3.8996997 3.4011428 2.2225018 4.29081
3.907325 4.0292134 3.5427747 3.6255724 2.9620576 3.1686115 4.5435686 5.0529413
3.38742 4.433143 2.8919277 2.878776 2.6898868 4.061703 4.96477 3.5935457
3.5818033 3.3329058 2.9577484 4.34928 3.4961658 4.0506725 3.190035 3.2564442
4.269521 4.133868 2.6062374 5.23335 4.2956862 4.3734365 2.5118313 2.5415597
4.1531916 2.4987688 3.561647 4.408786 2.6560872 2.798496 4.200871 2.837897
3.123158 2.6460571 3.9844654 2.582492 3.6513608 3.5547578 4.500223 2.6554475
3.64194 4.100437 3.9965127 4.4306784 3.4934864 2.5141327 3.4745097 3.2562823
3.206194 4.1577196 3.8349419 3.436338 4.957124 4.256029 2.5618498 3.5829551
4.272875 3.7190032 2.9403734 3.960343 3.401272 4.860979 3.5573206 3.368021
4.2674313 2.7077353 3.3521376 4.2698336 4.307844 3.4632936 2.182545 3.2587912
3.3977327 4.0365067 3.6991706 2.0481918 3.4396865 3.2820694 1.9399855 3.2921712
3.0833535 3.1718662 3.6685097 3.8807812 2.8022182 3.5277383 5.002943 2.849467
3.0079536 2.1987824 3.3385897 3.1716263 3.322385 4.380461 2.6033585 4.350106
3.0477853 4.249752 3.9070675 2.4971082 3.3125067 3.6568239 3.021569 2.4928882
3.0530646 5.897147 2.0338886 4.0143547 2.726072 3.6287189 3.1782997 3.368696
4.112012 4.9751797 3.2593098 4.074416 4.1713305 4.339395 2.4776936 3.306324
4.1155977 3.8325276 3.4215665 3.5795705 4.6422143 2.0959868 4.5730276 4.777574
3.1782174 2.5822597 4.3935037 5.696336 3.7805967 3.9148955 3.8144155 3.9864984
2.940093 1.7695001 2.1779397 4.907644 3.00329 3.8886101 3.9887834 4.9030485
3.4003217 4.285763 5.0240016 3.445655 3.1123755 1.8048909 3.2590945 3.1210065
3.9210002 2.7076485 3.9995863 4.6079288 6.6833534 3.4135587 1.7646925 4.4111643
3.2382278 1.8372583 3.5459957 3.6162968 4.3683214 2.681181 3.8501248 2.224017
2.802779 3.43134 3.234038 3.2196462 2.4516358 3.499343 1.3529972 2.5699284
4.2752013 3.2506266 5.2619224 3.655536 3.3210483 2.8560748 3.7291615 2.9181275
3.732723 3.9118245 5.1542115 3.7778158 2.6359096 5.148999 2.8781765 5.164434
2.3175125 3.2018673 3.2921638 3.238469 5.0509453 2.7580795 4.6938453 2.0456529
3.21532 4.5246983 3.9308937 3.54634 2.2111022 3.0922177 5.114017 4.806431
3.9243813 3.1974635 2.8585851 3.4648 3.4538593 3.3260593 3.4919682 3.2872243
2.2154074 3.5890663 3.853505 4.0897455 3.4732807 4.3730693 3.9084628 2.3386884
3.3542562 5.463141 3.046153 3.012777 3.3182745 3.2212102 3.76462 4.282014
3.2089515 4.506349 2.3398545 3.6586442 2.9206862 3.5390937 3.3958566 2.9900403
00000000: 338e 1e40 264c 0d40 1653 9b40 da7f 8340
00000010: ae94 7940 53ac 5940 783d 0e40 514e 8940
00000020: 9d11 7a40 51ef 8040 d2bc 6240 6109 6840
00000030: 5a92 3d40 88ca 4a40 ea64 9140 b2b1 a140
00000040: 7dcb 5840 4fdc 8d40 5815 3940 de3d 3840
00000050: 1b27 2c40 79f9 8140 65df 9e40 a7fc 6540
00000060: 443c 6540 544e 5540 c04b 3d40 4d2d 8b40
00000070: 2ec1 5f40 1c9f 8140 8929 4c40 9569 5040
00000080: eb9f 8840 a648 8440 98cc 2640 9a77 a740
00000090: 4376 8940 31f3 8b40 d8c1 2040 eaa8 2240
000000a0: f2e6 8440 d4eb 1f40 06f2 6340 c614 8d40
000000b0: 55fd 2940 8f1a 3340 896d 8640 1ba0 3540
000000c0: d2e1 4740 0059 2940 7b01 7f40 8d47 2540
000000d0: e5af 6940 2781 6340 d401 9040 daf2 2940
000000e0: 8c15 6940 c836 8340 ddc6 7f40 1ec8 8d40
000000f0: 4895 5f40 8de7 2040 5e5e 5e40 ee66 5040
00000100: 4832 4d40 0a0c 8540 b06f 7540 f6ec 5b40
00000110: c3a0 9e40 6431 8840 59f5 2340 234f 6540
00000120: 64bb 8840 2604 6e40 142f 3c40 4276 7d40
00000130: 71ae 5940 248d 9b40 24ab 6340 a88d 5740
00000140: cc8e 8840 894b 2d40 6c89 5640 7aa2 8840
00000150: dcd9 8940 9aa6 5d40 d1ae 0b40 0990 5040
00000160: 7474 5940 102b 8140 36bf 6c40 9315 0340
00000170: d323 5c40 6d0d 5240 7251 f83f efb2 5240
00000180: aa55 4540 dbff 4a40 ddc8 6a40 b85e 7840
00000190: 8b57 3340 77c6 6140 1c18 a040 ab5d 3640
000001a0: 5082 4040 dab8 0c40 74ab 5540 edfb 4a40
000001b0: f5a1 5440 bd2c 8c40 6d9d 2640 1134 8b40
000001c0: ea0e 4340 f8fd 8740 650d 7a40 9fd0 1f40
000001d0: 1c00 5440 6709 6a40 6361 4140 7b8b 1f40
000001e0: 6965 4340 6eb5 bc40 3b2b 0240 9875 8040
000001f0: f777 2e40 ee3c 6840 4369 4b40 b798 5740
00000200: 9a95 8340 ac34 9f40 8898 5040 9e61 8240
00000210: 8a7b 8540 53dc 8a40 8892 1e40 d09a 5340
00000220: fab2 8340 2248 7540 f2fa 5a40 af17 6540
00000230: 058d 9440 a624 0640 3e56 9240 e3e1 9840
00000240: ea67 4b40 be43 2540 9597 8c40 6248 b640
00000250: 4cf5 7140 a68d 7a40 621f 7440 ca22 7f40
00000260: 7c2a 3c40 fb7e e23f 5d63 0b40 6b0b 9d40
00000270: e735 4040 fdde 7840 3a48 7f40 c6e5 9c40
00000280: df9e 5940 f824 8940 9fc4 a040 9d85 5c40
00000290: 2931 4740 aa06 e73f 0195 5040 92be 4740
000002a0: abf1 7a40 1d4a 2d40 39f9 7f40 2774 9340
000002b0: 08de d540 bf77 5a40 72e1 e13f 4228 8d40
000002c0: 203f 4f40 482b eb3f 98f1 6240 6871 6740
000002d0: 4ac9 8b40 7898 2b40 7268 7640 4b56 0e40
000002e0: bb60 3340 139b 5b40 7bfa 4e40 af0e 4e40
000002f0: 9ae7 1c40 3cf5 5f40 032f ad3f b579 2440
00000300: 73ce 8840 440a 5040 ab61 a840 4df4 6940
00000310: 0e8c 5440 eec9 3640 95aa 6e40 9ac2 3a40
00000320: efe4 6e40 555b 7a40 4def a440 bcc7 7140
00000330: beb2 2840 9ac4 a440 0b34 3840 0b43 a540
00000340: 2052 1440 65eb 4c40 d0b2 5240 1343 4f40
00000350: 58a1 a140 6084 3040 fb33 9640 faeb 0240
00000360: cec7 4d40 54ca 9040 c393 7b40 3cf7 6240
00000370: b382 0d40 e5e6 4540 07a6 a340 48ce 9940
00000380: 1029 7b40 3ea3 4c40 0ff3 3640 48bf 5d40
00000390: 080c 5d40 28de 5440 687c 5f40 e261 5240
000003a0: 3cc9 0d40 43b3 6540 d39f 7640 32df 8240
000003b0: 3b4a 5e40 2ff0 8b40 4124 7a40 12ad 1540
000003c0: 22ac 5640 0dd2 ae40 2cf4 4240 57d1 4040
000003d0: 9c5e 5440 4f28 4e40 89ef 7040 4206 8940
000003e0: 765f 4d40 0334 9040 2dc0 1540 3a27 6a40
000003f0: 86ec 3a40 8380 6240 b755 5940 d25c 3f40

bn1.bias f4 [256]
-0.9909942 -0.9835397 -3.3089828 -3.9093678 -2.3823721 -1.9956053 -1.4429278 -3.8864224
-1.8656446 -3.3587694 -1.4791377 -4.30016 -1.6699727 -2.7774587 -2.3109143 -2.017177
-1.5994929 -2.6606734 -1.5423297 -3.804746 -1.3570056 -2.5454094 -2.8222365 -2.2274404
-1.7756094 -1.9752941 -1.8063604 -2.583879 -2.3897493 -2.2299895 -1.4018416 -2.4449697
-3.6341925 -2.5597935 -2.3172798 -3.0483582 -2.0754204 -2.5108798 -0.76141393 -1.6723763
-2.2101724 -0.8112823 -1.4904182 -4.2548184 -0.96912986 -2.1326547 -2.3713193 -0.99383736
-2.7281952 -1.5631398 -3.1048865 -2.3928096 -3.9224744 -2.1241653 -3.069709 -2.8328795
-1.8994279 -2.4898732 -2.4171214 -3.1344352 -2.776237 -1.5622978 -1.5209699 -2.8492799
-1.7054683 -2.8978512 -1.9210156 -2.6998942 -3.183141 -2.7361786 -2.0134287 -2.3287396
-2.430082 -1.7356553 -1.8468574 -2.7413454 -2.8439224 -2.9189808 -2.6154933 -2.5419793
-2.452904 -1.081454 -3.202625 -5.0018587 -3.7543888 -1.8687439 -0.62402534 -1.5857277
-2.4985328 -2.1393337 -1.9263917 -1.2225151 -2.5770588 -2.1648521 -0.88462925 -2.3533099
-1.7331893 -1.8169751 -2.252089 -1.2091298 -1.9709235 -2.5855942 -2.0537136 -1.4144585
-2.7974193 -0.4294507 -1.938611 -2.8651106 -2.4359658 -2.801365 -1.435272 -2.025055
-1.726542 -3.1225452 -2.6169243 -1.123639 -1.3812462 -2.6630661 -1.4977432 -1.4030911
-2.0881777 -2.6985419 -1.0167439 -2.1314569 -2.0239336 -2.820607 -2.8581676 -2.790083
-3.5590112 -4.042636 -1.7180179 -3.1908352 -2.5495214 -3.9732132 -1.8176169 -1.7486091
-3.1040914 -1.3986627 -1.7672796 -1.5567217 -2.3937566 -1.3245585 -2.5645232 -3.8056579
-1.5986769 -1.7678084 -1.724343 -4.1379495 -2.1786046 -2.6707892 -3.876281 -2.9917862
-2.9259877 -1.4747239 -1.2631314 -3.0792623 -1.9510006 -1.8162441 -1.9403167 -3.0735478
-2.900487 -2.8638322 -2.6147785 -3.1293454 -1.8744023 -1.6560405 -2.4294038 -2.0063133
-3.0880969 -1.7085655 -1.7619088 -3.199252 -3.8835995 -1.4439169 -0.60712874 -1.5331689
-1.8986334 -0.6645415 -2.9474099 -3.1318576 -3.8411365 -1.8079034 -1.7881594 -1.71476
-1.6992308 -2.7668235 -2.1072876 -2.4583616 -0.8495567 -2.539937 0.005278248 -1.6474369
-3.063928 -2.858754 -2.174794 -2.4531677 -2.2856636 -1.8443962 -1.5433012 -1.5784906
-2.6022282 -2.0191333 -2.6575637 -2.6509125 -1.8392525 -2.9139025 -3.3844295 -2.5050979
-1.2166326 -3.663798 -2.0270045 -1.913304 -2.7293663 -1.8594944 -2.318526 -0.53669316
-2.870758 -3.8560185 -2.9071043 -4.020338 -2.6895568 -1.5921391 -2.367278 -3.788151
-2.7332363 -0.96405584 -2.1904948 -2.171417 -2.721625 -1.4485661 -1.424684 -1.889912
-1.4397589 -2.6481295 -2.5294368 -2.3964982 -1.7264587 -2.5614815 -2.9631307 -1.487054
-2.4792137 -4.7890925 -1.6122881 -1.3835319 -1.9118584 -2.0888069 -2.655839 -2.60151
-1.9219334 -2.1991503 -1.9730316 -2.2642503 -2.4894147 -2.2399352 -1.8386934 -1.7961054
00000000: ccb1 7dbf 42c9 7bbf 60c6 53c0 1533 7ac0
00000010: c978 18c0 ff6f ffbf dcb1 b8bf 25bb 78c0
00000020: 71cd eebf 14f6 56c0 6254 bdbf e99a 89c0
00000030: aac1 d5bf e2c1 31c0 05e6 13c0 6e19 01c0
00000040: 2fbc ccbf 7948 2ac0 0f6b c5bf f580 73c0
00000050: 5cb2 adbf fde7 22c0 869f 34c0 628e 0ec0
00000060: 2b47 e3bf 70d6 fcbf d136 e7bf 465e 25c0
00000070: a7f1 18c0 26b8 0ec0 8c6f b3bf 627a 1cc0
00000080: 9c96 68c0 a8d3 23c0 504e 14c0 4d18 43c0
00000090: b0d3 04c0 41b2 20c0 06ec 42bf 6d10 d6bf
000000a0: 7773 0dc0 32b0 4fbf 06c6 bebf 7927 88c0
000000b0: e518 78bf 6a7d 08c0 b2c3 17c0 206c 7ebf
000000c0: c09a 2ec0 f714 c8bf 76b6 46c0 cb23 19c0
000000d0: d209 7bc0 53f2 07c0 1d76 44c0 e64d 35c0
000000e0: 7420 f3bf 155a 1fc0 1eb2 1ac0 969a 48c0
000000f0: dead 31c0 60f9 c7bf 24af c2bf 9a5a 36c0
00000100: c94c dabf 6576 39c0 d7e3 f5bf 11cb 2cc0
00000110: 95b8 4bc0 8d1d 2fc0 04dc 00c0 120a 15c0
00000120: 7786 1bc0 f429 debf d365 ecbf 3472 2fc0
00000130: d302 36c0 95d0 3ac0 3e64 27c0 caaf 22c0
00000140: 61fc 1cc0 166d 8abf cff7 4cc0 3a0f a0c0
00000150: e847 70c0 0033 efbf 20c0 1fbf 20f9 cabf
00000160: f6e7 1fc0 d8ea 08c0 0194 f6bf 607b 9cbf
00000170: 88ee 24c0 f08c 0ac0 1077 62bf a19c 16c0
00000180: 26d9 ddbf a492 e8bf 3a22 10c0 c4c4 9abf
00000190: 3947 fcbf 607a 25c0 0b70 03c0 fa0c b5bf
000001a0: eb08 33c0 f6e0 dbbe 6824 f8bf f95d 37c0
000001b0: dde6 1bc0 9049 33c0 feb6 b7bf 809a 01c0
000001c0: 54ff dcbf c8d7 47c0 b07b 27c0 67d3 8fbf
000001d0: adcc b0bf ad6f 2ac0 0db6 bfbf 7d98 b3bf
000001e0: b4a4 05c0 e9b4 2cc0 aa24 82bf ca69 08c0
000001f0: 2188 01c0 d384 34c0 38ec 36c0 b890 32c0
00000200: d7c6 63c0 465d 81c0 03e8 dbbf a536 4cc0
00000210: 5c2b 23c0 2049 7ec0 aca7 e8bf 6cd2 dfbf
00000220: 6fa9 46c0 6107 b3bf 3836 e2bf a842 c7bf
00000230: 4f33 19c0 228b a9bf 2621 24c0 e68f 73c0
00000240: 72a1 ccbf 8c47 e2bf 45b7 dcbf 156a 84c0
00000250: 426e 0bc0 36ee 2ac0 fd14 78c0 6d79 3fc0
00000260: 6243 3bc0 c1c3 bcbf 4aae a1bf a212 45c0
00000270: 63ba f9bf b07a e8bf 4c5c f8bf 02b5 44c0
00000280: 94a1 39c0 0749 37c0 8858 27c0 3247 48c0
00000290: 6aec efbf 23f9 d3bf 5a7b 1bc0 7067 00c0
000002a0: 61a3 45c0 46b2 dabf 3a86 e1bf 8bc0 4cc0
000002b0: e58c 78c0 45d2 b8bf ca6c 1bbf e13e c4bf
000002c0: 6b06 f3bf 641f 2abf 5da2 3cc0 5b70 48c0
000002d0: 2ed5 75c0 6169 e7bf 68e2 e4bf 417d dbbf
000002e0: 6580 d9bf a313 31c0 cddd 06c0 cc55 1dc0
000002f0: 8c7c 59bf 548e 22c0 27f5 ac3b 36df d2bf
00000300: 6517 44c0 d3f5 36c0 d32f 0bc0 b300 1dc0
00000310: 5048 12c0 2d15 ecbf e58a c5bf fb0b cabf
00000320: e88a 26c0 7b39 01c0 8615 2ac0 8da8 29c0
00000330: a06c ebbf 617d 3ac0 7e9a 58c0 8653 20c0
00000340: 9eba 9bbf ab7b 6ac0 71ba 01c0 25e7 f4bf
00000350: f0ad 2ec0 ea03 eebf bb62 14c0 b964 09bf
00000360: 80ba 37c0 02c9 76c0 ff0d 3ac0 9ca6 80c0
00000370: b321 2cc0 37cb cbbf 7c81 17c0 1171 72c0
00000380: 58ed 2ec0 5dcc 76bf 1131 0cc0 7ff8 0ac0
00000390: 1b2f 2ec0 9d6a b9bf 0c5c b6bf a3e8 f1bf
000003a0: 054a b8bf f47a 29c0 4be2 21c0 3a60 19c0
000003b0: 99fc dcbf 50ef 23c0 efa3 3dc0 c957 bebf
000003c0: 70ab 1ec0 3f40 99c0 755f cebf 9317 b1bf
000003d0: c7b7 f4bf 03af 05c0 44f9 29c0 247f 26c0
000003e0: ea01 f6bf e1be 0cc0 4d8c fcbf 7ae9 10c0
000003f0: 9252 1fc0 195b 0fc0 4e5a ebbf c8e6 e5bf

bn1.running_mean f4 [256]
0.49327004 -0.37891722 1.0690844 -0.70794946 0.47961834 0.45517328 -0.7930036 0.1802322
0.17108648 -0.2881713 0.31731343 0.77513635 0.29451382 0.5973912 -0.07752287 0.5547497
-0.25484708 0.354174 -0.24504754 -0.25848532 0.809362 -0.2833601 0.5422503 -0.5138289
0.501071 -0.27330187 0.2525766 0.7233071 -0.050794534 0.61777157 0.11570233 0.27332684
0.06847316 -0.833389 0.11657637 0.40288302 0.038490266 0.8236083 -0.027277172 -0.1988478
-0.07904662 0.057847172 0.5336273 0.933728 -0.086100996 0.40637976 0.20345691 0.7422772
-0.17796096 -0.6789278 0.3319294 -0.26194486 -0.05210504 0.07189062 0.37274754 0.21608205
-0.0045316294 -0.5036119 -0.067035705 -0.27821505 -0.20542955 -0.18440771 0.6452462 0.98338485
-0.47541738 0.48129666 -0.47585666 0.18228894 1.0184497 0.13045578 0.05058518 -0.26626095
0.70112765 -0.26329744 -0.3133288 -0.45924562 -0.17099343 1.1840541 0.6016364 -0.32541472
-0.55633783 0.23188117 0.4108066 -0.20260115 0.22829771 -0.42148453 0.05439135 0.48765922
0.35607255 0.5848506 -0.21579044 0.25843936 0.6801391 0.08170581 -0.21684743 -0.032998502
-0.4345592 0.07222754 0.9385324 -0.1872209 0.4796386 -0.032317236 -0.18720269 -0.430048
-0.6144107 0.43404675 0.57646406 -0.10724647 0.4564316 1.0831989 0.7640506 1.081099
0.7207946 0.36527848 -0.62053657 0.4337416 0.11255235 0.39951378 0.4009455 0.20297956
-0.38435835 0.56813055 0.597433 -0.5775543 -0.4434373 0.39987332 -0.28789383 0.4143942
-0.053256012 0.45809984 -0.14593637 0.36169815 0.8744197 -0.08084875 -0.15499404 -0.09035128
0.8316156 0.1233592 -0.3267777 0.49016917 0.43965414 0.6227685 -0.3816815 0.51547194
1.6314754 -0.3107814 0.1459527 0.46766692 0.30049494 0.44354522 0.02105409 -0.5734167
-0.2402065 0.0112608075 0.55086005 0.064650185 0.17518672 -0.33283752 -0.7520442 0.108444124
1.3022478 -0.12995206 -0.07782675 -0.4676933 0.03568569 -0.13538422 -0.3453817 0.5906599
0.27607697 -0.3467275 0.17546198 0.51431966 0.7891828 0.92756164 0.50976515 0.028824642
0.35797834 -0.040489554 0.11497887 -0.55325395 0.10556331 0.38415864 0.30588248 -0.23761326
-0.32366192 -0.40689597 -0.17895553 0.383342 0.6544169 0.11582601 -0.027711898 -0.17809881
0.3290383 -0.09712911 -0.39507756 0.08976683 -0.26610497 0.034280658 0.57447183 0.60129195
-0.14632758 0.6099314 -0.033674777 -0.13811177 0.14517458 0.7333852 -0.47276017 0.79818344
0.44189477 -0.016910315 -0.34509137 -0.11334902 0.52256286 -0.14759181 0.6382327 0.08439056
0.116589874 0.03087996 0.6773641 -0.15859196 0.43533733 0.5090142 0.78559923 0.11094265
0.47229427 0.7223002 0.52702415 0.7660091 0.017260551 0.69871366 0.5448249 0.51477736
0.16349213 -0.007725686 0.4285584 -0.48700947 0.82107234 -0.35273486 1.5595539 -0.59081876
-0.34101152 0.16817944 0.34405166 0.08226968 -0.38100076 -0.27165586 0.9908861 1.034342
0.35495123 0.2729853 0.117934495 0.115989864 -0.27077425 -0.11280571 -0.6790647 0.30863702
00000000: e48d fc3e 7001 c2be c2d7 883f 2d3c 35bf
00000010: 8990 f53e 790c e93e 4902 4bbf ca8e 383e
00000020: 4b31 2f3e 308b 93be e876 a23e 566f 463f
00000030: 84ca 963e a1ee 183f 4fc4 9ebd 1404 0e3f
00000040: 517b 82be 4b56 b53e beed 7abe 3058 84be
00000050: 5932 4f3f 9314 91be ead0 0a3f 4a8a 03bf
00000060: 3046 003f 39ee 8bbe b851 813e a72a 393f
00000070: ee0d 50bd 4726 1e3f 58f5 ec3d 7ff1 8b3e
00000080: a83b 8c3d fb58 55bf 98bf ee3d af46 ce3e
00000090: f8a7 1d3d fed7 523f 6074 dfbc c29e 4bbe
000000a0: 32e3 a1bd 28f1 6c3d cc9b 083f cc08 6f3f
000000b0: b855 b0bd 0211 d03e 0257 503e e105 3e3f
000000c0: 663b 36be 36ce 2dbf a6f2 a93e a31d 86be
000000d0: 186c 55bd 643b 933d c4d8 be3e 9d44 5d3e
000000e0: 107e 94bb b6ec 00bf 044a 89bd 3472 8ebe
000000f0: 205c 52be 60d5 3cbe db2e 253f 1cbf 7b3f
00000100: e869 f3be 846c f63e 7ca3 f3be f4a9 3a3e
00000110: 8f5c 823f 3396 053e 6832 4f3d 5b53 88be
00000120: 1a7d 333f ecce 86be a26c a0be 3e22 ebbe
00000130: e718 2fbe 168f 973f d804 1a3f c29c a6be
00000140: 286c 0ebf 4272 6d3e 3e55 d23e ad76 4fbe
00000150: e0c6 693e d2cc d7be 77c9 5e3d 78ae f93e
00000160: 244f b63e c5b8 153f 2bf8 5cbe 2a52 843e
00000170: 991d 2e3f 6055 a73d 410d 5ebe 7029 07bd
00000180: 8b7e debe 08ec 933d a943 703f d6b6 3fbe
00000190: 3193 f53e 145f 04bd 10b2 3fbe 402f dcbe
000001a0: 054a 1dbf 603b de3e 2693 133f 0aa4 dbbd
000001b0: 67b1 e93e 43a6 8a3f d298 433f 7461 8a3f
000001c0: ff85 383f c805 bb3e 7cdb 1ebf 6113 de3e
000001d0: d981 e63d 128d cc3e bb48 cd3e e0d9 4f3e
000001e0: 9eca c4be 0171 113f 5ef1 183f 99da 13bf
000001f0: 370a e3be 32bc cc3e d266 93be 7a2b d43e
00000200: fa22 5abd 108c ea3e 5870 15be 8030 b93e
00000210: f8d9 5f3f 0894 a5bd c2b6 1ebe 180a b9bd
00000220: c3e4 543f c0a3 fc3d 684f a7be 74f7 fa3e
00000230: 591a e13e c26d 1f3f c26b c3be f8f5 033f
00000240: 30d4 d03f bd1e 9fbe a074 153e 0a72 ef3e
00000250: 79da 993e 5c18 e33e a079 ac3c 70cb 12bf
00000260: b1f8 75be 407f 383c 2a05 0d3f 5167 843d
00000270: 2664 333e ae69 aabe f885 40bf f417 de3d
00000280: 0eb0 a63f 2712 05be a263 9fbd 7f75 efbe
00000290: 282b 123d 29a2 0abe dfd5 b0be 7d35 173f
000002a0: f659 8d3e 4486 b1be 4eac 333e 74aa 033f
000002b0: e207 4a3f ae74 6d3f f87f 023f a821 ec3c
000002c0: f048 b73e 60d8 25bd 0b7a eb3d 0da2 0dbf
000002d0: 9431 d83d 71b0 c43e a19c 9c3e e450 73be
000002e0: 04b7 a5be ab54 d0be 1e40 37be 6745 c43e
000002f0: de87 273f 3036 ed3d 1004 e3bc 895f 36be
00000300: b577 a83e a0eb c6bd 9b47 cabe acd7 b73d
00000310: e93e 88be e069 0c3d 9610 133f 45ee 193f
00000320: e6d6 15be 7724 1c3f 90ee 09bd 2c6d 0dbe
00000330: a5a8 143e 22bf 3b3f 9f0d f2be c055 4c3f
00000340: 0840 e23e 8087 8abc d1af b0be 8823 e8bd
00000350: aec6 053f 4f22 17be 3863 233f f5d4 ac3d
00000360: acc6 ee3d f8f7 fc3c bc67 2d3f ee65 22be
00000370: 89e4 de3e c14e 023f 081d 493f e635 e33d
00000380: 8ed0 f13e aae8 383f 0eeb 063f 2c19 443f
00000390: 0066 8d3c e6de 323f a579 0b3f 73c8 033f
000003a0: 7b6a 273e c027 fdbb 026c db3e 4e59 f9be
000003b0: cc31 523f aa99 b4be 769f c73f e63f 17bf
000003c0: 1099 aebe 3b37 2c3e 8a27 b03e 027d a83d
000003d0: 8812 c3be 7a16 8bbe b6aa 7d3f 5265 843f
000003e0: 2bbc b53e bbc4 8b3e a487 f13d 188c ed3d
000003f0: eca2 8abe ae06 e7bd 2fd7 2dbf ac05 9e3e

bn1.running_var f4 [256]
362.96692 128.06949 1068.9242 165.01071 950.6659 285.205 249.96721 66.27789
518.178 364.3856 1942.9661 1051.353 1777.0586 166.73358 238.09668 529.20557
427.0164 347.09482 262.49802 352.81604 221.25996 818.2957 324.7798 586.8598
310.80377 226.00311 1453.1282 676.4865 317.53992 932.1061 1051.4712 315.3673
142.95119 234.58049 99.36815 578.14777 354.7549 393.3687 942.12805 199.8291
396.48422 229.77254 731.1071 841.7675 267.71512 353.1555 699.5304 186.44208
440.44846 472.5971 254.61691 312.54898 875.74475 249.57979 285.11588 1185.545
424.2434 345.93875 566.19824 269.9932 91.821365 155.79678 739.4303 372.32602
466.94696 169.27132 483.7314 89.49242 289.7864 315.72903 565.46985 174.42133
255.79451 377.71948 332.93707 145.28705 143.30841 941.344 331.4823 399.09363
730.9738 438.604 453.48526 183.10786 3544.8298 254.91298 420.59088 614.2846
1951.9055 891.41833 355.1402 98.917305 548.42926 246.98293 417.3249 93.06364
238.74564 133.18178 331.28445 630.1933 818.0946 320.73727 565.12695 74.55814
197.2211 725.38855 316.7898 203.43683 277.45255 781.7168 437.72006 756.4074
198.40747 246.9868 90.970436 1166.908 660.6553 338.52588 274.37842 176.9467
224.99837 1166.4275 274.94974 123.60474 355.686 269.77887 138.45592 151.03659
213.92786 294.6953 364.2586 2376.4624 921.71014 166.55478 186.65448 628.8594
389.7711 1304.8005 379.51782 362.12366 875.34985 177.26422 376.92267 382.56006
581.53326 99.22431 875.91864 4010.652 1838.2617 214.32565 1159.4011 384.15485
89.69669 637.1581 217.07565 434.0248 1496.2034 424.5266 490.03513 1245.3776
479.87823 617.4324 579.8199 135.77286 1057.3528 775.2082 268.25244 424.41867
366.25757 361.73373 743.38995 225.72589 709.93585 703.5361 594.17303 796.18494
483.06937 330.20697 274.6211 325.93622 117.6919 480.94107 381.40915 482.0025
485.8873 327.12222 880.21484 366.3034 463.23828 2433.5154 166.11073 169.9169
278.08716 196.06996 765.5862 240.53087 888.2271 912.64355 1014.9198 396.75748
240.31552 746.73706 544.0387 248.6685 488.15216 361.58542 527.29663 881.25885
155.23062 590.81946 765.7689 162.7309 350.3115 330.0315 665.2721 249.65279
227.19751 278.36676 2520.448 146.10226 408.08548 191.33104 526.05994 469.82492
326.48483 457.8091 593.18524 296.00726 290.61496 159.53175 834.47546 357.8232
473.6493 1205.137 505.5738 334.5264 346.94882 652.62115 719.4926 185.53114
205.28384 161.96948 370.991 625.1767 252.64699 190.81868 388.9947 823.4061
416.52975 506.8976 582.9183 430.27463 335.01944 523.2766 670.68713 335.5392
00000000: c47b b543 ca11 0043 939d 8544 be02 2543
00000010: 9eaa 6d44 3d9a 8e43 9bf7 7943 488e 8442
00000020: 648b 0144 5b31 b643 eade f244 4c6b 8344
00000030: e021 de44 ccbb 2643 c018 6e43 284d 0444
00000040: 1982 d543 238c ad43 bf3f 8343 7468 b043
00000050: 8d42 5d43 ed92 4c44 d063 a243 07b7 1244
00000060: e266 9b43 cc00 6243 1aa4 b544 231f 2944
00000070: 1cc5 9e43 ca06 6944 146f 8344 04af 9d43
00000080: 81f3 0e43 9b94 6a43 7ebc c642 7589 1044
00000090: a160 b143 32af c443 3288 6b44 40d4 4743
000000a0: fb3d c643 c5c5 6543 dbc6 3644 1f71 5244
000000b0: 89db 8543 e793 b043 f2e1 2e44 2c71 3a43
000000c0: 6739 dc43 6e4c ec43 ee9d 7e43 4546 9c43
000000d0: aaef 5a44 6d94 7943 d58e 8e43 7131 9444
000000e0: 281f d443 29f8 ac43 b08c 0d44 21ff 8643
000000f0: 8aa4 b742 facb 1b43 8adb 3844 bb29 ba43
00000100: 3679 e943 7545 2943 9fdd f143 1efc b242
00000110: a9e4 9043 51dd 9d43 125e 0d44 dc6b 2e43
00000120: 65cb 7f43 18dc bc43 f277 a643 7c49 1143
00000130: f44e 0f43 0456 6b44 bcbd a543 fc8b c743
00000140: 53be 3644 504d db43 1dbe e243 9d1b 3743
00000150: 478d 5d45 b9e9 7e43 a24b d243 3792 1944
00000160: fafc f344 c6da 5e44 f291 b143 a9d5 c542
00000170: 791b 0944 a1fb 7643 96a9 d043 9520 ba42
00000180: e2be 6e43 892e 0543 69a4 a543 5f8c 1d44
00000190: 0e86 4c44 5f5e a043 2048 0d44 c51d 9542
000001a0: 9a38 4543 de58 3544 1865 9e43 d46f 4b43
000001b0: edb9 8a43 e06d 4344 2bdc da43 131a 3d44
000001c0: 5068 4643 9ffc 7643 ddf0 b542 0edd 9144
000001d0: f029 2544 5043 a943 7030 8943 5bf2 3043
000001e0: 95ff 6043 aecd 9144 9179 8943 a035 f742
000001f0: cfd7 b143 b2e3 8643 b774 0a43 5e09 1743
00000200: 88ed 5543 0059 9343 1a21 b643 6687 1445
00000210: 736d 6644 068e 2643 8ca7 3a43 0037 1d44
00000220: b3e2 c243 9e19 a344 48c2 bd43 d40f b543
00000230: 64d6 5a44 a443 3143 1a76 bc43 b047 bf43
00000240: 2162 1144 d972 c642 cbfa 5a44 6faa 7a45
00000250: 60c8 e544 5e53 5643 d6ec 9044 d213 c043
00000260: b564 b342 1e4a 1f44 5e13 5943 2d03 d943
00000270: 8206 bb44 6843 d443 7f04 f543 15ac 9b44
00000280: 6af0 ef43 ac5b 1a44 79f4 1044 dac5 0743
00000290: 4a2b 8444 53cd 4144 5020 8643 9735 d443
000002a0: f820 b743 ebdd b443 f5d8 3944 d4b9 6143
000002b0: e57b 3144 4fe2 2f44 138b 1444 d60b 4744
000002c0: e188 f143 7e1a a543 804f 8943 d6f7 a243
000002d0: 4162 eb42 7578 f043 5fb4 be43 5200 f143
000002e0: 93f1 f243 a58f a343 c00d 5c44 d626 b743
000002f0: 809e e743 3f18 1845 591c 2643 baea 2943
00000300: 280b 8b43 e911 4443 8465 3f44 e787 7043
00000310: 890e 5e44 3029 6444 deba 7d44 f560 c643
00000320: c650 7043 2caf 3a44 7a02 0844 23ab 7843
00000330: 7a13 f443 efca b443 fcd2 0344 9150 5c44
00000340: 0a3b 1b43 72b4 1344 3671 3f44 1cbb 2243
00000350: df27 af43 0804 a543 6a51 2644 1da7 7943
00000360: 9032 6343 f22e 8b43 2b87 1d45 2e1a 1243
00000370: f10a cc43 bf54 3f43 d683 0344 97e9 ea43
00000380: 0f3e a343 91e7 e443 db4b 1444 ee00 9443
00000390: b74e 9143 2188 1f43 6e9e 5044 5fe9 b243
000003a0: 1cd3 ec43 62a4 9644 72c9 fc43 6143 a743
000003b0: 7379 ad43 c127 2344 87df 3344 f987 3943
000003c0: aa48 4d43 30f8 2143 d97e b943 4f4b 1c44
000003d0: a1a5 7c43 95d1 3e43 527f c243 fed9 4d44
000003e0: cf43 d043 e572 fd43 c5ba 1144 2723 d743
000003f0: 7d82 a743 b4d1 0244 faab 2744 05c5 a743

fc2.weight f4 [256, 256]
0.11334346 3.1882477 -6.9581137 -0.04032629 -9.143428 2.0529568 -3.7842238 3.7224247
-0.20615044 -1.0516871 -6.6271896 -1.0518398 -1.143862 2.0043166 -0.39500585 -7.3363123
0.63747835 0.27415192 -3.1502113 -1.1299269 2.482678 -1.1567578 -13.11735 -10.648521
1.0375507 -0.90539736 0.9455678 -0.8641694 -1.459012 -0.46466804 2.2967293 -1.8774755
-3.2788258 -3.1855798 1.912072 -0.9808909 2.4325917 0.6586743 -0.98248506 -0.940099
-1.4779932 2.1760392 -7.78577 0.017241374 -0.753833 0.2781548 -7.2899175 0.70264953
-0.5635973 -1.1238306 2.333092 -0.2812294 4.95195 -1.6289427 1.5417438 1.1731235
-0.07753495 0.15208557 -8.770264 -2.218241 0.62609684 -0.3707424 -0.5555069 -1.1772585
-1.682252 1.738314 -1.4785849 0.6221926 2.5525749 -3.2824798 1.5187906 -1.9717216
0.96707946 -1.2537391 -0.36108148 -2.1743984 -1.2113227 -10.336509 -3.2903523 -0.96578234
-11.690504 -5.7505574 3.0999243 -9.065344 -3.1382158 -1.1222166 -5.699455 -1.360473
-1.2605257 0.915457 2.614157 1.0296508 -2.241088 0.97020704 -0.5663664 3.5367382
-13.544975 0.7415049 2.241124 -1.4595687 0.83239394 -1.6054419 -2.380519 0.20576186
-0.043746173 -0.1610604 -2.4546447 -0.010390989 -6.7290225 -0.4388838 1.0300208 1.4753467
-0.32245174 3.0584276 -3.0873652 -1.6951356 -0.31450957 1.3538985 -0.15132028 0.23175691
1.0727993 -2.0836537 -0.4056507 1.0651759 -7.314227 -12.569645 -0.19913758 -0.4232139
-2.11552 -4.588455 -1.1394515 3.3643658 -1.788842 1.451315 3.646023 -0.03387715
-0.042338427 2.7750468 1.3586637 -4.3387513 -3.839303 2.6265173 -3.1942189 -4.2515225
-0.300546 0.42297974 -0.19316567 1.2747175 -4.811876 0.508074 1.8973137 -10.4442835
-4.0914245 -0.9373652 2.3363693 -10.270407 -4.898269 0.502787 -0.38327482 -1.0329517
-0.8853365 0.9810891 2.0654743 -4.581891 1.7124736 -1.7798321 0.3259242 -0.5121714
-1.171406 -4.132296 -0.020878106 0.087512806 -4.6606393 0.018705543 0.46898958 0.15757819
-0.32811964 -1.4467658 4.284471 -7.129408 1.7602564 0.67564857 -0.20504361 1.1083635
1.5414305 0.5043476 0.37294838 4.075894 1.0610099 0.7336428 -0.09248249 -3.9972117
0.86227566 2.0537338 -1.1773187 3.032259 -15.436473 -0.08256237 0.11239799 0.7477626
2.5023246 -5.807588 -0.7395661 -5.4830775 1.6316626 -15.958268 -1.889115 -1.5783203
1.0847154 3.8339915 0.7275803 -4.1691885 -14.848122 0.29469505 -0.55522704 0.047002796
2.457792 -0.22622685 0.4055615 -5.131079 1.040882 1.9544151 -2.7262275 1.0551175
-1.8070879 -1.649048 0.64815545 2.0278401 3.0158925 0.66711617 -2.2507799 -1.0455984
0.2920981 -0.47478375 -0.38201496 -3.299598 -0.84479856 0.93606436 -0.11940572 -3.4435875
-0.4809206 -2.8098018 0.14819857 1.9885242 0.03760823 1.5834316 -2.2206159 -0.93551207
0.9302019 0.7781235 -0.14757584 -2.100193 -9.777379 -13.737389 -2.6808505 0.5166065
00000000: 9e20 e83d 400c 4c40 dea8 dec0 2e2d 25bd
00000010: 7b4b 12c1 a563 0340 b930 72c0 353c 6e40
00000020: 1a19 53be af9d 86bf f011 d4c0 b0a2 86bf
00000030: 126a 92bf b946 0040 353e cabe 12c3 eac0
00000040: c831 233f a45d 8c3e 109d 49c0 72a1 90bf
00000050: 32e4 1e40 a410 94bf aae0 51c1 5860 2ac1
00000060: 76ce 843f 1fc8 67bf bb10 723f 353a 5dbf
00000070: e8c0 babf f8e8 edbe 9dfd 1240 1e51 f0bf
00000080: 48d8 51c0 8ae0 4bc0 c6be f43f ab1b 7bbf
00000090: 95af 1b40 e19e 283f 2484 7bbf 54aa 70bf
000000a0: e22e bdbf 3a44 0b40 0725 f9c0 c83d 8d3c
000000b0: 33fb 40bf 4e6a 8e3e 0147 e9c0 d7e0 333f
000000c0: ea47 10bf aed9 8fbf 6151 1540 4dfd 8fbe
000000d0: 6076 9e40 3281 d0bf dc57 c53f e928 963f
000000e0: a5ca 9ebd 52bc 1b3e 0053 0cc1 a9f7 0dc0
000000f0: e247 203f f3d1 bdbe b335 0ebf 68b0 96bf
00000100: 0954 d7bf 1381 de3f 4542 bdbf 0448 1f3f
00000110: 635d 2340 2614 52c0 bb67 c23f 6061 fcbf
00000120: 8592 773f 867a a0bf acdf b8be 5829 0bc0
00000130: 9f0c 9bbf 5762 25c1 2295 52c0 833d 77bf
00000140: 4e0c 3bc1 9104 b8c0 2965 4640 a60b 11c1
00000150: 87d8 48c0 cba4 8fbf ef61 b6c0 fb23 aebf
00000160: e858 a1bf 645b 6a3f 594e 2740 99cb 833f
00000170: fc6d 0fc0 7d5f 783f 63fd 10bf eb59 6240
00000180: 38b8 58c1 44d3 3d3f 936e 0f40 26d3 babf
00000190: c517 553f 1f7f cdbf 6c5a 18c0 3db3 523e
000001a0: 302f 33bd 04ed 24be e618 1dc0 f73e 2abc
000001b0: 2754 d7c0 61b5 e0be b9d7 833f 29d8 bc3f
000001c0: 6518 a5be 47bd 4340 6497 45c0 34fa d8bf
000001d0: 6607 a1be 8c4c ad3f b4f3 1abe af51 6d3e
000001e0: 7d51 893f 955a 05c0 73b1 cfbe af57 883f
000001f0: 260e eac0 441d 49c1 b9ea 4bbe 7eaf d8be
00000200: ae64 07c0 a0d4 92c0 8cd9 91bf c551 5740
00000210: c6f8 e4bf b1c4 b93f 7158 6940 c4c2 0abd
00000220: 0f6b 2dbd 5e9a 3140 b1e8 ad3f 0dd7 8ac0
00000230: 24b7 75c0 dc18 2840 156e 4cc0 790c 88c0
00000240: 2ae1 99be cd90 d83e 39cd 45be f129 a33f
00000250: e3fa 99c0 2311 023f 2ddb f23f c91b 27c1
00000260: f3ec 82c0 2af7 6fbf 1387 1540 9653 24c1
00000270: 9fbe 9cc0 a6b6 003f 993c c4be c337 84bf
00000280: 6aa5 62bf a828 7b3f bb30 0440 da9e 92c0
00000290: 5632 db3f 8ad1 e3bf 89df a63e aa1d 03bf
000002a0: a2f0 95bf c53b 84c0 9008 abbc ea39 b33d
000002b0: f523 95c0 5e3c 993c 671f f03e 2d5c 213e
000002c0: 4cff a7be 9f2f b9bf 631a 8940 1c24 e4c0
000002d0: 1550 e13f 4ef7 2c3f f4f6 51be dbde 8d3f
000002e0: 984d c53f ed1c 013f 17f3 be3e b96d 8240
000002f0: 2ccf 873f 04d0 3b3f 7667 bdbd 51d2 7fc0
00000300: 19be 5c3f 6070 0340 61b2 96bf 8810 4240
00000310: cbfb 76c1 7616 a9bd eb30 e63d 5f6d 3f3f
00000320: 1626 2040 c3d7 b9c0 3454 3dbf 5f75 afc0
00000330: 52da d03f 1155 7fc1 85ce f1bf 6606 cabf
00000340: f4d7 8a3f 1e60 7540 b442 3a3f fe69 85c0
00000350: e891 6dc1 45e2 963e 5c23 0ebf 0186 403d
00000360: 774c 1d40 03a8 67be c2a5 cf3e cd31 a4c0
00000370: 9f3b 853f 462a fa3f 837a 2ec0 170e 873f
00000380: a84e e7bf 0114 d3bf 84ed 253f 22c8 0140
00000390: 6204 4140 20c8 2a3f c70c 10c0 2bd6 85bf
000003a0: e28d 953e db16 f3be 7797 c3be 9d2c 53c0
000003b0: b844 58bf eaa1 6f3f fc8a f4bd bd63 5cc0
000003c0: 3a3b f6be cbd3 33c0 5ec1 173e f687 fe3f
000003d0: 160b 1a3d e3ad ca3f 921e 0ec0 b87d 6fbf
000003e0: b621 6e3f 1a33 473f 1f1e 17be 9069 06c0
000003f0: 2570 1cc1 58cc 5bc1 0e93 2bc0 5340 043f

fc2.bias f4 [256]
-0.05524824 -0.011809251 0.051966757 -0.053768683 0.0029338659 0.012155139 -0.0012924997 -0.025180252
-0.074246086 0.05737171 -0.0013997128 0.028105168 0.042996638 0.02535846 -0.03773095 -0.03783778
0.04539438 -0.05369806 0.036891624 -0.026025033 0.013676878 -0.019739129 -0.0010644093 0.000600041
0.049699195 -0.030018374 0.06592062 0.046268877 0.06564586 0.0484448 0.041206002 0.007292607
0.007844142 0.0051855287 -0.021467166 -0.054047875 0.022810241 -0.019308679 0.058573283 0.03995756
-0.017299883 -0.0072764554 0.023847343 -0.052275646 -0.037333187 0.04891527 -0.008821421 -0.00056378305
-0.0071685105 -0.02772184 -0.014231268 -0.055786423 -0.02031118 0.048886254 0.03667615 -0.051746007
0.0048182593 0.06957565 -0.06698419 0.0040997365 -0.0058705355 0.02120603 -0.018208345 0.017611278
0.04194735 0.023392778 -0.028221153 -0.024268707 -0.009229901 -0.015843613 0.05429182 -0.05733894
0.03020722 0.05153712 0.0070432047 0.0068285167 -0.018450046 0.068029076 -0.06034507 -0.025862562
0.039355066 -0.005183216 0.07593862 0.065548405 0.049488705 -0.048013806 0.048914038 0.023138663
0.013500204 -0.008067462 0.04668693 -0.06510949 0.039777357 0.0014793695 -0.05506839 0.011782789
0.000701032 0.035440538 0.046954025 0.007386094 0.05251176 -0.029462846 0.05131414 -0.002604949
0.0047369506 -0.060613647 -0.018249111 -0.028726606 -0.0063588414 -0.0016012 0.050401647 0.041954245
-0.01641718 0.0015949362 0.014122358 0.011697097 -0.057173606 0.053613447 -0.064893566 -0.05243453
0.020809444 -0.053884096 -0.0296711 -0.014022257 0.012102881 -0.014754899 0.052498076 0.011887134
0.016905248 -0.00510355 0.024959581 -0.0259286 0.014363074 0.056618847 -0.023184922 0.00012036025
0.049550347 0.017598411 -0.015613947 0.012014881 0.051011592 -0.041845895 0.059699886 0.056448728
0.059959903 0.0055215256 0.04903374 0.027801337 -0.029631762 0.02689465 0.021458164 0.024964612
-0.04689445 -0.023968734 -0.016485564 -0.028802002 -0.027479006 0.039051462 -0.045403205 0.01998223
0.040247954 -0.004114189 0.0028520771 -0.038356036 0.011442749 0.008179011 0.017962154 0.019456614
-0.037696008 0.007022962 -0.06638288 0.054958142 -0.0062658605 0.059657086 0.046070315 0.013596665
-0.031839304 0.060544185 -0.0383506 -0.011325881 0.010952386 0.03641046 -0.046285104 0.03919977
-0.033837426 0.0050897365 -0.017729925 -0.0012778998 0.045219354 -0.021308316 -0.0008714092 -0.013201184
-0.022590177 -0.015502731 0.020585816 0.040548325 -0.0461693 0.058401622 0.07118525 -0.04224048
-0.034416005 -0.01283564 -0.027945416 0.05109222 0.05166896 -0.030113688 -0.03704814 -0.027241392
0.032288507 0.0045756917 0.05906581 0.048849985 -0.0010065158 0.058647145 -0.05158155 -0.030123176
0.01952232 0.03985575 -0.0056401026 -0.06521663 -0.0011626761 0.018998055 0.06356218 -0.0063905413
-0.022467917 0.0069275266 0.032188833 -0.008864338 -0.054789823 -0.01990715 0.015274881 0.009084539
-0.025603883 -0.045249697 -0.05073183 -0.010035094 -0.04421825 -0.028801102 0.038632985 0.045645166
0.05778301 -0.059296355 -0.038643546 0.008236287 -0.019492501 -0.036392376 -0.038242117 -0.019736962
-0.03405564 0.019990664 0.030928317 0.065346524 -0.042350367 -0.028965153 0.031523716 -0.020490136
00000000: fa4b 62bd 977b 41bc 18db 543d 8d3c 5cbd
00000010: 1a46 403b 5926 473c 1869 a9ba d146 cebc
00000020: 550e 98bd 99fe 6a3d 9176 b7ba cf3c e63c
00000030: 3e1d 303d 8cbc cf3c c58b 1abd cafb 1abd
00000040: 75ef 393d 7ff2 5bbd ac1b 173d 7332 d5bc
00000050: fc14 603c f4b3 a1bc a683 8bba 124c 1d3a
00000060: 6291 4b3d 18e9 f5bc 6401 873d 6f84 3d3d
00000070: 5671 863d 0e6e 463d a0c7 283d d2f6 ee3b
00000080: b784 003c 5eeb a93b e9db afbc 4e61 5dbd
00000090: 8bdc ba3c 3c2d 9ebc 8aea 6f3d 8aaa 233d
000000a0: 7cb8 8dbc 556f eebb 815b c33c fd1e 56bd
000000b0: afea 18bd 615b 483d b987 10bc d7ca 13ba
000000c0: d3e5 eabb ea18 e3bc 442a 69bc 4e80 64bd
000000d0: a263 a6bc f43c 483d bb39 163d 9ff3 53bd
000000e0: 7de2 9d3b ae7d 8e3d 022f 89bd 1557 863b
000000f0: 9f5d c0bb 45b8 ad3c ab29 95bc 8745 903c
00000100: fcd0 2b3d 36a2 bf3c 0c30 e7bc 2bcf c6bc
00000110: 0339 17bc 77ca 81bc 1961 5e3d 3ddc 6abd
00000120: 2275 f73c 9618 533d afca e63b c0c1 df3b
00000130: 8d24 97bc d452 8b3d 642c 77bd b9dd d3bc
00000140: c732 213d f8d7 a9bb b585 9b3d 3e3e 863d
00000150: abb4 4a3d 20aa 44bd 165a 483d 4b8d bd3c
00000160: f62f 5d3c 632d 04bc cb3a 3f3d 2058 85bd
00000170: 95ed 223d 67e7 c13a 648f 61bd 990c 413c
00000180: 76c5 373a 192a 113d dd52 403d 0c07 f23b
00000190: 9216 573d 115c f1bc c72e 523d cbb7 2abb
000001a0: 6c38 9b3b 0446 78bd 297f 95bc 0f54 ebbc
000001b0: d45d d0bb 5bdf d1ba f571 4e3d 37d8 2b3d
000001c0: 527d 86bc 2e0d d13a 7661 673c 2ea5 3f3c
000001d0: df2e 6abd c699 5b3d ebe6 84bd 97c5 56bd
000001e0: 9178 aa3c 92b5 5cbd cf10 f3bc 9cbd 65bc
000001f0: 2a4b 463c 88be 71bc 3908 573d 41c2 423c
00000200: e07c 8a3c ae3b a7bb 0978 cc3c 3768 d4bc
00000210: 1953 6b3c 2ae9 673d 4eee bdbc eb69 fc38
00000220: 4ef5 4a3d 8b2a 903c a4d1 7fbc 10da 443c
00000230: 88f1 503d 9a66 2bbd de87 743d c836 673d
00000240: 8498 753d eaed b43b 9ad7 483d a1bf e33c
00000250: 4fbe f2bc 2b52 dc3c 08c9 af3c 9682 cc3c
00000260: 6514 40bd 145a c4bc bc0c 87bc 2df2 ebbc
00000270: a71b e1bc 6df4 1f3d b6f8 39bd c6b1 a33c
00000280: 0adb 243d 52d0 86bb eae9 3a3b 381b 1dbd
00000290: 5e7a 3b3c 4201 063c 5e25 933c 7a63 9f3c
000002a0: 2167 1abd e020 e63b bff3 87bd ca1b 613d
000002b0: d951 cdbb fd5a 743d 3ab4 3c3d 8cc4 5e3c
000002c0: ee69 02bd 2efd 773d 8515 1dbd 3090 39bc
000002d0: a371 333c 2223 153d 7395 3dbd f08f 203d
000002e0: 1d99 0abd cec7 a63b 593e 91bc 347f a7ba
000002f0: ee37 393d c78e aebc 486f 64ba c749 58bc
00000300: 090f b9bc 2bff 7dbc 96a3 a83c 0016 263d
00000310: 051c 3dbd 8a36 6f3d 93c9 913d 5b04 2dbd
00000320: ccf7 0cbd 944c 52bc c9ed e4bc 1346 513d
00000330: d5a2 533d fbb0 f6bc cabf 17bd 5729 dfbc
00000340: f440 043d afef 953b feee 713d ec16 483d
00000350: 11ed 83ba fd37 703d 2d47 53bd e1c4 f6bc
00000360: 46ed 9f3c c83f 233d 9cd0 b8bb 4c90 85bd
00000370: f064 98ba cfa1 9b3c e32c 823d bf67 d1bb
00000380: a30e b8bc 4e00 e33b 70d8 033d ba3b 11bc
00000390: 4b6b 60bd 5214 a3bc 7f43 7a3c 51d7 143c
000003a0: 3cbf d1bc bf57 39bd 2ecc 4fbd 3c6a 24bc
000003b0: 321e 35bd 4af0 ebbc 9f3d 1e3d 6df6 3a3d
000003c0: e1ad 6c3d bce0 72bd b248 1ebd 7ef1 063c
000003d0: bdae 9fbc 2c10 15bd c4a3 1cbd 69af a1bc
000003e0: ed7d 0bbd 76c3 a33c 625d fd3c 66d4 853d
000003f0: 9477 2dbd 5448 edbc 031f 013d eeda a7bc
