Models/model_1000_pca_30.pth (torch, 620697 bytes, 28 tensors)

fc1.weight f4 [256, 30]
000000 fa 68 85 bf e7 57 f7 3d 93 3d b2 bf e2 0d 02 3f
       -1.0422661 0.12077313 -1.3925041 0.50802433
000010 fe bf be bf 18 70 1b c0 56 64 8a 3f 4a fa 9b be
       -1.4902341 -2.4287167 1.081187 -0.30464393
000020 6f c8 bb bf 7c 47 0d 3f 01 f5 b9 40 a7 93 8a 3f
       -1.4670542 0.551872 5.8111577 1.082631
000030 48 23 5a 40 02 ff 9d 40 11 21 a3 be 8f ff c1 be
       3.4084034 4.937379 -0.31861165 -0.37890288
000040 14 18 e9 3f 74 b0 21 c0 1e 52 1f bf 54 a5 c9 bd
       1.8210473 -2.5263948 -0.62234676 -0.09845987
000050 32 bc 02 40 5f 3a 22 be fa fc 1f c0 4d 5f 8a bf
       2.0427365 -0.1584258 -2.4998155 -1.0810333
000060 3c fa 01 c0 56 9d d5 bf a2 05 07 c0 20 f2 fb 3e
       -2.030898 -1.668864 -2.1097188 0.49208164
000070 7a 24 74 3f 3d 49 b0 40 1f 83 35 c0 4b e1 16 40
       0.9536816 5.50894 -2.836128 2.3575008
000080 a0 e8 b6 3f bf c3 a9 3e 65 b4 3b 3f 88 ed 29 40
       1.4289742 0.33157155 0.73322135 2.6551228
000090 dd 54 6f bf 52 50 f6 3e 5e 28 45 bf 2e 24 d9 3e
       -0.93488866 0.48108155 -0.7701472 0.42410415
0000a0 54 b4 c1 3d 43 01 4b 3d 4d ad 2c 3f 73 bf 15 3e
       0.09458223 0.04956175 0.67451936 0.14623813
0000b0 af 1c 1f bf 37 7b ff 3d 0d 37 62 bf 78 19 9a 3d
       -0.6215314 0.12474673 -0.8836525 0.07524389
0000c0 58 15 1a 3d e6 d0 94 3f 55 47 ac 3f f6 c5 91 3f
       0.03761801 1.1626251 1.3459269 1.1388538
0000d0 c7 7e a4 c0 69 de d8 bf 63 91 27 40 29 fb db be
       -5.1404757 -1.6942874 2.6182487 -0.42965057
0000e0 28 0d c3 bf f8 4f 1e c0 27 af 6a bf bc 99 00 c1
       -1.523839 -2.473631 -0.9167351 -8.037533
0000f0 b3 90 bf 3e be d2 d9 3f 7c 77 a9 bf 8a 97 39 bf
       0.37415084 1.7017438 -1.3239589 -0.72496855
000100 ff 1d be be 5f c4 32 40 30 0d c2 bf b1 8d 28 bf
       -0.3713226 2.7932355 -1.5160275 -0.65841204
000110 87 f1 2d 40 c7 43 09 c0 5b 09 2b c0 c8 fa 28 3f
       2.7178667 -2.1447618 -2.672446 0.6600766
000120 48 1b 8b be 52 84 46 3f b3 78 9b 3f 4c 71 d1 3f
       -0.2716925 0.77545655 1.214621 1.63627
000130 a4 3f 04 c0 9f 12 5f c0 53 dc f2 bd 77 a3 5e 3f
       -2.0663843 -3.4855115 -0.1185843 0.8696818
000140 5f 9c 00 40 b1 2c 40 c0 1a 62 08 40 bd 7f 43 c0
       2.0095441 -3.0027277 2.1309876 -3.0546715
000150 11 60 53 c0 7b 4b 20 be cc 51 64 c0 19 67 30 bf
       -3.3027384 -0.15653794 -3.5674925 -0.68907315
000160 2b 43 d1 3f 86 8c 96 40 b5 6e 1a 3f 1f e3 d2 bf
       1.6348623 4.7046537 0.60325176 -1.6475562
000170 e4 e0 79 bf 52 d3 e2 3e b8 40 ee be cf 98 8f 3f
       -0.9760878 0.4430185 -0.4653375 1.1218508
000180 b7 dd 4e bf b9 e3 a3 bf 56 69 d4 bf 9d ab b1 3f
       -0.8080706 -1.280387 -1.6594646 1.3880497
000190 9e 9a 65 c0 08 67 1a bf 8f 13 b9 c0 11 17 e8 c0
       -3.587562 -0.60313463 -5.7836375 -7.2528157
0001a0 6d b7 32 c0 40 42 89 bf e7 1f 05 c0 0e c9 28 3f
       -2.7924454 -1.0723343 -2.0800722 0.65931785
0001b0 3e 52 b9 be 08 91 69 3f 83 d6 9d 3f 45 a5 a7 bf
       -0.36195558 0.91236925 1.2331089 -1.3097311
0001c0 58 23 21 bf 40 2c 29 c0 66 57 14 c0 91 d3 af bd
       -0.62944555 -2.6433258 -2.3178344 -0.08585275
0001d0 74 45 ab bd ac 71 e2 3f 5f e8 00 40 d8 c4 14 3e
       -0.083628565 1.769094 2.0141828 0.14528215
0001e0 42 be bb bf 7d 62 14 bd 24 12 2a 3d cc ee f8 bb
       -1.4667437 -0.03622674 0.041521206 -0.007596826
0001f0 1a 9c 0e be 89 a6 90 3f d6 6c 96 bf ef 9b a3 3e
       -0.13926736 1.1300822 -1.1751964 0.31954905
000200 2f 78 18 40 85 9e 24 c0 51 90 75 c0 28 86 8a be
       2.3823354 -2.5721753 -3.8369334 -0.27055478
000210 c3 f6 2c 3f 85 04 c8 3f bb d4 f9 3f 39 c9 18 3f
       0.6756403 1.5626379 1.9518045 0.5968204
000220 bc bb ab c0 7b f3 79 c0 a5 fd 9a be 6e 11 16 3f
       -5.366667 -3.9054859 -0.3027164 0.58620346
000230 25 dd f4 3d 64 db e9 3f 6e 62 51 3e 6e 51 bb bf
       0.119562425 1.8270078 0.20447704 -1.4634225
000240 6b 6b 00 40 1a e6 48 3f 69 f1 80 c0 60 37 bb be
       2.0065563 0.7847611 -4.029469 -0.36565685
000250 4f 9d 6b 40 8f c0 d9 3e 71 ac 52 3f 15 da 0e 40
       3.6814764 0.42529723 0.82294375 2.2320607
000260 80 11 8f bf d2 3d 03 3f 25 42 da bf 69 a3 48 bf
       -1.1177216 0.51266205 -1.7051436 -0.78374344
000270 da c7 09 be be cf 2b bf 13 80 3d bf bb ef bd 3e
       -0.13455144 -0.67113864 -0.7402355 0.37096962
000280 52 00 a9 be 65 c1 14 c0 ca 6b bb 3d ad 9c 9c 3e
       -0.33008057 -2.3243039 0.091514185 0.30588284
000290 76 76 94 3e a6 70 76 3f 9d 72 2e c0 df 0f a2 3f
       0.2899663 0.9626564 -2.7257454 1.2661093
0002a0 5e 5b fc 3e db 7a de 3f a5 27 86 c0 c8 2a 86 bf
       0.49288458 1.7381243 -4.1923394 -1.0481806
0002b0 a7 a4 9f 3e 52 73 51 40 96 6d 48 c0 45 39 37 bf
       0.31180307 3.2726636 -3.1316886 -0.7157176
0002c0 b7 d9 83 be 85 88 68 bf 08 7f 2f c0 88 bc 1e 41
       -0.2575204 -0.9083331 -2.7421284 9.921028
0002d0 6d 97 99 bf 98 66 cf bf 76 11 79 3d c8 6b 8d 3e
       -1.1999336 -1.6203184 0.060807668 0.27621293
0002e0 ac 7b 33 3e b6 59 ff bf 1b 3c 8f 3e c7 75 a3 3d
       0.17527646 -1.9949253 0.27975544 0.079814486
0002f0 c2 d7 b8 3f 54 38 ee bf a4 6d 09 c0 b8 2b cd 3f
       1.4440844 -1.861094 -2.147317 1.6028967
000300 07 dd 23 3f 08 90 c9 be 27 56 ae 3f f7 c1 a7 3f
       0.64009136 -0.393677 1.3620042 1.3106068
000310 4e c8 08 c0 e6 29 cf c0 c5 22 b2 be ab 12 4b 40
       -2.1372256 -6.4738646 -0.34792152 3.1730144
000320 43 34 70 3f 63 ba 72 be f6 af 16 c0 6c 55 8a 40
       0.93829745 -0.23703913 -2.3544898 4.3229275
000330 36 33 0d 3d 1d ee 17 bd 60 a9 db 3f 3d 42 cd be
       0.034472667 -0.037092317 1.7161064 -0.40089598
000340 12 3c 3b c0 d9 7c 14 40 6c 60 85 bf 61 07 d4 3e
       -2.9255414 2.32012 -1.0420051 0.4141188
000350 71 85 06 bf 34 56 30 c0 69 bb 98 3f 08 43 5d c0
       -0.52547365 -2.7552614 1.1932193 -3.4572163
000360 b5 ca 1e 3f de 57 85 bf 8b b1 8f 3f d1 21 b4 bf
       0.62028056 -1.041744 1.1226057 -1.407282
000370 66 1a a4 bf cc fb 04 be 5e be c9 be d7 2c a3 be
       -1.2820556 -0.12986678 -0.3940305 -0.31870148
000380 cd 0c 3c 3f b1 08 57 3f b7 e1 2c c0 66 ac 13 3f
       0.7345703 0.8399764 -2.7012765 0.57684934
000390 02 8f 2a bd 53 6f 13 40 c2 ae 77 c0 83 f2 1c 40
       -0.04164029 2.3036697 -3.8700414 2.4523017
0003a0 54 37 d8 bf 2a 05 1f 3f e5 de 44 bf 1c 99 6e 3f
       -1.6891885 0.62117255 -0.7690261 0.93202376
0003b0 6a 60 73 40 5f f7 57 c0 65 62 26 c0 9c 0c 4f 3f
       3.8027596 -3.3744733 -2.5997555 0.80878615
0003c0 ec 95 d4 3e 28 04 8a be 6d aa 90 bf 68 61 54 3f
       0.4152063 -0.26956296 -1.130201 0.8296113
0003d0 49 6f bf be d4 59 1c 40 93 a0 af bf 35 d2 41 40
       -0.3738959 2.4429827 -1.3720878 3.028455
0003e0 21 5c 30 bf 95 50 1c 3f 32 f7 be bf 5b e8 db 3f
       -0.6889058 0.6106046 -1.4919188 1.7180284
0003f0 91 bc a2 be de eb 0b 3f 0e 28 f1 be 79 16 69 be
       -0.3178449 0.5465678 -0.47100872 -0.22762479

fc1.bias f4 [256]
000000 61 a8 32 bd db f4 2a 3e 41 dd 03 be ad 24 87 3d
       -0.04361761 0.16694967 -0.1287737 0.06598792
000010 a5 7b 69 bd 19 47 20 bd fa b4 f1 3d 2b f3 0f 3c
       -0.057002682 -0.039130304 0.11802097 0.008786003
000020 5c 79 da 3d 8f a2 c2 bd bd 55 42 3d 46 9a 07 3e
       0.10667679 -0.09503662 0.047445048 0.13242444
000030 30 67 14 3e 1d cb 16 be 7a c1 78 bd d8 8e 7e 3c
       0.14492488 -0.14725919 -0.06073139 0.015536986
000040 7d 30 09 be 03 3f 66 bd 56 8c 11 be 41 99 ca bd
       -0.13397403 -0.056212436 -0.1421369 -0.09892512
000050 31 2e b0 bd 52 b0 36 3e bd c5 7e 3d 26 8b 05 bd
       -0.0860256 0.17840698 0.062200297 -0.032603405
000060 7f 40 43 bd 98 7a d3 3d f5 7e 2e be 52 79 d7 bd
       -0.04766893 0.10326117 -0.17040618 -0.10521187
000070 c2 ac 14 be b0 b9 20 be 3b ac cf bc 4e 60 de bd
       -0.14519027 -0.15695834 -0.02535068 -0.108582124
000080 b7 78 e2 bc 2d 58 4e bc 07 52 5e 3d 02 fe 12 bc
       -0.027645452 -0.012594265 0.054277446 -0.008971693
000090 48 98 b8 3c ec 3d 1b 3e 77 69 e3 bb 11 18 c0 3d
       0.02253355 0.1516034 -0.0069400626 0.0937959
0000a0 84 a2 01 bb 07 06 40 3d 8f fd cb 3d 93 63 50 3e
       -0.0019780705 0.046880748 0.09960472 0.20350485
0000b0 72 89 a4 bd c3 ae 1d be f5 51 f4 bc 35 4f fd 3c
       -0.08034028 -0.15398698 -0.029824236 0.030921558
0000c0 3d 1a 20 3e 28 76 12 3e 49 3d 02 3e c3 b9 a0 bd
       0.15635009 0.14302886 0.12718691 -0.07847931
0000d0 1e 47 38 3d eb 21 40 3c 9c e6 28 3d c7 22 47 3d
       0.044989698 0.011726837 0.04123555 0.04861715
0000e0 e7 9f 06 be 3f b4 31 be 0b ea 49 be 01 af 24 bd
       -0.13146935 -0.17353915 -0.19718187 -0.04020596
0000f0 74 ff 84 3d 4d 84 96 3d 67 81 2f bc 1a 5f 0a be
       0.06494036 0.07349453 -0.010712004 -0.13512841
000100 c3 18 4b be 8a 8c b9 3c e8 cd 14 be 28 cf f8 bd
       -0.19833665 0.022650022 -0.14531672 -0.12148887
000110 57 b2 0e 3e dc cf c0 bc 99 1f ce bd ec 54 3b be
       0.13935219 -0.023536615 -0.100646205 -0.18294114
000120 ac fb 1d 3e f1 8a c1 3d 6e 45 cb 3d 36 d9 0c be
       0.15428036 0.09450329 0.09925352 -0.13754734
000130 66 4e f1 bd 8b f9 82 bb d9 47 00 bd cb 3a 2f 3e
       -0.117825314 -0.003997033 -0.03131852 0.17112271
000140 d5 32 38 be 39 8d ce bd 51 3d 50 3d d3 95 80 bd
       -0.17988141 -0.1008553 0.050839726 -0.06278577
000150 28 09 38 be 2b 1e 46 3e 18 e3 e9 3d 19 e3 6b 3d
       -0.17972243 0.19347446 0.11420268 0.057589624
000160 13 94 8b 3d 4b 0a 45 be f9 b0 05 3e 0f 1c bd 3d
       0.06815352 -0.19242208 0.13055791 0.092338674
000170 f5 6a b0 bd 8e 56 d5 bd 8d 8c ed 3c 87 0d 43 bd
       -0.086141504 -0.104168996 0.028997684 -0.047620323
000180 0b 44 2a 3d 2c 55 2e be 22 cf 40 bd 69 39 39 3e
       0.041568797 -0.17024678 -0.047072537 0.18088306
000190 1d ca be bd 87 63 cc bd 02 35 11 be 72 2c 36 bd
       -0.09315894 -0.09979921 -0.14180377 -0.04447598
0001a0 b9 b5 2d be 24 d6 32 3d bd 98 a8 3d e8 f7 40 be
       -0.16963853 0.04366125 0.082322575 -0.18844569
0001b0 62 7c f0 bd 44 50 3d 3e 7f f5 98 bd d8 54 b9 bc
       -0.11742474 0.1848765 -0.074687 -0.022623464
0001c0 37 86 11 3e d3 3b c6 bd e1 3a d3 bd 8e f5 17 be
       0.14211355 -0.09679379 -0.10313965 -0.14839765
0001d0 e3 b7 f5 3d 80 69 86 bc 85 a7 40 3d db f2 0a 3e
       0.11997964 -0.016407728 0.04703476 0.13569205
0001e0 57 8d 90 bd 31 11 85 3d 83 1b 10 be f0 fa 65 bd
       -0.070582084 0.064974196 -0.14072995 -0.056147516
0001f0 84 96 7a bd 11 c1 53 bd 32 ed 12 be 7c 30 9a 3d
       -0.0611787 -0.051697794 -0.14348295 0.07528779
000200 7b 01 21 be ad ab dc 3d fd bc 30 bd 97 71 c5 3d
       -0.15723221 0.10774932 -0.043148983 0.09640806
000210 97 1a 0e 3e af 3d 9b bd fa 94 2a bd fa 0f 29 be
       0.1387733 -0.075801246 -0.04164598 -0.16510001
000220 0d fc 29 3d 6b 00 84 3c 54 e3 d5 bd e3 be ed 3d
       0.04150014 0.01611348 -0.1044375 0.116086744
000230 cb f2 91 bd 81 d6 d1 bd 70 6f 12 bd cc 52 b9 3d
       -0.07126387 -0.102459915 -0.035750806 0.090489954
000240 2f 1d db 3d 47 f3 9e bd 28 f4 80 bd ca d0 05 3d
       0.10698926 -0.07761245 -0.06296569 0.03266982
000250 a2 91 08 be d0 da a4 3d f2 2f 8a bd 40 42 6f bd
       -0.13336805 0.08049548 -0.06747426 -0.05841279
000260 08 3b e0 bd 8e 16 f4 bd 45 26 35 3e 4f a5 ce bd
       -0.10948759 -0.119183645 0.1769038 -0.10090124
000270 2c 91 20 3c 64 8f c6 bd 42 0f 14 3e 64 df de bd
       0.009800237 -0.09695318 0.14458945 -0.10882452
000280 67 46 04 be 0b 0e 26 3e 91 8d b8 3d 49 2f ae bc
       -0.12917481 0.16216294 0.09011377 -0.021262782
000290 b9 0e e5 bd bf b3 4d 3e 5f ae 42 bb 00 2b 30 3e
       -0.11184449 0.20088099 -0.0029705984 0.17203903
0002a0 ca 7f c3 ba 20 be 0f be c2 73 16 be 25 06 dc bd
       -0.0014915403 -0.1403737 -0.14692596 -0.107433595
0002b0 8e 3c e1 bd 55 f4 97 3d 93 b5 e9 3d ac b1 fc 3d
       -0.10997878 0.074196495 0.11411586 0.12338576
0002c0 67 93 b4 bd 79 bc 16 bc f9 7e 3a bc 18 a7 44 bd
       -0.08817177 -0.009200209 -0.011382812 -0.048010916
0002d0 b1 ff 84 3d f6 af 23 3d 65 7a 16 3d ad 33 07 be
       0.06494082 0.03996273 0.03673782 -0.13203306
0002e0 b3 2e c8 bd 4c 72 3f be f9 2e 32 3e 7d 2c a8 3d
       -0.09774532 -0.18695945 0.17400731 0.082116105
0002f0 22 09 8c 3d 68 f2 fa bd b8 82 3f 3e 9e 16 29 be
       0.068376794 -0.122532666 0.18702209 -0.16512534
000300 1d be 9f bd 3b bd 09 be b8 76 92 3e f8 4d e3 3d
       -0.07799933 -0.13451092 0.286062 0.11098856
000310 e4 51 cc bd 9f 2f 1f 3e e4 9f 20 be f8 04 39 3e
       -0.09976557 0.1554551 -0.15685993 0.18068302
000320 3e a6 9c 3d 58 16 0d bc 03 b5 61 bd 66 84 45 3e
       0.07648896 -0.008611284 -0.055104267 0.19288787
000330 20 21 16 3e c1 5f 52 bd 6d 97 d9 3d ba 84 65 bc
       0.14661074 -0.05136085 0.10624585 -0.014008695
000340 3e 98 e7 3d 11 6c 7a 3c 9a 09 36 3c a5 e9 8b 3d
       0.11308335 0.015284554 0.011110688 0.068316735
000350 e5 a7 f6 bd 60 88 16 3e ef 8f be 3d 2d b9 3f 3d
       -0.12043742 0.1470046 0.09304797 0.046807457
000360 c7 78 fc bd 44 45 05 3e b9 1b c6 3d 42 3c 98 bd
       -0.12327724 0.13014704 0.096732564 -0.07433368
000370 f4 0d 50 3d 9e e8 3d bd 32 88 52 3e 4f 33 f7 3d
       0.050794557 -0.04636442 0.20559767 0.12070333
000380 0b 76 92 bd f1 e1 e3 bd 7e dc 06 bd 68 bc 57 3d
       -0.07151421 -0.11127079 -0.03292512 0.052669913
000390 68 ec 1d 3e 52 32 e4 bd 5d 4a 9f 3d 3d f6 0e 3e
       0.15422213 -0.1114241 0.077778555 0.1396112
0003a0 60 32 04 be 1f 6b 4c 3e d2 ff 80 3d 34 ec 87 3d
       -0.12909842 0.19962738 0.06298794 0.06636849
0003b0 4d 91 21 3e 51 96 e9 3b da 6c 1b 3e 42 d3 23 b9
       0.15778084 0.007128515 0.15178242 -0.00015623591
0003c0 06 78 08 be 50 84 67 bd ae 5a d2 3c 22 69 82 bd
       -0.13327035 -0.056522667 0.025678005 -0.06367709
0003d0 23 52 ea 3c 50 4a db 3d 6a 1a 8e bd 73 61 fd 3d
       0.028603619 0.10707533 -0.06938632 0.123721026
0003e0 d5 b3 18 3e b9 8c ce 3d 20 65 5e 3d 53 b8 b4 bd
       0.1491235 0.100854345 0.05429566 -0.088242196
0003f0 3d 33 d7 3d 5f 7c 56 bd cd 97 3a 3d 0b 02 0e be
       0.1050782 -0.052364703 0.045554925 -0.13867967

bn1.weight f4 [256]
000000 38 28 d1 3f a9 d8 14 40 bb bb 17 40 ef ab 24 40
       1.6340399 2.325724 2.3708332 2.572994
000010 00 77 1f 40 5b 9e 3e 40 80 e6 ba 3f 6d 41 00 40
       2.4916382 2.9784153 1.4601593 2.0039933
000020 b3 c7 94 3f a1 7c bf 3f f5 23 c0 3f 0d be dd 3f
       1.1623443 1.4959909 1.5010973 1.7323624
000030 13 ac fe 3f 59 b1 28 40 4a ae 07 40 72 48 00 40
       1.9896263 2.6358244 2.1200128 2.0044217
000040 57 d9 a3 3f 5b d8 46 40 1b eb 16 40 5e c8 b1 3f
       1.2800702 3.1069553 2.3580997 1.3889272
000050 e3 96 3e 40 1f eb ec 3f c9 e7 08 40 b8 7c 6a 40
       2.9779594 1.8509253 2.139147 3.6638622
000060 dd a2 23 40 d5 61 1e 40 70 1c d9 3f d0 6b c7 3f
       2.5568154 2.4747212 1.6961803 1.5579777
000070 5c bd 1b 40 26 da 39 40 e1 65 c5 3f 2e a4 08 40
       2.4334326 2.9039397 1.5421716 2.1350207
000080 40 1b 02 40 51 2e bd 3f 03 37 dc 3f 6e b2 b2 3f
       2.0329132 1.477976 1.7204288 1.3960702
000090 45 3a 17 40 61 22 2d 40 8a ac ed 3f 3a 8f 14 40
       2.3629315 2.7052233 1.856828 2.3212419
0000a0 61 63 f8 3f 84 e9 41 40 2a a9 31 40 a6 70 1b 40
       1.9405328 3.0298777 2.77595 2.4287505
0000b0 3b cd 13 40 c1 ee 2b 40 4e 0b 62 40 9d 2f 47 40
       2.3094013 2.6864474 3.53194 3.112281
0000c0 f5 f9 c3 3f 78 24 f1 3f 78 3a 3d 40 e6 4f 03 40
       1.5310656 1.8839254 2.9566936 2.0517516
0000d0 93 78 bb 3f 6c 5a 46 40 86 f3 db 3f 65 18 4b 40
       1.4646171 3.099269 1.7183692 3.173364
0000e0 f0 21 28 40 a9 b5 fe 3f c1 c9 0d 40 61 c6 dc 3f
       2.6270714 1.9899188 2.215439 1.724804
0000f0 a0 cc 34 40 d2 7c 23 40 7f 1a db 3f d3 a5 4d 40
       2.8249893 2.5544934 1.7117461 3.213246
000100 92 c7 ff 3f f0 ce 4d 40 c2 27 eb 3f c1 47 33 40
       1.9982779 3.2157555 1.8371508 2.8012545
000110 d2 7d 05 40 90 a4 91 3f 6c c7 fe 3f a4 86 23 40
       2.0858045 1.1378345 1.9904609 2.5550928
000120 3b 5a 2e 40 18 a5 1a 40 98 f8 4e 40 16 76 26 40
       2.7242572 2.4163265 3.233923 2.6009574
000130 9d bb f5 3f 84 61 3b 40 ca 3c 17 40 cb d6 0e 40
       1.919788 2.927827 2.3630853 2.23186
000140 00 4e 15 40 5e 49 f2 3f c0 32 78 40 98 df 31 40
       2.3328857 1.892864 3.8780975 2.779272
000150 49 c7 2d 40 d7 2c 36 40 4d 19 05 40 52 fc 0c 40
       2.7152884 2.8464868 2.0796692 2.2029004
000160 57 7d 13 40 b7 0d 2c 40 d7 cf 2a 40 37 3a 2d 40
       2.3045251 2.688337 2.6689355 2.7066782
000170 f2 0c 1e 40 86 60 e5 3f 03 5c 29 40 c0 98 0d 40
       2.46954 1.7920082 2.646241 2.2124481
000180 d8 f2 fd 3f 8b 98 30 40 b2 d3 0b 40 d0 ae ad 3f
       1.9839735 2.7593105 2.1847959 1.3568974
000190 27 a3 0b 40 8f 8d 30 40 16 87 fb 3f 61 e8 29 40
       2.181833 2.75864 1.96506 2.6548083
0001a0 56 3b 27 40 1c e3 ec 3f 6d 56 e0 3f 27 01 e6 3f
       2.6129966 1.8506808 1.7526375 1.7969102
0001b0 f4 ec 4c 40 64 4f 7d 40 b0 d4 1a 40 a9 5c 02 40
       3.2019625 3.9579706 2.4192314 2.0369055
0001c0 b7 c2 24 40 50 a8 08 40 5a 54 13 40 ea 4b 0f 40
       2.5743845 2.135273 2.3020234 2.2390084
0001d0 32 e9 c2 3f 28 2d 23 40 b8 7c 07 40 24 83 13 40
       1.5227416 2.549631 2.1169872 2.3048792
0001e0 ce 8f 32 40 2e 57 2a 40 70 b3 52 40 24 5c 80 3f
       2.7900271 2.661571 3.292202 1.0028119
0001f0 7b 0f 08 40 0e 58 ef 3f 37 cf b3 3f 03 c7 13 40
       2.1259449 1.8698747 1.4047612 2.3090217
000200 0c 0b a1 3f 91 89 0e 40 b8 ef 34 40 29 e4 05 40
       1.2581496 2.2271464 2.8271313 2.0920508
000210 6b f6 fe 3f 68 f4 13 40 fc 10 05 40 b2 9e 35 40
       1.9918951 2.3117924 2.0791616 2.837811
000220 96 d4 18 40 28 65 f5 3f 37 e5 ba 3f db 22 0a 40
       2.3879752 1.9171495 1.4601201 2.1583774
000230 14 06 39 40 74 44 ac 3f 03 13 9c 3f a7 7f 16 40
       2.890996 1.345839 1.2193302 2.3515413
000240 43 9b 19 40 00 25 f3 3f e5 67 0a 40 77 75 5d 40
       2.4001014 1.8995667 2.1625912 3.4602945
000250 ff 4e 0f 40 74 67 0b 40 82 ca 29 40 ab 1c 21 40
       2.2391965 2.1781893 2.652985 2.5173748
000260 b0 4c 0c 40 84 ab 40 40 1a ac 30 40 da 7c d6 3f
       2.1921806 3.0104685 2.7605042 1.6756852
000270 7d ae 2f 40 88 a3 00 40 9b ef 09 40 17 38 0e 40
       2.745025 2.0099812 2.1552494 2.2221735
000280 2e 7e 64 40 3f 77 df 3f 2b 8a 0f 40 c0 65 3c 40
       3.5702014 1.7458266 2.242808 2.9437103
000290 af d9 31 40 c4 d1 1e 40 7c 6b 34 40 42 54 40 40
       2.7789114 2.481553 2.8190603 3.0051427
0002a0 d4 a3 da 3f 38 e9 2c 40 25 ef 3c 40 8e 09 13 40
       1.7081246 2.7017345 2.9520962 2.2974582
0002b0 33 c9 1a 40 1f e9 13 40 ee 50 30 40 8b 1a 2a 40
       2.4185302 2.3111036 2.7549396 2.65787
0002c0 10 5a 6d 40 15 0b 10 40 66 98 aa 3f 10 11 07 40
       3.708622 2.2506764 1.3327758 2.1104164
0002d0 05 88 c9 3f 34 3a d3 3f 7d d9 1e 40 95 9f 03 40
       1.5744635 1.6502137 2.4820244 2.056615
0002e0 38 09 15 40 f9 cf e4 3f 86 3f 35 40 8c 1d ef 3f
       2.3286877 1.7875968 2.8320022 1.8680892
0002f0 4e 94 aa 3f 23 5e 2f 40 cf ca ca 3f f7 49 e1 3f
       1.3326509 2.7401206 1.5843142 1.7600697
000300 6f 88 f2 3f 46 78 1e 40 df a9 e0 3f 12 fb 1d 40
       1.8947886 2.476091 1.755184 2.468449
000310 b7 6b 08 40 a6 e6 06 40 8d 96 1a 40 c0 a0 e9 3f
       2.1315744 2.1078277 2.415439 1.8252182
000320 07 3a 1b 40 35 54 35 40 8b be 26 40 21 ec d5 3f
       2.4254167 2.8332646 2.6053798 1.6712686
000330 0b 96 0f 40 e0 2b 2b 40 fe d0 d2 3f 5f 08 20 40
       2.243533 2.674553 1.6470029 2.500511
000340 d4 80 09 40 82 a5 1e 40 f1 7c 19 40 79 89 43 40
       2.148488 2.4788518 2.3982508 3.0552657
000350 27 32 29 40 94 49 0a 40 d0 d2 2c 40 3c 9c f9 3f
       2.643686 2.1607409 2.700367 1.9500804
000360 68 59 0e 40 61 8b 0d 40 bd 47 34 40 c6 04 14 40
       2.224207 2.211632 2.8168786 2.3127913
000370 6c 92 39 40 0f 86 1c 40 18 6f 30 40 c5 34 3a 40
       2.899562 2.4456823 2.7567806 2.9094708
000380 57 43 07 40 44 d7 c1 3f ed 34 26 40 21 54 ae 3f
       2.113485 1.5143819 2.5969803 1.3619424
000390 91 c2 1a 40 4b 84 e8 3f e7 ec 2d 40 05 2c 41 40
       2.4181254 1.8165373 2.7175844 3.0183117
0003a0 21 5d 00 40 13 32 0b 40 e9 45 ec 3f 7c 46 e4 3f
       2.0056841 2.1749313 1.8458835 1.783401
0003b0 74 68 19 40 3d 5b e5 3f 3d 6e 09 40 f3 ca 22 40
       2.3970003 1.7918469 2.1473534 2.543637
0003c0 86 95 cd 3f 5b d9 0e 40 4a 56 05 40 58 58 0f 40
       1.6061256 2.2320163 2.0833917 2.239767
0003d0 0c 6f e1 3f 6a 5a 13 40 a3 df eb 3f 78 95 f7 3f
       1.7612014 2.3023934 1.8427624 1.9342489
0003e0 be 6b 1d 40 a5 5a dd 3f 61 62 36 40 35 95 60 40
       2.459701 1.7293288 2.8497546 3.5091069
0003f0 cd 58 ec 3f 98 a2 38 40 7c 1d 36 40 28 47 05 40
       1.84646 2.884924 2.8455496 2.082468

bn1.bias f4 [256]
000000 20 6e 90 bf 25 bb e8 bf 77 b6 c5 bf 7e 2d c4 bf
       -1.1283607 -1.8182112 -1.5446309 -1.5326383
000010 a7 99 ab bf bd 92 3a c0 38 7d 12 bf 56 0e 85 bf
       -1.3406266 -2.9152062 -0.5722232 -1.0395
000020 2b d5 a2 be 22 ec 49 bf bf 1d f9 be 01 35 6c bf
       -0.3180326 -0.78875935 -0.48655507 -0.9226838
000030 37 e7 a5 bf 81 14 3d c0 47 1d 7e bf 50 5d 82 bf
       -1.2961186 -2.9543765 -0.99263424 -1.0184727
000040 87 a7 04 bf 84 96 0a c0 85 52 c7 bf 01 7e 45 bf
       -0.51818126 -2.1654367 -1.5572058 -0.7714539
000050 3f 07 3d c0 0d bb 43 bf e2 f5 d0 bf e6 39 e9 bf
       -2.9535673 -0.7645729 -1.6325037 -1.8220794
000060 d2 ab 95 bf 3d 6f f3 bf 95 3f ca bf e9 82 56 bf
       -1.169306 -1.9018322 -1.5800654 -0.83793503
000070 a1 3d 9b bf 5b ae 0a c0 13 c0 3f bf 70 c3 f4 bf
       -1.2128183 -2.1668918 -0.74902457 -1.9122143
000080 40 7e 5c bf a5 1d c8 bf 16 14 3e bf d4 92 99 bf
       -0.8613014 -1.5634047 -0.742494 -1.1997933
000090 ab ee e8 bf 07 9e 15 c0 dc 70 9a bf d7 4a b9 bf
       -1.8197836 -2.3377702 -1.2065692 -1.4475964
0000a0 17 7b a3 bf 9e ae 65 c0 6f 47 a0 bf 23 b4 ba bf
       -1.2771939 -3.5887828 -1.25218 -1.4586223
0000b0 5f 17 04 c0 28 a4 18 c0 b3 24 28 c0 03 14 f9 bf
       -2.0639265 -2.3850193 -2.62724 -1.9459232
0000c0 5a c2 35 bf a9 ca b5 bf 8b ad d6 bf 5d 6d 4d bf
       -0.7099968 -1.4202472 -1.6771711 -0.80245
0000d0 21 cf a6 be 98 c1 31 c0 92 d6 9f bf 9f 2d d2 bf
       -0.32579902 -2.777441 -1.2487357 -1.6420172
0000e0 26 fd 11 c0 d6 0c d3 bf dc df 88 bf b3 4c bc bf
       -2.281076 -1.6488292 -1.0693316 -1.4710907
0000f0 00 cd 2d c0 1c 55 94 bf 72 f7 68 bf c9 21 e2 bf
       -2.7156372 -1.1588473 -0.9100257 -1.766656
000100 38 eb 9d bf 1d f9 51 c0 51 d0 a5 bf 53 08 e8 bf
       -1.2337408 -3.2808297 -1.2954198 -1.812754
000110 7e 4e 5e bf 12 68 9f be 14 9b a4 bf 3e 06 f9 bf
       -0.8683852 -0.31134087 -1.2859826 -1.945503
000120 5d b6 10 c0 fc 8b a9 bf 2c c9 0a c0 0e cd af bf
       -2.2611306 -1.3245845 -2.1685286 -1.3734453
000130 e0 39 90 bf ac 16 24 c0 a3 4f cd bf 93 a9 c1 bf
       -1.1267662 -2.5638838 -1.6039928 -1.5129875
000140 2c 96 0d c0 f3 96 73 bf cc 6e 58 c0 66 e8 da bf
       -2.2122908 -0.95152205 -3.3817625 -1.7102172
000150 b3 20 ed bf ab 2a b6 bf 1f 72 80 bf 69 b2 b2 bf
       -1.8525604 -1.4231771 -1.0034827 -1.3960696
000160 e4 57 c7 bf 21 96 12 c0 00 f0 f4 bf 4b 60 99 bf
       -1.5573697 -2.2904131 -1.9135742 -1.1982511
000170 ab 65 e4 bf 4e e0 4b bf 11 56 ef bf 8b 69 dc bf
       -1.7843527 -0.79639137 -1.869814 -1.7219709
000180 6f 31 58 bf f6 21 e2 bf d8 95 94 bf 99 b2 32 bf
       -0.8445043 -1.7666614 -1.1608229 -0.6980377
000190 89 18 70 bf 05 12 2b c0 fa 63 db bf 2b 3c 20 c0
       -0.9378744 -2.6729748 -1.7139885 -2.5036724
0001a0 8b 71 a1 bf 7a 96 8f bf de 5f 25 bf 71 e0 71 bf
       -1.2612776 -1.1217797 -0.64599407 -0.94483095
0001b0 27 12 0d c0 8c c9 06 c0 76 92 f0 bf ef 47 ce bf
       -2.204233 -2.1060514 -1.8794696 -1.6115702
0001c0 56 35 f2 bf c6 ef a3 bf d8 06 b2 bf 1f 47 d3 bf
       -1.8922527 -1.2807548 -1.3908339 -1.650608
0001d0 db ae 11 bf 24 53 fa bf 6b 08 91 bf af 77 97 bf
       -0.56907433 -1.9556623 -1.1330694 -1.18334
0001e0 2f ff e3 bf ce f1 c9 bf d6 0c f2 bf d2 17 64 be
       -1.7812251 -1.5776918 -1.8910167 -0.22274712
0001f0 46 5f 01 c0 3d d5 ae bf 90 db db be 3d c3 96 bf
       -2.02144 -1.3658825 -0.4294095 -1.1778332
000200 cf c4 53 bf 10 ad fe bf 7f 55 11 c0 1d 44 01 c0
       -0.8272218 -1.9896564 -2.2708433 -2.0197823
000210 f8 70 e4 bf 08 b9 06 c0 9b f8 0b c0 27 5c 36 c0
       -1.7846975 -2.1050434 -2.1870487 -2.8493745
000220 87 08 79 bf 1a 04 f1 bf ac e6 57 bf 60 c5 07 c0
       -0.97278637 -1.8829377 -0.8433635 -2.1214218
000230 45 9a 06 c0 d7 2e 01 bf 00 be c1 be 6f 62 f7 bf
       -2.1031659 -0.50462097 -0.3784027 -1.9326915
000240 a0 79 dd bf 48 78 ba bf 29 f6 ef bf 78 bc 29 c0
       -1.7302742 -1.4567957 -1.8746997 -2.6521282
000250 56 f4 3b c0 91 e8 b1 bf 2e ec 0c c0 cb 4c 0d c0
       -2.936788 -1.3899099 -2.2019153 -2.207812
000260 48 1b f3 bf a3 e7 fd bf a4 93 c7 bf 12 15 75 bf
       -1.89927 -1.9836315 -1.5591931 -0.95735276
000270 5c e8 07 c0 c4 2c ab bf 52 8e 2f bf 5b 92 0d c0
       -2.123557 -1.3373036 -0.6857654 -2.2120578
000280 06 c9 31 c0 e6 7c 9e bf 8c 86 bd bf 44 37 43 c0
       -2.7778945 -1.2381866 -1.4806685 -3.0502481
000290 db 2d 00 c0 59 34 fb bf 21 2a 35 c0 bb 6f 05 c0
       -2.0027988 -1.962535 -2.8306963 -2.0849445
0002a0 90 58 66 bf 6c 38 fc bf 2e 5d 03 c0 b3 e6 a3 bf
       -0.89978886 -1.9704719 -2.0525622 -1.2804779
0002b0 fa f9 9f bf b2 d8 8e bf e5 64 12 c0 47 66 da bf
       -1.2498162 -1.115988 -2.287408 -1.7062463
0002c0 8e 4f 55 c0 15 70 bc bf 1e 4b 01 bf 26 c5 a1 bf
       -3.3329806 -1.4721705 -0.50505245 -1.263829
0002d0 f6 35 10 bf 7d 27 ec be 61 9d e1 bf 3e 2a a5 bf
       -0.5633234 -0.46123877 -1.7626153 -1.2903516
0002e0 25 36 7e bf 8d c6 4f bf da c1 b8 bf 0c 94 a2 bf
       -0.9930137 -0.8116234 -1.4434159 -1.270143
0002f0 8e f0 66 bf 39 36 f9 bf 09 14 26 bf 09 4a 6b bf
       -0.9021081 -1.9469672 -0.6487432 -0.91909844
000300 10 7b ca bf e1 4f e3 bf 3a db 2e bf c5 b9 f2 bf
       -1.5818806 -1.7758752 -0.68303263 -1.8962942
000310 74 dd c2 bf 5a ac bd bf ae a3 3b c0 05 59 a0 bf
       -1.5223832 -1.4818223 -2.9318652 -1.2527167
000320 e3 80 ca bf 54 c0 36 c0 8b 0e eb bf 6a 63 b1 bf
       -1.5820583 -2.8554888 -1.8363813 -1.3858464
000330 32 27 c4 bf 74 5c f3 bf 6f 36 3a bf fe 54 04 c0
       -1.5324461 -1.901259 -0.7273931 -2.0676875
000340 cb 3d f2 bf ca 06 b8 bf 6a ac ca bf b1 56 0b c0
       -1.8925108 -1.4377072 -1.5833867 -2.1771662
000350 34 34 12 c0 af a9 9a bf af 56 ef bf 9b 9f 88 bf
       -2.2844362 -1.2083033 -1.8698329 -1.0673708
000360 1f d2 e5 bf a9 fc 72 bf 61 5a 18 c0 ba 86 f5 bf
       -1.7954749 -0.9491678 -2.3805163 -1.918174
000370 b4 09 c5 bf cb 84 c9 bf 66 ba b1 bf 93 e4 e6 bf
       -1.5393586 -1.574365 -1.3885009 -1.8038505
000380 ff 17 9a bf 7b 0d 59 be 59 36 cb bf 25 dd 43 bf
       -1.2038573 -0.21196549 -1.587596 -0.76509315
000390 44 07 02 c0 ba 02 39 bf 73 74 bb bf 14 5a 10 c0
       -2.0316935 -0.72269785 -1.4644912 -2.255498
0003a0 5d 74 04 c0 b6 1f 08 c0 43 bb b8 bf b5 d2 47 bf
       -2.0696023 -2.1269355 -1.4432148 -0.7805589
0003b0 f9 d6 1f c0 0b 91 0a c0 5d 01 c1 bf 5f 51 e2 bf
       -2.497496 -2.1651027 -1.5078541 -1.7681082
0003c0 32 82 c5 bf 1c 6b b3 bf ca e4 de bf fe 15 0a c0
       -1.5430357 -1.4017062 -1.7413571 -2.1575923
0003d0 ec 6d 59 bf e8 1c 9f bf 29 e3 91 bf 08 28 d9 bf
       -0.8493335 -1.2430696 -1.1397449 -1.6965342
0003e0 6e 99 06 c0 b5 89 bb bf 37 9c 98 bf 0e 36 04 c0
       -2.1031146 -1.46514 -1.1922673 -2.0657992
0003f0 71 2d cc be 4e cc e2 bf 4b fa ea bf f2 01 ad bf
       -0.3987842 -1.7718599 -1.8357633 -1.3516219

bn1.running_mean f4 [256]
000000 42 58 0c bf a2 2a f0 bd e3 a6 d3 be 67 bb e4 3e
       -0.5482217 -0.117268816 -0.41338262 0.44674227
000010 eb a7 11 be 41 3c 1e be 4a 65 2a 3e 2d af 20 3e
       -0.14224212 -0.15452673 0.16640201 0.15691824
000020 d2 3c 88 bd 26 b5 14 be 82 fe 44 3f a5 9e 00 bf
       -0.066522256 -0.14522228 0.7695085 -0.5024207
000030 d5 c6 1a be 9a a2 e2 bd 6c 70 8e be c0 c6 c5 3e
       -0.15114911 -0.1106617 -0.27820146 0.38628197
000040 6c 08 06 3e ff 0e 02 bf 46 b3 94 be b8 37 ec 3e
       0.1308915 -0.5080413 -0.29043025 0.4613626
000050 09 e5 67 be 34 a9 34 3f 74 a7 75 be 18 d1 c3 bd
       -0.22645964 0.70570683 -0.2398966 -0.09561366
000060 84 1d a8 3e 73 de e5 3d e9 99 c9 be 60 29 53 3e
       0.3283502 0.112240694 -0.39375237 0.20621252
000070 83 f7 03 bc 7b b6 e9 bc 5d c7 33 be 72 90 f1 be
       -0.008054617 -0.028529396 -0.1755652 -0.47180516
000080 35 26 9c be c3 54 d9 be c2 7e 6d 3e 6f 8e 5a 3f
       -0.304979 -0.4244748 0.23192886 0.85373586
000090 68 93 b4 3d 7d 92 e5 bd e4 e0 3d be 60 8c 8b be
       0.08817178 -0.11209581 -0.1854282 -0.27255535
0000a0 a2 09 e9 3c eb ec 16 bf ce f6 33 3f 51 ec 3d 3f
       0.028446976 -0.5895526 0.7029847 0.74188715
0000b0 6d b0 87 be f3 60 ec be 0d 3e 8e be db 0b 6f be
       -0.2650179 -0.46167716 -0.27781716 -0.23344366
0000c0 55 62 ae 3d 34 69 78 bd 60 ae 00 bf 98 d5 a0 bd
       0.08514849 -0.060647205 -0.50266075 -0.0785324
0000d0 04 9f 12 3f e2 5e df be 71 79 a8 3f 3e b6 51 3f
       0.5727389 -0.43627077 1.3162061 0.81918705
0000e0 22 1d f9 be b7 94 64 be 4c 70 4f bf 73 41 0d bf
       -0.4865504 -0.22322355 -0.81030726 -0.5517799
0000f0 9c 1a d1 be 37 51 f4 be 96 bc b8 3e ef f8 e4 bd
       -0.40840614 -0.47718212 0.3608138 -0.11180293
000100 d9 48 2d 3e 88 97 3f 3e 33 de 8c be 58 d1 7b 3e
       0.1692232 0.18710148 -0.27513275 0.24591577
000110 fc e9 ad 3e 98 8a 0c bf 75 d1 d5 bc 78 9a 05 bf
       0.33967578 -0.5489898 -0.026100853 -0.52188826
000120 9c 89 07 3f 07 c6 a2 be 89 b1 c5 3e 5f e4 83 bf
       0.5294435 -0.31791708 0.3861201 -1.0304068
000130 4c 1a a3 be 5a 77 f5 be 78 09 d5 3c 73 78 a0 3d
       -0.31856 -0.4794262 0.026005492 0.07835474
000140 70 87 1a bf 45 fe 42 be 9f 8d 9a be 72 b7 8b 3d
       -0.6036291 -0.19042309 -0.30186173 0.06822099
000150 25 7a 47 be 44 3c c7 3e ec 34 0c bd 21 80 4e be
       -0.19480188 0.38913167 -0.034230158 -0.20166065
000160 6e 0f 82 be 3a d9 a1 be ce 48 eb be 24 77 f1 be
       -0.25402397 -0.31611043 -0.45953983 -0.4716121
000170 52 15 b5 3e 45 d4 f1 be 14 c3 73 be 6e 50 ab bd
       0.3536783 -0.4723226 -0.23804885 -0.0836495
000180 06 68 cd 3e c4 40 22 bc 85 da 28 bf 28 0e a2 3e
       0.40118426 -0.009903137 -0.65958434 0.31651425
000190 40 7e ac 3e e7 2d 16 be 4d d3 3b 3f 97 a3 2a 3e
       0.3369007 -0.14665948 0.73369294 0.16663967
0001a0 fe 86 44 3e ee 83 e2 3e 04 ca db bd ff 97 02 3d
       0.1919212 0.4424128 -0.10731891 0.031883236
0001b0 7a f3 8c bd 3f 1c 1e 3f 55 34 5a 3e 9f d9 03 be
       -0.06882377 0.6176185 0.21309026 -0.12875985
0001c0 28 b8 9f 3e f1 dc fe bd 48 93 36 3e 3f d4 8d bd
       0.31195188 -0.12444485 0.17829621 -0.06925248
0001d0 27 66 ab 3e 3c 3b 84 be 97 e9 19 be d9 b4 03 3f
       0.33476374 -0.25826442 -0.15030514 0.51447827
0001e0 4c 39 70 be 1c d7 8f 3e 86 c1 1a bf f2 12 cf be
       -0.23459357 0.28093803 -0.60451543 -0.40444142
0001f0 5e fc 06 bf 26 15 81 3e 37 df 3a bd cb 9c 3d 3e
       -0.5272883 0.25211447 -0.04562303 0.18516843
000200 3e 6c 71 3d 74 0c e8 3d b5 c9 8d 3d 3f d2 9a be
       0.05894112 0.113305 0.06923238 -0.3023853
000210 51 7a d1 bd 4e 5e 7e be 28 25 9d bd 53 f5 4d be
       -0.10228408 -0.24840662 -0.076731026 -0.20113115
000220 48 d1 02 bf ea 8e cd 3d c1 16 09 bf 2c 80 52 be
       -0.5110059 0.10037024 -0.53550345 -0.20556706
000230 24 d6 12 be 83 99 41 be 6e 8e 10 3e e0 23 cd 3e
       -0.143395 -0.18906216 0.14116833 0.40066433
000240 6d 92 cb be f4 29 83 be fa 50 c9 be ed 8d d0 be
       -0.39760152 -0.25617945 -0.39319593 -0.4073328
000250 5e 6e 85 3e 5e 5d 77 3d cd 5a 33 be fa e6 d4 be
       0.26060766 0.060391776 -0.17515106 -0.4158247
000260 4f 86 09 bf 90 86 1a 3c 62 7c 5d be a0 73 01 3f
       -0.53720564 0.009431496 -0.2162948 0.50567055
000270 e2 c1 e2 3d 00 8a 98 3e 8a a7 b3 bc d4 11 c7 bd
       0.110721365 0.29792786 -0.021930475 -0.09720197
000280 e4 bd ed be 04 3a 34 3e f8 ab 1e 3b 4e f8 0f be
       -0.46433938 0.17600256 0.0024211388 -0.14059564
000290 0e 15 fe 3d 8a 22 a3 be 3e f0 0b 3e 05 ae 1e be
       0.124063596 -0.3186229 0.13665864 -0.1549607
0002a0 84 67 f2 bd ee 7d c4 bd a6 25 38 bf 98 0e 40 bf
       -0.1183615 -0.09594332 -0.71932447 -0.7502227
0002b0 d7 9a dd bd dd 4b 0a 3f 40 ec 90 ba 58 3a a8 bc
       -0.10820549 0.5402201 -0.0011056736 -0.020535633
0002c0 3d 53 05 bf db 9c a8 bd 66 74 21 3f f2 f4 ad be
       -0.52080137 -0.08233043 0.63068235 -0.3397594
0002d0 95 24 c3 be 54 83 ee 3d 6a b3 4f be e8 9e e5 bd
       -0.38113847 0.116461426 -0.20283285 -0.112119496
0002e0 c0 d9 49 bf 47 ef 24 be ca a4 f8 be 2b e0 2d be
       -0.78847885 -0.16106902 -0.48563224 -0.16980045
0002f0 f6 74 03 3e 43 31 80 be 88 d1 06 3f 5c 0f 0a bd
       0.12837586 -0.25037584 0.5266347 -0.033706054
000300 3c 56 50 3f a4 41 f5 be 42 df 5b 3c 56 39 29 be
       0.81381583 -0.47901642 0.013419928 -0.16525778
000310 4d 25 71 be cc be a4 bd 98 40 59 be ee 80 6d 3e
       -0.23549385 -0.08044204 -0.21216047 0.23193714
000320 32 64 92 3e 0f 62 18 3e 80 1c 0b bf 80 d8 9a 3d
       0.28592068 0.14881156 -0.5434036 0.07560825
000330 be 47 c0 3d b2 fd a9 3d 20 b5 86 3e 91 05 3e bf
       0.09388684 0.08300342 0.26310062 -0.74227244
000340 9d 18 a0 3e 0d 32 37 be 71 7c 20 3e 72 7f 89 3e
       0.31268778 -0.17890187 0.1567247 0.26855046
000350 6b 19 eb be 90 64 47 3c d2 e4 ab be d6 fd cd 3d
       -0.4591783 0.012169972 -0.33573014 0.10058181
000360 43 59 04 bf 5b 96 e3 bd 67 c1 2a be a6 66 91 be
       -0.516987 -0.111126624 -0.1667534 -0.28398627
000370 c2 2d d7 be dc 03 c9 3e c0 d6 22 3f fc 67 0a bf
       -0.42027098 0.39260757 0.6360893 -0.5406492
000380 d6 2b 64 3e e8 7c 73 be 72 f6 15 3f 3e 87 1f bf
       0.22282347 -0.23778117 0.5857917 -0.6231574
000390 5e 6d ca bd 76 69 af 3d ca eb a8 3e d5 8b b8 3d
       -0.098841414 0.08565037 0.32992393 0.09011046
0003a0 ee f9 98 be 34 d9 84 3e a9 0a bd 3e 6d 34 01 3e
       -0.2987818 0.25946963 0.36922196 0.12617655
0003b0 76 e1 1d bf 7b 98 8d be 25 fb 5a 3e 1c 3b 4b 3d
       -0.6167215 -0.27655396 0.21384867 0.049616918
0003c0 c2 54 b4 be 8e 09 ad be e7 a4 3e be 83 0f d0 3e
       -0.35220915 -0.33796352 -0.18617593 0.40636835
0003d0 74 7c 28 3e b2 ad 6a be 6d e8 6a be a2 58 f1 be
       0.16453725 -0.22917822 -0.22940226 -0.47137934
0003e0 25 11 90 bd c6 b0 ee 3d c7 88 f4 be 19 78 1a 3e
       -0.0703452 0.116548106 -0.47760603 0.15084876
0003f0 12 8d 55 3e 14 ae d7 be 68 8e d3 be db 08 9a be
       0.20854595 -0.42125 -0.41319585 -0.3008488

bn1.running_var f4 [256]
000000 7a 42 aa 42 19 34 f3 42 cc ff cc 42 72 6a 1d 42
       85.12984 121.60175 102.4996 39.35395
000010 fe f9 bf 42 ad a2 af 42 c0 da b9 42 4a a7 c1 42
       95.988266 87.817726 92.927246 96.82674
000020 8b 5a a5 42 ab 20 e2 42 8d 91 d0 42 12 bc a3 42
       82.67684 113.063805 104.28428 81.867325
000030 84 b2 a3 42 eb 21 83 42 51 98 d7 42 e5 31 6c 42
       81.84866 65.566246 107.79749 59.048725
000040 ad 18 d3 42 b6 24 d4 42 ab df e7 41 6b de 9b 42
       105.548195 106.0717 28.984213 77.93441
000050 2e c3 ec 42 12 16 b2 42 6d 26 94 42 47 0d 04 43
       118.38121 89.043106 74.07505 132.05186
000060 85 fb f1 42 e2 03 a7 42 6b d1 c7 42 6f 44 94 42
       120.99125 83.50758 99.90902 74.13366
000070 3e 1a c1 42 65 b8 2f 40 00 a3 c9 42 60 ab c7 42
       96.551254 2.7456295 100.81836 99.83472
000080 42 e7 73 42 42 08 c5 42 c3 b4 87 42 6b 77 fb 42
       60.975838 98.51613 67.85305 125.73324
000090 3b 47 ba 42 27 99 7f 42 c0 af 15 43 e9 19 f0 42
       93.13912 63.899563 149.68652 120.050606
0000a0 f8 35 fb 42 0f d6 ac 42 c9 64 82 42 2c ee 7c 42
       125.60541 86.41808 65.196846 63.23259
0000b0 63 07 ce 42 58 f7 8d 42 a6 66 cc 42 d3 e6 fc 42
       103.01443 70.98309 102.200485 126.45083
0000c0 82 94 ad 42 33 ce ee 42 f4 77 09 43 fb 4c ab 42
       86.790054 119.40273 137.46857 85.65035
0000d0 1c 3e fa 42 5e 30 40 43 0f c0 4a 43 53 1e 09 43
       125.12131 192.18893 202.75023 137.11845
0000e0 02 d1 a4 42 12 e7 a1 42 e3 5d f8 42 e8 01 94 42
       82.40822 80.95131 124.18337 74.00372
0000f0 9b b5 e4 42 53 86 34 43 cd 30 cd 42 57 02 e6 42
       114.3547 180.5247 102.595314 115.00457
000100 06 f1 d8 42 15 3b 9b 42 ee f8 bb 42 68 c1 9b 42
       108.47075 77.615395 93.98619 77.87775
000110 cb ae d5 42 93 83 e1 42 5c 86 83 42 c3 97 a0 42
       106.84139 112.75698 65.76242 80.29641
000120 24 3c a1 42 9d a6 cd 42 46 8f a2 42 65 74 db 42
       80.61746 102.82542 81.27983 109.72733
000130 c6 14 d0 42 be 49 9e 42 20 75 a6 42 c1 14 13 43
       104.04057 79.14403 83.22876 147.08107
000140 35 a9 85 42 2e 3e b0 42 7c 84 05 43 41 d5 ca 42
       66.83048 88.121445 133.51752 101.41651
000150 24 67 a7 42 f1 e9 e9 42 39 40 f8 42 a1 51 aa 42
       83.70145 116.95692 124.125435 85.15943
000160 7e a6 cd 42 c1 e9 be 42 4f f2 f1 42 21 65 f3 42
       102.82518 95.45655 120.97326 121.69752
000170 36 13 de 42 92 54 bc 42 15 de 9a 42 88 45 a0 42
       111.03752 94.16518 77.433754 80.1358
000180 1c 9d b5 42 b7 da 05 43 6e d0 ed 41 a4 68 83 42
       90.806854 133.85435 29.726772 65.70438
000190 b9 1e 8f 42 f1 ee 59 42 c4 14 10 43 66 c1 e9 42
       71.560005 54.48334 144.08112 116.87773
0001a0 55 38 b4 42 e8 ba 89 42 cc 24 d9 42 43 07 92 42
       90.11002 68.86505 108.57187 73.01418
0001b0 7b b0 f6 42 a3 93 cb 41 ec f9 a1 42 58 6d be 42
       123.34469 25.447088 80.98813 95.21356
0001c0 5c a3 a9 42 0b 79 ce 42 4a 9f b4 42 de 56 68 42
       84.81906 103.23641 90.31111 58.08483
0001d0 9b f2 b5 42 4c 9f a9 42 55 8b 9b 42 27 f1 d9 42
       90.97384 84.81113 77.77213 108.971
0001e0 14 d3 c5 42 39 95 d7 42 fa 88 01 43 57 02 aa 42
       98.91226 107.79145 129.53506 85.00457
0001f0 35 60 97 42 97 ab b4 42 6b a2 79 42 49 d7 66 42
       75.687904 90.33514 62.40861 57.71024
000200 a1 5f da 42 c5 a2 00 43 21 c2 a6 42 62 74 9e 42
       109.186775 128.63582 83.37916 79.22731
000210 00 bf ae 42 03 aa c4 42 cb 84 cc 42 a4 c8 9e 42
       87.37305 98.332054 102.25936 79.39188
000220 06 36 89 43 89 68 0e 43 c9 50 5a 42 54 a2 17 43
       274.42206 142.40834 54.57889 151.6341
000230 34 24 d4 42 43 f7 bb 42 ac cc 99 42 82 ea ef 42
       106.07071 93.98293 76.89975 119.95802
000240 cd 51 c9 42 cb 67 49 42 c0 7e b3 42 99 e0 03 43
       100.65977 50.35136 89.74756 131.87733
000250 77 93 c6 42 bb 39 c4 42 f7 5f 25 43 be 30 9d 42
       99.28802 98.112755 165.37486 78.5952
000260 a1 42 9d 42 ba 83 16 42 df 0d 14 43 fb 4f 02 43
       78.630135 37.62864 148.05418 130.31242
000270 87 de 51 42 a7 00 e0 42 27 8c 22 40 2b 71 c0 42
       52.46731 112.001274 2.5398042 96.22103
000280 1d de dd 42 c8 8c c4 42 26 02 87 42 38 9c ed 42
       110.933815 98.27496 67.504196 118.805115
000290 77 c3 90 42 27 a2 9a 42 3c 75 ac 42 48 ce d7 42
       72.38177 77.3167 86.22897 107.90289
0002a0 bf 66 b2 42 de ca 9c 42 84 3a 09 43 bf cc c0 42
       89.200676 78.396225 137.22858 96.399895
0002b0 2f 08 02 43 79 01 d0 42 36 a6 aa 42 70 6c b9 42
       130.03197 104.00288 85.32463 92.71179
0002c0 04 1e e0 42 c4 95 b2 42 04 13 e8 42 6d 9d 00 43
       112.058624 89.29251 116.03714 128.61494
0002d0 8a 46 c3 42 58 4e 97 42 4f 12 de 42 25 f7 be 42
       97.63777 75.653015 111.03576 95.482704
0002e0 40 07 20 43 21 74 a5 42 b2 4e 38 43 65 fa 8e 42
       160.02832 82.726814 184.3074 71.48905
0002f0 a4 95 17 43 37 d4 82 42 1c b4 95 42 bc 1c a8 42
       151.58453 65.41448 74.851776 84.05612
000300 a9 23 d6 42 dd 84 a5 42 eb 9e 33 41 e4 a3 b1 42
       107.06965 82.7595 11.226298 88.8201
000310 e2 09 b9 42 73 d6 df 42 d4 7c 60 42 c1 26 91 42
       92.5193 111.918846 56.121902 72.57569
000320 ab f4 fe 42 2b 19 67 42 3e 13 a3 42 5f bb b6 42
       127.47787 57.77458 81.53758 91.36596
000330 50 83 78 42 80 e9 a3 42 c0 35 83 42 79 d7 11 43
       62.128235 81.956055 65.60498 145.84169
000340 f4 8f 7b 42 fb c4 11 43 17 2e ba 42 07 d4 96 42
       62.89058 145.76945 93.09002 75.414116
000350 10 af 8d 42 61 d4 ac 42 b1 fc c4 42 47 4d 77 42
       70.84192 86.4148 98.49354 61.825466
000360 be 5e ab 42 04 ab e1 42 27 4f 92 42 d9 69 b2 42
       85.68504 112.834015 73.154594 89.20673
000370 81 46 db 42 e0 d6 b6 42 c7 61 e0 42 e6 ab 0a 43
       109.6377 91.41968 112.19097 138.67148
000380 79 4f ab 42 49 a6 a2 42 22 af a1 42 ac a9 0d 43
       85.65522 81.324776 80.84206 141.66278
000390 aa ba bf 42 b8 a2 d2 42 8e a2 db 42 87 ac c0 42
       95.86458 105.31781 109.81749 96.33697
0003a0 e6 d2 d0 42 52 f4 4c 42 4f 74 af 42 45 18 bf 42
       104.41191 51.238594 87.727165 95.5474
0003b0 9c ee 03 43 60 e1 0d 43 4a c4 9f 42 2b b8 36 42
       131.93207 141.88037 79.88338 45.67985
0003c0 cc 91 7c 42 d0 68 c8 42 f3 58 17 43 9c 38 8f 42
       63.14238 100.20471 151.34746 71.610565
0003d0 e2 f9 f0 42 15 a3 cc 42 f0 b1 83 42 80 7f 20 43
       120.48805 102.31852 65.847534 160.49805
0003e0 7b 84 b3 42 72 f4 80 42 75 64 e4 42 5c ff a2 40
       89.75875 64.47743 114.196205 5.093672
0003f0 81 6f 01 43 d1 7d f4 42 d4 ce d6 42 9b 67 a0 42
       129.43556 122.245735 107.40396 80.202354

fc2.weight f4 [256, 256]
000000 02 3d 91 bf ce 33 34 c0 ab ae 25 3f d8 28 73 be
       -1.1346743 -2.815662 0.6471965 -0.2374605
000010 23 4b 94 3d 81 bd 14 c0 fe 51 8b bf 44 19 91 be
       0.07240894 -2.3240664 -1.0884397 -0.2833959
000020 5e 2c ac 3f 25 08 71 bf 7b 2e e4 3e 0c 18 ee 3f
       1.345104 -0.9415305 0.44566712 1.8601089
000030 80 c4 7f 3f 0e 7b 38 40 ec c9 df 3f 0b 9f 6a c0
       0.9990921 2.8825107 1.7483497 -3.6659572
000040 17 67 f6 3d bd 71 b6 be da 2d 3b be a6 15 09 bf
       0.120313816 -0.3563365 -0.1827921 -0.5354866
000050 6a ee 80 c0 00 f0 b7 3f 41 84 98 c0 2f 6e f1 3e
       -4.0291033 1.4370117 -4.7661443 0.47154376
000060 95 7f 81 3f ec 91 9c bf 8e 50 1e 40 6a 54 1b 40
       1.011706 -1.2232032 2.4736667 2.4270272
000070 54 6b 9a c0 1a 55 b1 3f 3b ad 18 c0 3f 30 69 40
       -4.8256016 1.3854096 -2.3855731 3.6435697
000080 88 fe 21 c0 db ab 1c bf 1c 3d 5e 3f 2a fc 89 3e
       -2.5311604 -0.6119973 0.86811996 0.26950198
000090 76 ef 4e c0 ce f9 76 3f e8 17 d2 3e eb 03 e5 bf
       -3.2333655 0.9647492 0.41033864 -1.7891821
0000a0 ef 74 36 c0 2c 5b 53 3f 66 dc 55 bf 21 11 a8 c0
       -2.850887 0.8256099 -0.83539426 -5.252091
0000b0 36 78 af bf df 02 5c 3f f5 de 9a 3f b7 d4 94 3f
       -1.370856 0.8594188 1.2099291 1.1627415
0000c0 bd e3 5c c0 c2 7a 5c 3f 75 13 1b 40 b0 26 88 be
       -3.4514 0.86124814 2.4230626 -0.26592016
0000d0 41 b7 66 bf d4 82 35 c0 06 38 97 c0 44 6d 12 bf
       -0.90123373 -2.83611 -4.725589 -0.57197976
0000e0 06 65 3e 40 27 20 a1 3f 99 2d 99 3f 6e 30 66 c0
       2.974916 1.2587937 1.196704 -3.596706
0000f0 b3 bf 57 c0 9f 72 0f bf a1 96 ab bf db 85 92 3f
       -3.3710754 -0.5603427 -1.3405343 1.14471
000100 db 50 01 bf 46 2e e1 3f 00 b3 a6 be 91 cb 63 3f
       -0.50514 1.7592247 -0.3255844 0.8898249
000110 6c 0a e2 bf b6 3b 70 be a9 3a 93 bf 9b af e2 3f
       -1.765943 -0.23460278 -1.1502277 1.770984
000120 cb 85 16 3f ca 1c 24 bd 65 e8 2d bf 88 f4 e1 3f
       0.587979 -0.040066518 -0.6793273 1.765275
000130 00 55 d4 bf 6c a5 1f 40 a3 cd fa bd 87 bc a2 c0
       -1.658844 2.4944715 -0.12246253 -5.0855136
000140 0f 3b 47 40 86 a5 42 bf c0 d3 7c 3f 7f 51 41 c0
       3.1129797 -0.7603382 0.98760605 -3.0205991
000150 de 78 59 3f 01 44 31 3d 7c d0 a1 3e 7d 5c ae 3f
       0.84950054 0.043277744 0.31604373 1.3621975
000160 bf a8 5e 3f ca 4f 17 c0 3b d6 91 3f 20 91 c6 be
       0.86976236 -2.364245 1.1393503 -0.38782597
000170 8b cf 81 3b 0e 4b c6 bf 5a fc 39 40 06 f4 c0 3d
       0.0039615086 -1.5491655 2.9060273 0.09421544
000180 2c bf 7b 3f 55 5d ce bd ab 52 2d 40 1f 4f 77 40
       0.9833858 -0.100763954 2.7081707 3.8642042
000190 2e c5 62 3f f9 71 19 40 28 4f 4f c0 a4 eb 38 3f
       0.8858212 2.3975813 -3.2392063 0.7223456
0001a0 5b 30 28 c0 25 d9 ed 3f 51 1a d8 3f 33 96 1c 3f
       -2.6279514 1.8581892 1.6883031 0.61166686
0001b0 d4 01 e5 3f 56 1e 2e 3e 3c 25 2a 3e 5b ca ba bf
       1.7891183 0.1700376 0.16615766 -1.4593004
0001c0 df 65 5c be 26 0f a0 c0 bb 3d b2 3d 74 cd cc bf
       -0.21523236 -5.001849 0.087031804 -1.6000199
0001d0 df 45 4c c0 f4 70 b5 bf d3 04 67 bc 53 5c b9 3f
       -3.1917646 -1.4175096 -0.014100271 1.44813
0001e0 18 7a eb 3e ea dc 29 c0 0e 61 bb 3f b1 3c 8e 3f
       0.45991588 -2.6541085 1.4638994 1.1112272
0001f0 28 42 23 3f cb 85 41 c0 04 e5 9b c0 99 34 99 3f
       0.6377282 -3.023791 -4.871706 1.1969177
000200 7b e7 db 3c 69 52 15 c0 9c 77 69 3f 99 45 e2 3f
       0.026843777 -2.333155 0.91198134 1.767749
000210 82 04 d2 40 a3 cb 0c 40 bd 0c aa 3f c1 eb c8 3d
       6.5630503 2.199929 1.3285137 0.098105915
000220 2e 99 87 3f 70 34 2e 3f 0c 95 f8 be 54 e8 05 bd
       1.0593622 0.68048763 -0.48551214 -0.03269227
000230 bb bd d0 bf 83 a9 04 be fa 7f b7 3f aa d8 64 3f
       -1.6307901 -0.12955289 1.433593 0.89393103
000240 b0 c3 3e 3f d5 34 81 be 8d 53 de 3f bb 17 a3 be
       0.74517345 -0.2523562 1.7369248 -0.31854042
000250 4a 88 13 40 3f a2 86 3d 4b f8 4f c0 85 27 14 c0
       2.3051934 0.06573915 -3.2495296 -2.314912
000260 97 11 b7 3f 4f 97 9a bf f2 12 d0 bf f1 4e 96 bf
       1.4302243 -1.2077426 -1.6255782 -1.1742841
000270 a4 18 44 3f cc 3d c9 be 0f e1 a2 bf 1a 30 f3 bf
       0.766001 -0.3930496 -1.2724932 -1.8999054
000280 9d 22 0d bf e8 09 54 bf 6e c2 6f bf 66 c6 48 c0
       -0.5513094 -0.82827616 -0.9365605 -3.1371093
000290 52 23 92 3f dd 29 01 40 0e 75 09 c0 9f fd eb bf
       1.1417029 2.0181801 -2.1477695 -1.8436774
0002a0 ea b1 46 c0 e3 28 3a 40 9e 29 ed bf 3f b6 02 40
       -3.104609 2.9087455 -1.8528326 2.0423734
0002b0 9a 3d 56 c0 8e 17 bd c0 db 53 33 c0 1f cc f5 3e
       -3.3475099 -5.9091253 -2.8019931 0.48007295
0002c0 0e cb 87 3f 22 4e 97 3f 56 6e dc c0 40 c1 0d 40
       1.0608842 1.1820719 -6.8884687 2.21492
0002d0 22 3b 06 c0 4b 72 06 bf 48 9e 3c 3f 09 96 bd 3f
       -2.0973592 -0.5251815 0.7367902 1.4811412
0002e0 95 69 54 3e d4 ab f5 3d 79 64 3b c0 b5 6a c3 3f
       0.20743401 0.11995664 -2.9280074 1.5266939
0002f0 6e 5f 41 bf a5 2f 40 c0 42 57 83 3f 23 8b 7b c0
       -0.7553624 -3.002908 1.0261004 -3.9303672
000300 4d 7b c6 bf 62 07 12 40 87 ec b0 bd 1f dc c5 3f
       -1.5506378 2.2817006 -0.08638864 1.5457801
000310 51 8c 82 3f b2 f5 c0 bf dd d6 0f 40 3c 74 b1 c0
       1.0199071 -1.507498 2.2474892 -5.545439
000320 3d 7a 2d c0 3d 54 1c 40 cc 2d cb bf fb c3 ca 3e
       -2.7105858 2.4426415 -1.5873351 0.39602646
000330 ac 93 4f 3f fe 83 52 3f b3 8b 39 3f d0 b9 ea bf
       0.81084704 0.82232654 0.7247879 -1.8337955
000340 be 7a 29 3f fe 5a 7b 3f f0 ae 9a c0 cd 6b 9d 3d
       0.66202915 0.9818572 -4.8338547 0.07686577
000350 f7 57 7a c0 28 91 c0 3e 70 bf b0 3f 51 22 1f bf
       -3.911619 0.37610745 1.3808422 -0.6216174
000360 f8 b7 0c bf 8b f1 03 c0 cf 2f ab bf 9d 30 46 bf
       -0.54968214 -2.0616176 -1.3373965 -0.7741793
000370 c9 3d ff 3f f9 e2 6e c0 27 fa 37 bf 00 b4 28 c0
       1.994073 -3.7326033 -0.7186608 -2.6359863
000380 4c 4a d5 3f d4 99 0c bc 80 74 77 bf 3d f6 f3 bf
       1.6663299 -0.008581597 -0.9666214 -1.9059521
000390 9d 11 9a 3d c8 8e b5 3f d7 90 20 be f0 47 ff 3e
       0.07522891 1.4184198 -0.15680252 0.4985957
0003a0 08 c9 16 c0 ca 20 ec be 58 da 01 bf 40 36 00 c0
       -2.35602 -0.46118766 -0.5072379 -2.0033112
0003b0 e8 81 69 c0 88 ab 9b 3f 16 59 06 3f 66 41 65 3f
       -3.6485538 1.2161722 0.52479684 0.89552915
0003c0 77 9c 19 be 1b c8 a1 c0 8a 0d 04 c0 1d ec c9 3f
       -0.15001093 -5.055677 -2.0633264 1.5775181
0003d0 5f 27 f0 bf 25 09 09 c0 a8 4d a1 3e 02 8c 4b c0
       -1.8762015 -2.1411831 0.3150456 -3.1804204
0003e0 83 39 6f bf a0 e7 eb 3f 0c e9 a1 3d ee 00 78 3f
       -0.9344713 1.8430061 0.07905778 0.9687642
0003f0 63 41 c9 3f 53 0a 80 bd 99 01 e2 bf 12 86 de bf
       1.572308 -0.06251969 -1.7656738 -1.7384665
