Models/model_5000.pth (torch, 629675 bytes, 28 tensors)

fc1.weight f4 [256, 39]
00000000: cec8 88c1 ca05 d5bf 172c 353f d543 2b3e
00000010: 3250 acc0 a3a8 8240 20ef 8240 ad2f 3641
00000020: 5c91 5ec0 cbf2 7cbf 9b60 853f 0e0f 12c0
00000030: 565d a440 8876 d2c0 e09b 8540 e7a3 10bf
00000040: 6d15 a23e a932 45bf d21c 3d3c 7ff6 7ebc
00000050: 9c13 b83f 2360 323f 7d4a 3340 b71b dd40
00000060: 2881 2cbf ccd9 1ebf 3f4b 663f de05 42c0
00000070: 88cd 1c3f bc56 de3e 3a99 b840 28a0 c0bf
00000080: 0cf2 b8c0 61b9 c53e 058a 39c1 2fd9 bf3e
00000090: de79 d7bd de2a ff3e b7a0 8540 da74 7741
000000a0: 1757 00c0 6c98 eb3e 6fa0 c3bf 06e6 c03f
000000b0: 39f5 3b40 0bbb f63f eed0 c7bd d8bf 6e40
000000c0: 880b 36bf 2591 d23e 3e3c 8ec0 f253 7e3f
000000d0: fc52 8040 c553 9fc0 b08b c3c0 5e8c 89c0
000000e0: 9960 0abf 0202 103c dc34 0cbe 95a7 863e
000000f0: 5f84 bdbf e428 7fc0 96bc 0d41 6778 6c3e
00000100: df25 7a3f 0ef0 eb40 9cb1 88bd 4352 8bbf
00000110: c5a3 85bf 7351 ae3f fadc 07bf e687 5f40
00000120: 88c7 4ebe 3174 7140 ebf8 debd 5975 84bf
00000130: 3c3b a43f 8157 3fc1 1a7c a5c0 c8ad 8abf
00000140: d1ea 2841 41ce 7ac0 e0ac 18bf 40a4 8a3f
00000150: 1b83 a03e 3b2c 2341 9ad1 90c0 6907 c7be
00000160: eebf 913d 95d5 a6c0 a02f 2d40 969f f5bf
00000170: c2e3 ab40 71fc 13c1 a14c 633f f973 7c40
00000180: 7fcc 973e 4306 083e 16d5 6940 0ae5 6cbf
00000190: e7e2 3c3f 0bc4 7540 375a 50be f619 6a3f
000001a0: 93a8 34c0 96e5 293f 9082 4dbf 9428 5bbf
000001b0: a382 ba40 d9aa 69bd 09b0 0240 fe92 68bf
000001c0: 2bb8 fdbf 915f 90bf 1ccb 40bf 9891 a841
000001d0: 77cc 73bf eeb0 e53f d435 b5bf fe92 893e
000001e0: bc1d 62bf 0675 b7c1 0a57 33c2 619b 94c1
000001f0: 2a7a 20c0 b723 a4bf 9a8c 103f 9008 033f
00000200: c6c4 dbbf 6ab4 9341 dd75 5f40 5486 4441
00000210: fda2 a13f 18b5 d1bf 9eed 93bd 5bcf e5be
00000220: a339 2ebd 11fd 44c1 7fce c93e e946 92bf
00000230: 78a6 23be 1c58 1abd 0c5c 85be 57fb 4abf
00000240: 190f d43d f807 a23c 8fa2 933e 082e 383f
00000250: b43b 83bd 1b53 1640 c1d8 87bd ec48 72bf
00000260: c0f4 32be a32b fd3d 1462 a3c0 6149 cfbe
00000270: 80f1 0441 26cd 823f 32a8 933f 28a9 63bf
00000280: 772f 0340 f0cf d4c0 6f31 c7c0 de88 cfbf
00000290: 0b3d 1e3f bd96 d73d ebb7 303e f415 dac1
000002a0: 6d3b ffbf 27a5 c9c1 a637 a840 ce0f 8540
000002b0: 3e40 e43f f14f afbe 14a6 bebd 08ab 15bd
000002c0: dbe6 02c1 71a4 e03e 4b24 71c0 9d6e ea3f
000002d0: f33c 9d3d 3010 89bb e004 fb3f d039 1e3d
000002e0: c52a 0f3e af13 aa3d 0af2 0ac1 f0d0 623f
000002f0: bcee 5f40 0fd5 c2be ad41 b6bf 71cc 15bf
00000300: ec19 d0be 54e9 5540 ee46 63be 5e80 2b41
00000310: 3d01 1abf a291 d7c0 7382 70bf f5b5 fdc0
00000320: d09e 02c0 3bf5 0bc1 c2cf 7640 4111 58c1
00000330: d9bc c6be d536 503e e203 47c0 f062 d1c0
00000340: 8083 fc40 339d 2240 d4cd c23e 7631 9440
00000350: e9ad fa3e b457 093e 1eb7 5c3e ee8b 4ebf
00000360: 47de 703e f613 dc40 1509 da3f 0de0 f83d
00000370: 017b e53e 3691 0ac1 f9ff 0c3f d9a5 19bf
00000380: cb44 25bf 714b b140 f5e5 c4bd de72 cfbf
00000390: 6f1a 1dbf 23ef 9e40 ff76 c1be 260f 723f
000003a0: 7a5b 9e3d ed91 37c0 7d12 4cc0 6fee 18c0
000003b0: ce6f 4b40 c5a7 b93f 339d 58c1 6060 12c1
000003c0: b95f 45c0 3590 cbc0 1ef7 a640 6c5d 09bf
000003d0: 6b26 1c3f 8a35 e0bf 9e0f 2d41 f19d bf40
000003e0: 85e6 6940 0cfe 7b40 5bdc 8ac0 22a8 6440
000003f0: 1d9b 26bd 351c b03e 6cc9 4cc0 e96a 71bf
-17.09805 -1.6642392 0.707704 0.16725095 -5.3847895 4.0830855 4.09169 11.38664
-3.477622 -0.9880797 1.0420107 -2.2821689 5.1363935 -6.576969 4.1752777 -0.56500095
0.31656972 -0.77030426 0.011542516 -0.015561699 1.4380984 0.69677943 2.8014214 6.909633
-0.67384577 -0.6205108 0.89958566 -3.031608 0.61251116 0.43425548 5.7687044 -1.5048876
-5.7795467 0.38617995 -11.596196 0.37470385 -0.10521291 0.49837393 4.1758685 15.466028
-2.0053155 0.46014726 -1.5283335 1.5070198 2.9368422 1.9275831 -0.09756647 3.7304592
-0.71111345 0.4112636 -4.444854 0.9934684 4.01013 -4.978976 -6.1108017 -4.2983847
-0.54053646 0.008789541 -0.13692039 0.2629973 -1.4806021 -3.9868708 8.8585415 0.23092805
0.97714037 7.3730536 -0.06674501 -1.0884479 -1.0440603 1.3618606 -0.5307156 3.4926696
-0.20193303 3.7727168 -0.10887321 -1.0348312 1.2830577 -11.958863 -5.171399 -1.0834284
10.557328 -3.9188387 -0.59638786 1.0831375 0.31350026 10.198298 -4.525586 -0.3887284
0.07116686 -5.213572 2.7060318 -1.9189327 5.3715525 -9.249131 0.887888 3.9445784
0.29648206 0.13283639 3.6536307 -0.92536986 0.73783726 3.8400905 -0.20346914 0.91445863
-2.822789 0.66365945 -0.8027735 -0.8560879 5.828447 -0.0570477 2.0419943 -0.9084929
-1.9821829 -1.1279165 -0.7530992 21.07109 -0.95233864 1.794462 -1.4157052 0.2686996
-0.8832662 -22.93214 -44.835 -18.575869 -2.5074563 -1.2823399 0.5646454 0.5118494
-1.7169425 18.463093 3.4915688 12.282795 1.2627865 -1.638339 -0.07223056 -0.44884762
-0.042535435 -12.311784 0.39415357 -1.142789 -0.15981472 -0.037681684 -0.2604679 -0.79289764
0.10354442 0.01977919 0.2883496 0.7194524 -0.06407872 2.3488224 -0.066331394 -0.9464252
-0.17476177 0.12361839 -5.1057224 -0.4048567 8.30896 1.0218856 1.1535704 -0.88929987
2.049772 -6.650383 -6.2247844 -1.6213644 0.61811894 0.10526798 0.17257659 -27.26072
-1.994001 -25.20564 5.256793 4.1581793 1.7832105 -0.34240678 -0.09309021 -0.03654006
-8.181361 0.4387546 -3.7678401 1.8315006 0.07677641 -0.004182838 1.9610863 0.038629353
0.13981159 0.083045356 -8.684092 0.88600063 3.4989462 -0.38053176 -1.4238793 -0.5851508
-0.40644777 3.3423662 -0.22195026 10.71884 -0.6015814 -6.7365274 -0.9394905 -7.9284616
-2.0409431 -8.747371 3.8564305 -13.504212 -0.38815954 0.20333417 -3.109612 -6.5433273
7.8910522 2.5408447 0.3804766 4.6310377 0.48960808 0.13412362 0.21554229 -0.80682266
0.23522292 6.8774366 1.7034022 0.12152109 0.44820407 -8.660452 0.55078083 -0.6001869
-0.64558095 5.540459 -0.09614173 -1.620693 -0.6136846 4.9666915 -0.377861 0.94554365
0.077322915 -2.8682816 -3.1886284 -2.3895528 3.178699 1.4504324 -13.538379 -9.148529
-3.0839674 -6.3613534 5.2176657 -0.53658175 0.6099612 -1.7516339 10.816313 5.98803
3.6546948 3.9373808 -4.339399 3.572762 -0.04067527 0.3439652 -3.1997938 -0.94303757

fc1.bias f4 [256]
00000000: 331a e9bd eaa5 13bd e772 bfbd 3af6 3abe
00000010: 3a04 263d 3ae8 52bd 1f46 40bd 2f23 2e3e
00000020: fdf4 b53c c169 85be df59 82bd 7c72 e8bc
00000030: 14bd 19be 2b04 9bbd e50b 2fbd bd60 ea3d
00000040: e7b3 5c3d 85db be3d b25f e03d af43 b43d
00000050: ea21 13be d8a0 2c3d ddaf 76bc 49dd 2fbd
00000060: 7c0c 70bd 5130 893c f5c9 04be 0d88 e63c
00000070: 9db9 573c 038e da3d 9b1b 88bc aeab 23bd
00000080: add6 3fbd 36f0 cc3d c326 9abd 9af2 5cbd
00000090: 0692 96bd aba7 ca3d adf4 123e 5e3c 1e3e
000000a0: 0b52 0bbe 7943 1abd 35b8 083c 5829 a93d
000000b0: 82aa 9fbd e32f 04be c96d e1bc 40d6 793d
000000c0: 2d58 0e3d e01b 05be c89e cf3c b204 96bd
000000d0: 98e5 833d b002 48bc f765 9c3d 0305 9abd
000000e0: 2023 a73d 2dee c4bb cf40 04be 713b 4f3d
000000f0: efaf 103e c089 863d 6e9d 103e 1c14 303e
00000100: 617c b2bd cd40 993c cc91 513d cbf2 b8bd
00000110: c505 c33d 49ba 393d 982d 97bd b579 97bd
00000120: f4a2 db3d a10c 41bd d438 d3b9 ca7b 02be
00000130: bee9 c1bd 8297 e43d 5fca ecbc a55b d83d
00000140: edce 02be 7f8b f4bd 3e9b 923c 6677 21bd
00000150: fba5 b13c 1f18 143c ce42 54bd bc73 8cbd
00000160: df65 1ebe 4837 78bd fceb 2ebd 2a7d f03d
00000170: 4103 a0bd 5fdc 38bd 7067 0d3e 1d6a c3bd
00000180: 6b0b a13c f817 94bd c391 f73c b8e4 43be
00000190: 45cd ed3d ffe3 a73d 89e2 8c3d fe8d 483d
000001a0: 18d0 1abe ed21 993c 109d ba3d d80f b43b
000001b0: 538e 16be 7074 9bbc 323a 2f3d 101f 8bbd
000001c0: bb38 09be 7bf3 07bd 7f66 d93d 936f c63d
000001d0: 0bd7 2e3e b381 6bbd 4e32 dabc 395b f2bc
000001e0: d9a6 36bd 4c73 1e3e bc4e e3bd 213d ecbd
000001f0: 972a 13be ce43 fd3d 9c8d 3fbd 5a20 f63c
00000200: d512 c03d 246f f03d 62d6 323d 4eae 57bd
00000210: 70d6 34bd 7c5d bebd 453f 073e 861a ba3d
00000220: 3e72 a53d 4393 583e c3fe 9fbc 7272 3fbd
00000230: 7392 a1bd 9ed3 9f3d 9038 773d e684 e13d
00000240: af7b 2bbe 082c dabc a3dc 043e 6af4 01be
00000250: d40e 773d 5976 1c3d 4abb 2ebd 6ef7 8dbd
00000260: 8b10 e63d 1fa7 fb3b ec3a 09bd 40b5 34be
00000270: d3a6 2a3e e024 efbc ba7a 55bd 0ac0 eabd
00000280: 9042 ba3d 5e3d e23d ad9e b13d 3241 403d
00000290: 2697 9bbd b78e 82bc 1e98 2cbe 6231 1b3e
000002a0: 80c8 2ebd cdc8 ba3d 1aec 543b 8a7e 32be
000002b0: a75e 12be 8f67 e8bd 2f61 ac3d 2aff 303e
000002c0: 988c 3cbe fadf 68ba f4e6 18be 8be6 fb3d
000002d0: 2e25 a83c f0e3 b83d 0ed5 6fbc c186 b6bc
000002e0: 70fc ddbd 736b 843d d07b aabd f918 193e
000002f0: 4ec9 063e febc 3ebd 970e 31be 50c3 8e3b
00000300: 338b 113c f7be b7bd 1d5f a2bd 6d08 edbc
00000310: b34e c23d 8c0e 04be c8a6 fe3d da51 f53d
00000320: 8c6c 69bd e383 b83c a54e 3cbe 7071 d53d
00000330: e27f bfbb 8df8 83bc 6c2d b13d 9f63 4a3e
00000340: 0bdf 333b ab72 493e 2f49 083e 947d 53be
00000350: 3299 813b a75d f2bd 6461 733d 7ea2 87bd
00000360: aad4 debc 76b1 cabc a27b f53d 8d42 1cbe
00000370: 7ba5 213d 48c4 0ebe b9d0 193d 044b b5bd
00000380: 7a00 0b3e 795f c33b cc8c 05bd 7767 fe3b
00000390: c15c 753d d892 833d 7f29 ffbd 6462 d5bc
000003a0: db1a bd3d 5910 e03d 297d c13d 5408 afbd
000003b0: ef89 633d 2149 7f3d cf5c 4b3e 3dc3 d6bd
000003c0: 2e8a 42be 2d89 533d aa5c a83d 8357 e5bd
000003d0: e5c5 cd3c 3830 39be 2d22 8d3d b346 573d
000003e0: 0b25 b7bd 805a 02bd 003d 573d 0cc2 8bbd
000003f0: 778d e23d c81f 153c 9b40 7d3d 1cd4 bdbc
-0.1138195 -0.0360469 -0.09348088 -0.1825799 0.040531375 -0.051491 -0.046941873 0.17005609
0.022211546 -0.26057246 -0.06364798 -0.028374903 -0.15013534 -0.07569154 -0.042735953 0.114442326
0.053882506 0.09319214 0.109557524 0.08801972 -0.14368406 0.04214558 -0.0150565775 -0.042935643
-0.058605656 0.016746672 -0.12967665 0.028141046 0.013166812 0.10671618 -0.016614726 -0.03995865
-0.04683559 0.10006754 -0.075269245 -0.0539423 -0.073520705 0.098952614 0.14351149 0.15452716
-0.13605516 -0.037662003 0.0083447 0.08259839 -0.07796194 -0.12908892 -0.02751817 0.06099534
0.03475206 -0.12998915 0.025344267 -0.07325114 0.06440276 -0.012207672 0.07636636 -0.07520487
0.081609964 -0.006009838 -0.12915348 0.050593797 0.14129613 0.065692425 0.14122555 0.17195171
-0.0871513 0.018707657 0.051164433 -0.09030684 0.09522585 0.04534367 -0.07381743 -0.07396261
0.1072444 -0.047131184 -0.00040287396 -0.12742534 -0.09468411 0.1116171 -0.028905092 0.10564355
-0.12774248 -0.11940669 0.01789629 -0.039420508 0.021685591 0.009038954 -0.051821522 -0.06858012
-0.15468548 -0.060599595 -0.04270552 0.11742623 -0.07813121 -0.045132037 0.1380899 -0.09541724
0.019658765 -0.07231134 0.030220872 -0.19130218 0.11611418 0.08197784 0.06879146 0.04896354
-0.15118444 0.018692935 0.091119885 0.005495053 -0.1470273 -0.01897642 0.04278011 -0.06793034
-0.13400547 -0.033191185 0.10615253 0.0968925 0.1707422 -0.057496738 -0.026635315 -0.029584514
-0.044592712 0.1547367 -0.11099002 -0.11535097 -0.14371715 0.12366448 -0.04676591 0.030044723
0.09378592 0.117399484 0.043661483 -0.052656464 -0.044149816 -0.092951745 0.13207729 0.0908709
0.080784306 0.21149926 -0.01953066 -0.046740003 -0.07889261 0.07804035 0.060356677 0.110116765
-0.167464 -0.026632324 0.12974791 -0.12690893 0.060316876 0.038198803 -0.04265908 -0.06931959
0.11233624 0.0076798345 -0.033503458 -0.17647266 0.16665201 -0.029192388 -0.052118994 -0.1146241
0.09094727 0.11046861 0.08672843 0.046937175 -0.07597189 -0.015937192 -0.16854903 0.15155557
-0.04267168 0.09120331 0.003248936 -0.17431083 -0.1429392 -0.11347877 0.08416974 0.17284837
-0.18413007 -0.0008883473 -0.14931852 0.12299832 0.020525541 0.09027851 -0.014638199 -0.022281053
-0.10839164 0.06465807 -0.083243966 0.14950933 0.13162729 -0.046566956 -0.17290722 0.004356779
0.008883285 -0.089719705 -0.07928298 -0.028934682 0.09487667 -0.12896174 0.12434155 0.119785026
-0.056988284 0.022523826 -0.18389376 0.10422027 -0.0058441022 -0.01610973 0.08651242 0.19764565
0.0027446176 0.19672649 0.13309167 -0.20653373 0.00395503 -0.11834269 0.05941905 -0.0662279
-0.027201016 -0.024742823 0.11986472 -0.15259762 0.039464455 -0.13942063 0.03755257 -0.08852199
0.135744 0.005962309 -0.032604977 0.007763799 0.05990291 0.064244926 -0.124590866 -0.026047893
0.09233638 0.10940618 0.094477005 -0.0854651 0.055551466 0.0623256 0.19859622 -0.104864575
-0.18998024 0.051644493 0.08220799 -0.11198332 0.025118778 -0.180848 0.06891284 0.05255766
-0.08942612 -0.03182459 0.05254841 -0.06824121 0.110621385 0.0091018155 0.06182919 -0.02317243

bn1.weight f4 [256]
00000000: 3283 9540 600a 8940 6c23 7c40 cb11 f140
00000010: 9272 b740 363b 7240 13d7 8540 f718 d240
00000020: eca9 8c40 2b70 9c40 9e9a 8340 dfdd db40
00000030: 1b2a 5e40 149a 6940 291b fc40 d0a2 aa40
00000040: 1170 ac40 6459 9940 f422 7d40 957f ac40
00000050: 6b64 f840 c67f cf40 b16e d940 4b96 3840
00000060: 38e1 9440 7e8e 1f40 80ed b640 bb39 aa40
00000070: 155c 2640 680d bd40 26aa 5740 64af 8140
00000080: 99d7 7240 362b a740 839b 8a40 e980 a140
00000090: e50a f540 9f5a b240 7c73 8b40 7b4d 9a40
000000a0: 997d a440 5768 8740 3c1d 7040 5dab b240
000000b0: 384b 9d40 cbb1 8140 e720 c140 bc73 bf40
000000c0: 96ba d240 844d f040 6a45 6f40 1c5b 5440
000000d0: 37e0 e540 173f af40 14b1 b640 b01f 9f40
000000e0: 90cc b840 a977 6040 9ad9 9840 1467 ac40
000000f0: 6629 6a40 f210 c240 07e7 a140 33cc a040
00000100: 0028 d340 28d9 4d40 578a 8440 d3dc a340
00000110: bd68 8d40 1384 8040 5be4 7e40 d5a6 ba40
00000120: 86cd 5140 5f47 7f40 0508 ec40 74f5 a540
00000130: 4540 8d40 b9ca a340 933e 4640 591d 8a40
00000140: c467 8d40 a0b3 a440 13c0 d340 210f 9040
00000150: 1128 8440 642f 9040 6daf 5440 a376 a840
00000160: ff27 a440 b0d9 8740 4145 b540 8f9d d640
00000170: cd64 ba40 7c47 9040 c40d 5c40 37f2 4640
00000180: 9c62 5840 0be2 e340 229e 7f40 dbba fc40
00000190: 0720 1340 bb60 7540 8e61 4340 a922 9440
000001a0: 86a6 f140 99df 8b40 ff2a 9340 8796 c440
000001b0: 5458 4140 d997 af40 e740 bf40 ef2a 8c40
000001c0: 7a7a 8740 1007 9440 298b 8640 02cb af40
000001d0: 7949 a640 ac14 a940 c268 9240 8425 8e40
000001e0: c578 9040 8d78 a140 38bf 7e40 f295 6240
000001f0: af9a 8140 8d57 9d40 ccb9 9a40 4b29 b640
00000200: ea71 c040 8efb 7940 394e c140 87cd a640
00000210: 6b03 9e40 b860 9440 d7d5 4540 06b1 9440
00000220: c14e 8c40 5775 a940 30b6 d240 10b5 9c40
00000230: 0c86 a140 79da 6240 86e0 7d40 cfdf b140
00000240: 2bf3 9140 d089 2d40 e564 bf40 b19a d540
00000250: cc9b 4b40 1ce8 f640 5e27 cb40 812c 3c40
00000260: 72b2 8440 b532 4640 9e8f 6240 aceb 1a41
00000270: 5fb1 4340 512e d640 64e0 8440 a42c 4840
00000280: e816 a540 713c 9340 bbaa a740 5d2a ee40
00000290: 5c1a ba40 64b3 e040 2e38 0741 b93d 3c40
000002a0: 5c5e a940 7f40 a740 2bfb b040 fe7e 8b40
000002b0: 7aa5 a940 4cd5 8e40 7fab 9a40 968c 8640
000002c0: 1496 f340 005a 7940 6851 2b40 dbe5 8240
000002d0: 2679 1340 48b2 ab40 8bec 5c40 ed10 b740
000002e0: ba39 d640 975c 9340 d890 df40 02c2 d740
000002f0: 1ef5 9540 932d e040 c719 ce40 6fee 8040
00000300: 55d4 9640 94e5 6d40 a7fd 9840 bdea bb40
00000310: 1e2d 8640 0d44 7440 1a92 6d40 fd02 ae40
00000320: 058b 9840 6274 8740 d0a7 a340 4bee 9340
00000330: 518a a640 d28f 9940 140d bd40 7de7 9d40
00000340: 06fd 5b40 b379 8f40 9992 a140 ba7f 9040
00000350: aa7d a540 889e 8d40 300b cf40 18ad 8d40
00000360: 0156 8140 8e4a 9d40 80e5 a240 86cb 6040
00000370: 3421 7340 88cd 8440 870b 9440 8980 a540
00000380: 89f1 8840 ae47 e940 3105 0641 fe9a 8740
00000390: 258d b240 5fb9 7640 e6f2 c040 0714 de40
000003a0: 02b3 a540 afc9 c340 614e a840 d68c a340
000003b0: f148 6c40 d38d 8f40 5391 b640 a126 d440
000003c0: 571d 8f40 0e42 aa40 b927 8b40 fa0b a140
000003d0: 441b 8440 f34f 6c40 05d2 ad40 de24 ae40
000003e0: 526e a040 78ae 6940 22a7 bd40 ae60 6640
000003f0: d11a b740 e4fc c840 3066 3b40 b236 c540
4.672265 4.2825165 3.939662 7.533422 5.7327356 3.784864 4.182504 6.5655475
4.3957424 4.8886924 4.112624 6.870834 3.47132 3.6500292 7.8783154 5.3323746
5.38868 4.792162 3.9552584 5.390574 7.762258 6.4843473 6.794762 2.8841732
4.6524925 2.493072 5.7164917 5.319547 2.5993702 5.9078865 3.36976 4.05266
3.794409 5.224025 4.3314834 5.046986 7.65758 5.573562 4.357847 4.821958
5.1403317 4.231487 3.7517843 5.5834184 4.915432 4.0529532 6.0352664 5.9828777
6.5852766 7.5094624 3.7386117 3.3180609 7.18362 5.4764514 5.709116 4.972618
5.774971 3.5073035 4.7765627 5.387583 3.6587768 6.0645685 5.0594516 5.0249267
6.598633 3.2163792 4.141887 5.120706 4.4190354 4.0161223 3.9826877 5.832865
3.2781692 3.9887311 7.375979 5.1862125 4.4140954 5.1184964 3.0975692 4.3160825
4.4189167 5.146927 6.6171966 4.501847 4.129891 4.505785 3.3232071 5.264482
5.1298823 4.245323 5.664704 6.706733 5.824805 4.508726 3.4383402 3.1085336
3.3810186 7.121343 3.9940267 7.8978095 2.2988298 3.834029 3.0528293 4.629231
7.5515776 4.3710446 4.5989985 6.143375 3.0210161 5.487286 5.9766726 4.380241
4.2337008 4.625862 4.2044873 5.493531 5.196469 5.2837734 4.575288 4.4420795
4.5147424 5.0459657 3.980421 3.540402 4.0501323 4.9169374 4.8351803 5.6925406
6.0139055 3.9059787 6.0407987 5.212589 4.937917 4.6368065 3.0911767 4.6466093
4.3846135 5.2955737 6.5847397 4.8971024 5.047613 3.5445845 3.9668288 5.5585704
4.5609336 2.7115364 5.981066 6.675133 3.181384 7.7158337 6.3485556 2.9402163
4.146783 3.096845 3.5400157 9.682537 3.0577009 6.693154 4.1523914 3.1277246
5.159046 4.601128 5.239591 7.4426713 5.8157177 7.0218983 8.451216 2.9412673
5.2927685 5.226623 5.53066 4.359252 5.30145 4.463537 4.8334346 4.2046614
7.61207 3.8961182 2.6768436 4.0905585 2.3042693 5.365513 3.4519374 5.720816
6.6945467 4.6050525 6.986431 6.7424326 4.6861715 7.0055633 6.4406466 4.0291057
4.7134194 3.7171373 4.7809634 5.8724046 4.1930075 3.8166535 3.7120423 5.437865
4.76697 4.232957 5.114235 4.6228385 5.2043843 4.798806 5.9078465 4.934508
3.4373183 4.483606 5.049145 4.5155916 5.17159 4.425602 6.4701157 4.4273796
4.0417485 4.915351 5.090515 3.512422 3.7989016 4.1500893 4.626407 5.1719403
4.2794843 7.29 8.376267 4.23767 5.5797296 3.8550642 6.0296507 6.9399447
5.1781015 6.1183696 5.2595677 5.110942 3.691952 4.4860625 5.70524 6.6297154
4.4723315 5.3205633 4.348599 5.032712 4.1283283 3.6923797 5.431887 5.4420004
5.013467 3.6512737 5.926652 3.5996509 5.7220235 6.2808704 2.928112 6.1629267

bn1.bias f4 [256]
00000000: 3516 66c0 3a10 2dc0 f6c2 3fc0 e5d4 68c0
00000010: 92bb 43c0 2436 1dc0 0e69 7dc0 d4af b4c0
00000020: 48b7 60c0 aa09 5dc0 7a9d dbbf 9b2f 7ec0
00000030: 77bb 05c0 7f32 babf ffbf 39c0 adda 2cc0
00000040: e9d7 4fc0 c371 7ec0 b338 4fc0 69bd 33c0
00000050: 378c 7dc0 c4ca 9ac0 e56e 96c0 ff1a f3bf
00000060: 176d 91c0 1366 fcbd a346 27c0 7b4c 80c0
00000070: e38c 30c0 f4fd 52c0 a2a1 25c0 b356 27c0
00000080: 4ab3 efbf bc5a 60c0 4a66 e2bf 2328 33c0
00000090: 8b39 45c0 3102 64c0 11eb 29c0 239e 75c0
000000a0: f4ca 68c0 b5db 25c0 5544 2fc0 009e 52c0
000000b0: 4815 5ec0 24cc a0c0 54ef 59c0 3ef5 90c0
000000c0: 36ea 47c0 af87 85c0 dfd6 00c0 86b7 05c0
000000d0: db89 85c0 6269 aac0 3d99 73c0 b0e2 e2bf
000000e0: d244 02c0 caa6 0fc0 3bb0 46c0 d349 86c0
000000f0: 2d34 dabf 8e68 6ec0 7922 44c0 d1a2 67c0
00000100: 5293 31c0 5e27 96bf 4ea2 eabf 2669 27c0
00000110: 321f 87c0 5b9b 50c0 f768 3ac0 7e15 34c0
00000120: c25e 30c0 cd4c 2cc0 09d7 73c0 bc20 b6c0
00000130: 6b41 e6bf 8e0d 2cc0 4525 b7bf d1cd dcbf
00000140: 6b6e 33c0 f9e4 58c0 ff37 2fc0 9562 f8bf
00000150: 862f 28c0 4863 64c0 bc26 16c0 1313 aec0
00000160: 1e57 0ec0 dc01 53c0 b4bf 64c0 4642 88c0
00000170: 9c5f 26c0 c1ab 0ec0 3a6a cbbf 9494 efbf
00000180: aeea 2cc0 1c22 46c0 426e 48c0 e067 94c0
00000190: 6af8 ebbf 3d45 25c0 735a 93bf e336 44c0
000001a0: 49d2 66c0 13da 38c0 ac97 67c0 3ea6 66c0
000001b0: 8f74 45bf 684b 27c0 9c76 7fc0 01a5 59c0
000001c0: 715c 3fc0 837b 8dbf 5264 08c0 fc4a 45c0
000001d0: 8015 2bc0 4589 5cc0 3e27 8cc0 3538 17c0
000001e0: e6df 01c0 2866 5cc0 8060 85c0 08e7 02c0
000001f0: db45 98c0 c2e0 87c0 7b81 33c0 0a2c 5cc0
00000200: 2e9b ddc0 d520 c5bf 0e03 a0c0 c09e 80c0
00000210: a6b7 3fc0 a738 5dc0 d7c2 58bf 97a7 5bc0
00000220: 2918 6ac0 eb3b 93c0 52ef bac0 ac6d 80c0
00000230: 2cee 85c0 5408 17c0 fefe 26c0 73dc 82c0
00000240: 6779 1cc0 98ec ecbf f095 6fc0 19ca 87c0
00000250: e64b cdbf b120 86c0 435d 7ec0 24cf 3abf
00000260: bf66 27c0 b828 8bbf 43af 08c0 1ac4 bbc0
00000270: 0d13 57be c992 9dc0 569f 4bc0 d3ad f9bf
00000280: 44ae 2bc0 64ed 01c0 14bd 2fc0 0fe4 e3c0
00000290: 708d 72c0 f7c5 53c0 847c b7c0 c2e7 3fc0
000002a0: 12b3 69c0 2481 43c0 822e 7cc0 9117 4fc0
000002b0: 6379 4ac0 b6e9 d2bf c1c6 76c0 b619 1cc0
000002c0: 0a0c a6c0 c9d2 acc0 992a b0bf 4dc1 e1bf
000002d0: aa1e c4be 4c51 80c0 8cf2 fbbf 85be 39c0
000002e0: b89d 87c0 a06e 35c0 69dd 92c0 7fb6 59c0
000002f0: 0309 74c0 3891 84c0 1626 8ec0 0118 34c0
00000300: 3a9f 8bc0 0d4b 22c0 41d8 2ec0 ff6a 95c0
00000310: ccf6 06c0 5e2c 41c0 d1e3 0ac0 8341 59c0
00000320: 8e30 93c0 61b3 51c0 ba44 99c0 7a9b 40c0
00000330: 3c28 50c0 3144 87c0 6a7d 77c0 6fc4 e9bf
00000340: 78f8 0bc0 d74f 27c0 1ec8 54c0 d180 70c0
00000350: fe2f 7bc0 b4c5 84c0 3cbc b0c0 59db 13c0
00000360: e188 0ac0 a6fe 84c0 83de 37c0 541a 58c0
00000370: c313 16c0 4784 1bc0 4c92 3fc0 4b7a 12c0
00000380: 77cd cabf 941c 86c0 d5e7 dcc0 36bb 62c0
00000390: ad38 88c0 6ac5 6dc0 578f f4bf e3ed 74c0
000003a0: 41b6 70c0 cb91 9bc0 3653 9ac0 c37b 69c0
000003b0: dca7 4fc0 f588 05c0 4c17 90c0 4b22 43c0
000003c0: 08ab 5fc0 1d50 09c0 53d9 febf 4b05 41c0
000003d0: 4029 43c0 6fff 26c0 6506 2cc0 aa2e 26c0
000003e0: a055 43c0 3453 50c0 c0bf 47c0 476a 33c0
000003f0: 923b 91c0 73d4 29c0 9a9d 09c0 b391 8cc0
-3.5951054 -2.7041154 -2.9962745 -3.637994 -3.0583234 -2.4564295 -3.959537 -5.6464634
-3.5111866 -3.4537148 -1.7157433 -3.9716556 -2.089567 -1.454666 -2.9023435 -2.700847
-3.247553 -3.9756935 -3.2378356 -2.8084357 -3.961683 -4.8372517 -4.701037 -1.8992614
-4.5445666 -0.123241566 -2.6136863 -4.009336 -2.758599 -3.29675 -2.5879903 -2.6146667
-1.872659 -3.505538 -1.7687466 -2.7993248 -3.0816371 -3.5626338 -2.6549723 -3.837777
-3.6373873 -2.5915349 -2.7385457 -3.2908936 -3.470049 -5.0249195 -3.4052324 -4.529937
-3.12367 -4.172813 -2.0131147 -2.0893264 -4.173078 -5.325364 -3.806228 -1.772543
-2.0354505 -2.244555 -3.1045063 -4.1965117 -1.7047173 -3.7251315 -3.064604 -3.6193125
-2.7746167 -1.1730764 -1.8330781 -2.6157928 -4.222558 -3.2594821 -2.9126565 -2.8138118
-2.7557836 -2.6921875 -3.8099997 -5.691496 -1.7988714 -2.6883273 -1.4308249 -1.725031
-2.8036144 -3.3889754 -2.7377927 -1.9405085 -2.6279006 -3.5685596 -2.3461142 -5.4398284
-2.2240672 -3.2969885 -3.5742006 -4.25809 -2.5995855 -2.229233 -1.5891793 -1.8717217
-2.7018237 -3.0958319 -3.1317296 -4.63768 -1.8435185 -2.582351 -1.1511978 -3.06585
-3.6065848 -2.8883102 -3.6186323 -3.6038966 -0.7713098 -2.6139774 -3.9916143 -3.400696
-2.9900172 -1.1053318 -2.131123 -3.0827017 -2.6731873 -3.4458783 -4.3797903 -2.3628056
-2.0292907 -3.4437351 -4.16803 -2.045351 -4.7585273 -4.2461863 -2.8047779 -3.440188
-6.925193 -1.5400645 -5.000373 -4.0193787 -2.995584 -3.4565828 -0.846723 -3.4321039
-3.6577246 -4.601064 -5.841714 -4.0133877 -4.1853237 -2.3598833 -2.6093135 -4.0894103
-2.4449098 -1.8509703 -3.7435265 -4.24342 -1.6038787 -4.1914907 -3.9744422 -0.7297232
-2.6156461 -1.0871801 -2.1356971 -5.867688 -0.21003361 -4.924168 -3.1816 -1.9506172
-2.6825113 -2.0301142 -2.7459154 -7.121589 -3.7898827 -3.3089578 -5.7339497 -2.9985204
-3.6515546 -3.054757 -3.9403386 -3.2358134 -3.1636589 -1.6477573 -3.855881 -2.4390693
-5.1889696 -5.4007306 -1.3763 -1.7637116 -0.38304645 -4.009924 -1.9683394 -2.9022534
-4.238003 -2.834877 -4.5895276 -3.4017637 -3.81305 -4.142727 -4.442149 -2.813965
-4.363187 -2.5358307 -2.731949 -4.669311 -2.1088133 -3.018333 -2.1701548 -3.3946235
-4.599677 -3.2765734 -4.7896395 -3.0094895 -3.2524557 -4.227074 -3.8670297 -1.8263072
-2.1870403 -2.614248 -3.3247142 -3.7578623 -3.9248042 -4.1491337 -5.522978 -2.310263
-2.1646044 -4.156085 -2.872956 -3.376607 -2.3449562 -2.4299486 -2.9933043 -2.2887142
-1.5843953 -4.1909885 -6.9033 -3.5426764 -4.2569184 -3.7151742 -1.9106244 -3.8270195
-3.761124 -4.861547 -4.8226576 -3.6481788 -3.2446203 -2.0864842 -4.502844 -3.048968
-3.494814 -2.1455147 -1.9910072 -3.015948 -3.0493927 -2.6093404 -2.6878903 -2.5965981
-3.0521011 -3.2550783 -3.1210785 -2.8033617 -4.538522 -2.6535919 -2.1502442 -4.3927855

bn1.running_mean f4 [256]
00000000: eee1 363d 7aa8 323e 24f7 f23e 6a10 2f3e
00000010: 3c33 66bd 7c63 1b3f d752 6fbf 10a5 313f
00000020: d52b f73e 47a8 823f e35d 1ebf 8202 b53f
00000030: 4094 633b c5ac c63e 94ea a53f aac4 b53e
00000040: c58f 0a3f ac34 703e d570 683d 7ec3 0040
00000050: 9430 123f 6ac8 bbbf d1fb 7d3f b230 39bf
00000060: ba30 a6be e09b 08be adf2 98be fc6b 4cbd
00000070: d32a 4ebf 123d 273f b2f4 9b3d 898c 8a3f
00000080: fb89 efbd 5673 133e c55f a3be a40b 8a3f
00000090: 6c03 1940 2082 8e3f bfcd a13f f7a8 02bf
000000a0: 1a27 16bf 25af 9abe 8fc8 7c3f b219 e03e
000000b0: 9c0c 51be 3320 0a3f 4a8d 853f f23d e6be
000000c0: e200 ec3f 8109 673f a3e9 3abe 27be 2abf
000000d0: 6174 243f 9139 2abe 47b4 f63e 2a97 e7be
000000e0: 44cd 1c3f c8c1 b5be 82f8 1bbf 9d18 843f
000000f0: e5ea e5be b26e 8b3f 23d0 a33f 1136 623f
00000100: 60da 0140 201a f2be 4bea 49bf 7318 57bf
00000110: 45f1 93be d64a 623f 81ca 833f 9719 b63e
00000120: 4121 ab3e 0b5c 153f 5e00 a13f 47b5 8bbf
00000130: 8c52 19bf 7db8 ed3f 4ebe c4bd d15a 193e
00000140: ec0d ab3f 48c3 d3bd 6ddd 8b3f b81b d43d
00000150: 6ad0 4b3e 8db6 30be 4aed 25bf 0085 033e
00000160: f09a ff3e 3bc9 a3be 7aa9 95be 61ce b73e
00000170: 1f20 223f 7bbf 263f 166b 1bbf 498e 27be
00000180: 11fe 073f 5a27 9c3f 34cf 7b3d e891 8bbc
00000190: e8bc c33f 3c9c 0abe 15d6 a5bf 4e39 403e
000001a0: f3db c83f f965 cf3e db58 0e3f c348 ad3e
000001b0: 3bef cb3e 4902 07be 2039 243f 54ce 55be
000001c0: addc 89be 3661 e63e 2e4b be3f a872 3b3f
000001d0: a84e 9c3e 66c2 93be 2fd1 0a40 7819 f33d
000001e0: 20f9 5cbf d02e ec3f 12b4 60bf 8e0f 1c3f
000001f0: 28b4 90bf 5c29 7b3f b91b 0f3e 123c ac3f
00000200: 088e 7fbf e5d0 11be 3251 a33e 6cf5 8c3e
00000210: 1524 6a3e 6329 b33f f95f 97be 975c 57bf
00000220: d605 0240 6608 8f3f 5e15 f3be 94e0 21bf
00000230: 50b0 34be 5c9a 16be fe57 233e 6c00 ab3f
00000240: f5f4 8e3f ce68 ae3f 5fc0 39bf bff5 fd3d
00000250: 397d 933e ee61 8dbd efac 183f fa74 7d3f
00000260: 74b8 1c3f 0eeb dd3d d67a cf3e bf72 8c3f
00000270: 9b49 4b3e 78dd 6dbd d483 0b3f a0b3 a0be
00000280: 114e e03e 2b7e e2be adb2 0c3f 9011 e4bb
00000290: a41f 2b3f 8433 bf3e 07a1 9d3f 84d1 6cbd
000002a0: d455 013e bb76 853f f681 da3d f320 7ebe
000002b0: 9b1b 4c3f dba1 743f 0613 93bf b727 753f
000002c0: 6f22 9a3e d4fe 86be 7fa1 2e3f 4516 323f
000002d0: a049 5dbd a354 a7bf 4faa b9be d842 ec3e
000002e0: f652 cb3e 06ef 993f 0002 873a 5d6b 953f
000002f0: 069b 2e3f 6a61 3c3f 4879 8c3f f1d2 83be
00000300: e26a d83e 7382 54bf 28e8 16bd 5ec5 3c3f
00000310: 943a 123f edc0 fc3e 6c32 0e3d 5cc2 123f
00000320: 20a1 713f 84a7 4e3e dd7e a43f 8e50 e0bd
00000330: 04df d43e b243 8c3e c2ed 2f3f 22a9 12be
00000340: 888e 18be 2053 ddbd f177 583f a8ae fe3e
00000350: 6cd4 1e3f 6fae 1ebf 5569 923e 03ba f73d
00000360: 9808 b13f 22dc b73d 226f 0540 bf9f 833e
00000370: 5e64 cd3e 5461 d7bf 2a17 8c3f 5057 82be
00000380: 4012 5e3f 2044 693f dc90 cb3e 92e6 023e
00000390: 636a 853e 7cf5 f7bd cc59 82be 20ad 5d3f
000003a0: 05f3 173f 48b6 313e 367c 573f 98c5 86bd
000003b0: 8443 8a3e 4f0a 133f ce7a fbbe 3592 9d3f
000003c0: 30ac a23f 4cf3 bb3f e4f1 b33e b45b e13e
000003d0: a1b1 9c3f b363 34bf aa05 ae3f e986 fa3f
000003e0: eba2 a23e be8a e63e a3cc 1d3f a05c 46bf
000003f0: 7b9b ba3d 849f f63d f660 a6be 3658 a13e
0.044649057 0.17447081 0.47454178 0.17096105 -0.056201205 0.60698676 -0.9348578 0.6939249
0.4827563 1.0207604 -0.6186201 1.414139 0.0034725815 0.38803688 1.2962213 0.35501605
0.54125625 0.23457593 0.05674823 2.011932 0.57105374 -1.4670537 0.99212366 -0.7233993
-0.3245905 -0.13340712 -0.29872647 -0.04990767 -0.80534095 0.6532756 0.07615031 1.0824138
-0.116962396 0.14399466 -0.31909004 1.0784802 2.3908339 1.1133461 1.2640914 -0.5103907
-0.58653414 -0.3021175 0.9874353 0.43769604 -0.20414966 0.5395538 1.0433743 -0.44969136
1.843777 0.90248877 -0.18253188 -0.666964 0.6424008 -0.16623522 0.48184416 -0.45232517
0.6125071 -0.35499406 -0.6092607 1.0320011 -0.44905773 1.0893157 1.2797893 0.8836375
2.0289536 -0.47285557 -0.7887313 -0.8402168 -0.28895012 0.8839544 1.0296174 0.35566399
0.33423808 0.5834357 1.2578237 -1.0914696 -0.5989158 1.8571926 -0.0960661 0.1497605
1.3363624 -0.10339981 1.0926949 0.103568494 0.19903722 -0.17257138 -0.648152 0.12843704
0.49922895 -0.31989464 -0.29230863 0.35899642 0.6333026 0.65135926 -0.60710275 -0.16362871
0.5312205 1.2199509 0.0614769 -0.017037347 1.5292025 -0.13536161 -1.2955958 0.1877186
1.5692123 0.40507486 0.5560433 0.33844575 0.39830956 -0.13184465 0.64149666 -0.20879489
-0.26926175 0.4499604 1.4866693 0.73221827 0.3052876 -0.28859252 2.1690176 0.11870092
-0.86317635 1.8451786 -0.87774765 0.60961235 -1.1304979 0.98109984 0.13975419 1.3455832
-0.998261 -0.14239843 0.31897885 0.27530992 0.22865327 1.3997005 -0.2956541 -0.84125656
2.0316062 1.1174438 -0.4747724 -0.63233304 -0.17645383 -0.14707321 0.15951535 1.3359504
1.1168505 1.3625734 -0.7255916 0.12400388 0.28806475 -0.06903444 0.59638876 0.9900662
0.61218953 0.10835849 0.40523404 1.0972518 0.19852297 -0.058072537 0.5449803 -0.31387043
0.4380956 -0.44236884 0.5496014 -0.0069601014 0.66845155 0.3734399 1.2314767 -0.057816997
0.12630397 1.0426859 0.10669319 -0.24817257 0.7972962 0.9555947 -1.149018 0.95763725
0.30104396 -0.26366293 0.68215173 0.6956523 -0.054025292 -1.3072704 -0.36262748 0.46144748
0.39711732 1.2026069 0.0010300279 1.167339 0.68205297 0.7358614 1.0974512 -0.25746873
0.42269045 -0.8301155 -0.036842495 0.7373866 0.57120633 0.4936594 0.034716055 0.5732782
0.9438648 0.2018109 1.2851216 -0.109528646 0.41576397 0.27395397 0.68722165 -0.14322332
-0.14898121 -0.108068705 0.84558016 0.49742627 0.6204288 -0.61984915 0.28595987 0.12096026
1.3830748 0.08977534 2.084908 0.25707814 0.40115637 -1.6826577 1.0944569 -0.2545724
0.867466 0.91119576 0.39758956 0.12783268 0.2605773 -0.12107369 -0.25459135 0.8659229
0.59355193 0.17354691 0.84173906 -0.06580657 0.27004635 0.57437605 -0.4911713 1.2310244
1.2708797 1.4683623 0.35145485 0.44015276 1.2241708 -0.7046463 1.3595479 1.9572421
0.31764922 0.45027727 0.61640376 -0.77485085 0.09111687 0.12042144 -0.3249585 0.31512612

bn1.running_var f4 [256]
00000000: 8604 3944 3ab5 3643 ddd3 2844 eea1 b544
00000010: daa1 a744 6afc 6b43 0a43 7c43 8b5c 5343
00000020: 1aee d743 eef5 2343 ebac 8444 b708 8443
00000030: f876 a143 cdc2 6544 ad66 1445 a077 3644
00000040: fe48 cd42 6b8b 8a43 e9e0 d643 3857 1c44
00000050: 10cf fd44 be6b 3d44 f8f5 e244 2304 3f44
00000060: e056 4b43 3168 1044 a6d3 9744 59f1 bc43
00000070: 90ba a444 af5b be44 19a4 aa43 52f5 2744
00000080: 340e 7c44 b89f 5144 e91d 5c44 d76c 9243
00000090: d62b 9a44 4b9c d344 fb8f 1a43 8e33 b143
000000a0: f670 0244 9678 f943 781a 8c44 9d18 4544
000000b0: 0a8a 0744 2369 1144 79a6 d444 9417 2a44
000000c0: 0c70 8e44 c290 4543 9ece 6543 0464 2644
000000d0: c2fb 6944 584e 5744 a4ad a943 3c8e 4444
000000e0: eb8d 7644 4831 5d43 8e61 1744 4bb6 be43
000000f0: 066d 5e44 844d f343 abce 4644 c7c0 0e44
00000100: 7b8d 8c44 76a8 4344 fc86 2644 2e29 b544
00000110: b648 4b43 a7c5 ad43 cb8b 4743 b167 cb44
00000120: fb1c f343 6f88 6544 c1c0 2743 9cbe 9143
00000130: bb7a 3344 498c 7843 ce95 a243 f39f 8243
00000140: 515d 2d43 3d20 6244 986a 0945 b0e8 f144
00000150: c654 0243 a527 ee43 9bec 8944 e3cd 9743
00000160: d33d 6d44 da4c 0044 4798 5d44 d34b da43
00000170: 07eb 4144 19da c243 0a08 4644 0020 3e44
00000180: 6d1e 0244 b6a0 dd43 0d3a 3744 8b18 5f44
00000190: 2303 1b45 169a 2344 b31e 9744 7f92 ad43
000001a0: a34a 9044 dcfa c943 b0a7 9743 c103 1945
000001b0: 1d5a 9544 219d 2a44 dd24 cb43 baa0 c343
000001c0: ff10 4443 e139 9644 e460 5f44 970a bd44
000001d0: 0427 d543 2650 7844 1f4d 2344 c4ce 0144
000001e0: c27a 9a44 a509 8f44 afe3 9144 61cd 6044
000001f0: 6fdf b644 8e4e ec43 c624 1544 5ac2 6443
00000200: 7a0e 9443 6f0f e243 535e 7d44 56b3 1f44
00000210: dfc5 0544 bac6 9b43 7e78 8d44 a3ac 2444
00000220: 9f2b 1944 48d7 eb43 2171 9043 f5f0 3a44
00000230: ef22 6843 bf58 8643 7bbb 9043 d0a6 9344
00000240: b3a6 6b43 b216 6344 d015 9544 df4a b243
00000250: 8553 6843 87f7 2b44 ee05 cd44 a703 1e44
00000260: 8ad6 5a43 c0df 2143 cf32 7443 0cf2 ad44
00000270: bd4b 0b44 6573 d243 e6a6 6a43 cbfd 8c44
00000280: 973f 1744 9f9b 5844 c40a 4544 7e94 4a44
00000290: e27f 3943 42f0 7c44 2cd0 5744 2220 fd44
000002a0: 6094 4044 2af4 9843 6ff5 2544 27a1 0444
000002b0: 3283 ed43 1f4c 8744 ced7 6c44 6f9b f342
000002c0: 3040 f643 c6e1 cf44 14d0 d443 2571 1a44
000002d0: a3f2 f643 8895 5344 b0f3 db43 1f9f fd44
000002e0: 8fc6 fc44 9e7a 7a44 73df 4544 8bb7 5744
000002f0: 8b2a 2544 74d9 af44 1f3f bf44 3c7c a843
00000300: 8806 1944 3099 8544 1440 6444 8103 1e43
00000310: 5f2f 8b44 85cb 5043 3cfa 3743 f40e 4f44
00000320: d932 c543 475c b043 4fc3 4743 6ade 1644
00000330: d947 6d44 f554 8843 3afc 8944 25b2 7b43
00000340: 7ffa 3b43 4179 9d43 746a 7c43 01fd ac43
00000350: 6e4c 5d44 78d1 0c44 0e33 1344 cb8a 7e43
00000360: 26fe 8144 6bdf 4743 f350 4d44 c429 5b44
00000370: 0556 3843 d9c3 4444 c4ad c943 dcdd 4144
00000380: 0a61 4344 aed7 4044 d717 3444 a95f e242
00000390: 4c19 8b43 7ac7 3143 b742 4b44 f6ca b244
000003a0: 5e73 3744 b58e 3444 ec9e 2f43 464f 0f44
000003b0: 68fd 2043 0cd7 f243 3116 3644 2e04 3a44
000003c0: 4906 2a43 4a04 a944 c515 a344 3155 7644
000003d0: 614b 4843 471b a344 8baa cd43 5e6d 3444
000003e0: fc0d c143 d479 ff43 c929 8844 6464 7244
000003f0: 90f7 6b44 69fc 7144 d20d 8344 24ca 9944
740.0707 182.70792 675.31036 1453.0603 1341.0579 235.986 252.26187 211.3615
431.86017 163.96066 1061.4037 264.06808 322.92944 919.04376 2374.4172 729.86914
102.64256 277.0892 429.7571 625.3628 2030.4707 757.6835 1815.6865 764.06464
203.33936 577.628 1214.614 377.88553 1317.8301 1522.8651 341.282 671.8331
1008.2219 838.4956 880.46735 292.8503 1233.3699 1692.8842 154.56242 354.40277
521.765 498.94208 1120.8271 788.3846 542.15686 581.64276 1701.2023 680.3684
1139.5015 197.56546 229.8071 665.56274 935.9337 861.2241 339.35657 786.2224
986.21747 221.1925 605.5243 381.42416 889.7035 486.6056 795.2292 571.01215
1124.4213 782.6322 666.10913 1449.2869 203.28403 347.54416 199.54607 1627.2404
486.2264 918.1318 167.75294 291.48914 717.91766 248.54799 325.17035 261.2496
173.36452 904.5037 2198.662 1935.2715 130.33115 476.30972 1103.3939 303.6085
948.966 513.2008 886.37933 436.59238 775.6723 389.7039 792.1256 760.5
520.4754 443.25555 732.90704 892.3835 2480.196 654.4076 1208.9594 347.1445
1154.3324 403.95984 303.31006 2448.2346 1194.816 682.45514 406.288 391.25568
196.06639 1201.8087 893.5139 1512.3309 426.3048 993.2523 653.205 519.2307
1235.8362 1144.3014 1167.1151 899.20905 1462.9823 472.6137 596.5746 228.75919
296.1131 452.12057 1013.4738 638.8021 535.09174 311.55255 1131.7654 658.69745
612.6816 471.6819 288.88382 747.76495 232.13646 268.69333 289.4647 1181.2129
235.65117 908.3546 1192.6816 356.58493 232.32625 687.8676 1640.1853 632.05707
218.83804 161.87402 244.19847 1391.564 557.1834 420.90152 234.65195 1127.931
604.9936 866.4316 788.1682 810.3202 185.49954 1011.754 863.2527 2025.0042
770.31836 305.90753 663.8349 530.518 475.02496 1082.3788 947.37195 121.80358
492.50146 1663.0554 425.6256 617.7679 493.8956 846.3364 439.9038 2028.9725
2022.205 1001.9159 791.4914 862.86786 660.66473 1406.7954 1529.9725 336.97058
612.10205 1068.7871 913.0012 158.01369 1113.4803 208.795 183.97748 828.23364
394.39725 352.72092 199.76292 603.4752 949.1226 272.66373 1103.8821 251.69588
187.9785 314.9473 252.41583 345.9766 885.1942 563.27295 588.7977 254.54216
1039.9421 199.87273 821.26483 876.6526 184.33601 787.0601 403.35754 775.46655
781.51624 771.37 720.3725 113.18684 278.19763 177.7792 813.0424 1430.3425
733.8026 722.2298 175.62079 573.23865 160.98987 485.68005 728.34674 744.0653
170.02455 1352.134 1304.6803 985.3311 200.29445 1304.8524 411.33237 721.70886
386.10925 510.95178 1089.3058 969.5686 943.86816 967.9439 1048.4319 1230.3169

fc2.weight f4 [256, 256]
00000000: 4186 13c1 8745 12c1 fc45 4ac1 40df 6240
00000010: 7ecf 9840 eafd 00c0 609a af3f 3aa6 3ec0
00000020: 7ad2 f73f 642a 2b3f c728 a7bf 7de7 2940
00000030: d524 e33f a6ed 8c40 e8d1 c23e 8536 3540
00000040: 7684 2fc1 bac3 62c0 ba0d 69c0 539f cb40
00000050: cb4e 1340 7d6a 1a40 f69b 1241 5934 15c0
00000060: c4e1 fd3e dff4 e8be dede 0540 171b df3e
00000070: b376 0bc1 fe01 b6be 4725 85be d159 9cbf
00000080: 805c 8440 59f2 0640 aff4 8f40 89a5 aa3f
00000090: b68b 53c0 59b9 f4c0 acd3 a2c0 7c5a 52bf
000000a0: cbfc 27c0 3bac c640 7908 3fbf 18b6 6e40
000000b0: f016 90c0 69a5 dfc0 0709 d23d 3c8e 05c0
000000c0: 3ff2 2ebf b162 73c0 3afc 973f 47ab 8440
000000d0: 0dff ac3f d029 10c1 8e59 8540 24c1 5dbf
000000e0: 66ba ab3e f257 90c0 d177 393f f0e5 41c1
000000f0: 5a79 503f 606e 0dc0 dce9 97c0 ba2a c7be
00000100: 74b3 3dbf 0071 2dbe 3f21 d2be 712b ee3f
00000110: 7147 d93f b31f 353f 74f3 0b40 8065 0640
00000120: 80df c2bf 51b4 0dc1 600b ca40 ee6c 053f
00000130: f35b aebe 3608 b8c0 6880 d6be 8ea8 28c0
00000140: 554d 06c0 8667 e33f 99d2 a2c0 7829 f9bf
00000150: e952 f4c0 0071 5e40 3377 0040 1b2e 523f
00000160: 437d b9be 5a17 0540 0459 84c0 b0d0 f2c0
00000170: 9108 8bc0 0e6f 2640 6983 393f b0d1 2740
00000180: 318c edb8 4b14 a040 01a3 f23f fb96 2540
00000190: 4560 0841 8e53 2a40 3ade f7bf 1c6c 7f40
000001a0: ee98 84be f260 4ac1 837c 853e 932d 1bc0
000001b0: 8e98 82c0 2de3 dc3f a1ea f4c0 471c 03c0
000001c0: 97a3 16c0 f6df 0d40 8f7d 3c40 9236 32c1
000001d0: d468 23c0 710e d43e 5f6c ccc0 b891 8dbf
000001e0: db54 f13f 7ce1 3abe f3ed f2c0 1b00 a840
000001f0: 553a ca3f ed11 f140 3487 c1bd 35c1 3a40
00000200: 70c3 6440 faa3 763e 5d76 993f 9214 03c0
00000210: f028 83bf 9c9b 62c1 621b 4e40 12f7 c93e
00000220: c541 82c1 b622 33c1 5104 57c0 e2cb d33f
00000230: db10 4740 c17d a33f 9c25 89c1 f3df 2fc1
00000240: bf56 a03f 59e1 86c0 943e 0540 0e43 a7c0
00000250: 9ba5 7040 b186 173f c3c3 9c40 586f c2c0
00000260: 528e b33f 0bbe 5b40 a407 c6bf dafa 1040
00000270: c6bb e0bf 39a9 fd3e c423 6840 391f 6640
00000280: 7410 6440 3eb7 183e f096 c23f 23bd df40
00000290: 998d 11c1 8a74 2dbe b5d1 0fc0 8769 9ac0
000002a0: 884e b73f 7727 46c0 3334 8a3e 1f11 5240
000002b0: 159b 0fc0 f56f 9c40 dd8a 9ec0 3525 1940
000002c0: 6444 6b40 e9e1 66c0 7303 e73e f919 19c0
000002d0: b58b 57bf 48ea 27c0 e428 94c0 6c0e 6cc0
000002e0: 7971 843f 4f45 dec0 3e69 4f40 1fbb 23bf
000002f0: ecd8 acc0 094e 02bf c0bc 1ac1 edcf 96c0
00000300: cfde eb40 1177 d9c0 da4a 5bc1 d9ca 7ac1
00000310: b532 3a40 ddc6 613f d6be 1840 ec47 25c1
00000320: ee71 84c1 95f6 51bf be08 fdbf ccaa 24c0
00000330: b090 d0c0 72a6 8440 e3bc b540 c66e 9cc0
00000340: 4817 9d40 13d2 a640 95ad 12c1 ce68 8b3f
00000350: 3870 32c0 92d9 50c1 66c4 5740 9907 74be
00000360: 3a57 8ec1 e5f8 a0c0 ad5f 19c0 7fb1 3f3e
00000370: c656 f43f 066e 73c0 828c 77bf ad35 7340
00000380: 4ccb 153f 6505 3ebe a99a 4c40 27b9 c0c0
00000390: 2a3b 10c1 d935 8f40 c770 5abf 3266 9b40
000003a0: 3346 82c0 6630 9d40 c207 9cc0 7bb3 63c0
000003b0: 15ea 45c1 0ef5 68c0 8ae1 1c40 2473 11c0
000003c0: 38c5 c4c0 a0d0 a83e 13e1 a93d bc24 15bf
000003d0: c6d1 c440 ca35 0c40 5345 ff3f d0c8 2dc0
000003e0: 69c7 22bf 65e4 9340 8e9d f340 867a afbf
000003f0: 5587 a2bf ea1a 8040 2c0c a23f 65be 2f40
-9.220277 -9.141974 -12.642086 3.544876 4.7753286 -2.0154977 1.3718987 -2.9788957
1.9361107 0.6686156 -1.3059319 2.654754 1.7745615 4.40401 0.3805077 2.8314526
-10.969839 -3.5431962 -3.6414628 6.3631988 2.3016841 2.4127495 9.163076 -2.33132
0.49586308 -0.45499322 2.0917277 0.43575355 -8.716479 -0.35548395 -0.26005003 -1.221491
4.1362915 2.1085417 4.4986186 1.3331767 -3.3054023 -7.6476254 -5.088339 -0.8216932
-2.6248043 6.208524 -0.74622303 3.7298641 -4.5028 -6.9889417 0.10255628 -2.0868063
-0.6833839 -3.8028986 1.1873848 4.145908 1.3515335 -9.010208 4.167182 -0.86622834
0.33540648 -4.5107355 0.7244845 -12.118637 0.8143517 -2.2098618 -4.7472973 -0.38899785
-0.7410195 -0.16937637 -0.4104099 1.8607007 1.6974927 0.70751494 2.1867342 2.099945
-1.5224457 -8.856523 6.3138885 0.5211934 -0.34054527 -5.7510023 -0.4189484 -2.6352878
-2.09847 1.7765968 -5.0882077 -1.946578 -7.635121 3.475647 2.0072753 0.821016
-0.3622838 2.0795503 -4.135866 -7.5879745 -4.3447957 2.6005282 0.7246614 2.6221733
-0.00011327153 5.002477 1.8955995 2.58734 8.523503 2.6613498 -1.9364693 3.9909735
-0.25897926 -12.648668 0.26071557 -2.4246566 -4.0811224 1.7256829 -7.653641 -2.048601
-2.3537347 2.2167945 2.9451635 -11.138323 -2.5532732 0.41417268 -6.388229 -1.1060095
1.8854021 -0.18250078 -7.5915465 5.250013 1.5799052 7.533438 -0.09449616 2.9180424
3.5744286 0.2408599 1.1989247 -2.0481305 -1.0246868 -14.162991 3.2204213 0.39446312
-16.282114 -11.195974 -3.3596385 1.6546595 3.1104038 1.2772752 -17.143364 -10.992175
1.2526473 -4.2150083 2.0819445 -5.2269354 3.7601078 0.591899 4.8988967 -6.076092
1.4027808 3.4334743 -1.5471082 2.2653108 -1.7557304 0.4954317 3.627183 3.5956557
3.5635042 0.14913651 1.5202312 6.991838 -9.09707 -0.16938987 -2.2471745 -4.8253818
1.4320841 -3.0961587 0.2699295 3.282295 -2.2438405 4.8886666 -4.954451 2.392896
3.6760492 -3.6075385 0.4511982 -2.3922102 -0.8419755 -2.6236744 -4.6299915 -3.6883802
1.0347129 -6.9459605 3.2407985 -0.639574 -5.4014797 -0.5090032 -9.671082 -4.7128816
7.3709483 -6.7957845 -13.705774 -15.674523 2.909345 0.88194066 2.3866477 -10.330059
-16.55563 -0.8201688 -1.9768293 -2.5729246 -6.517662 4.145318 5.6793075 -4.888522
4.909092 5.213144 -9.167378 1.0891359 -2.7880993 -13.053118 3.3713622 -0.23831023
-17.792591 -5.0303826 -2.3964646 0.18720053 1.9088981 -3.8035903 -0.9669877 3.800151
0.5851333 -0.18556745 3.1969397 -6.0226016 -9.014444 4.475323 -0.85328335 4.856225
-4.0710692 4.912158 -4.875947 -3.5578296 -12.369649 -3.639957 2.4512658 -2.2726526
-6.1490746 0.32971668 0.082948826 -0.5825918 6.150607 2.190783 1.9943031 -2.7153816
-0.63585526 4.62163 7.6129827 -1.3709266 -1.269755 4.0032854 1.2659965 2.7459958

fc2.bias f4 [256]
00000000: 14e4 96bc f1d9 adbc 8864 33bd 719e 663d
00000010: 90fa 3d3d d99d 71bd 15e8 823c 4584 493d
00000020: 4796 9a3c 174d 693d ff4e 26bd 8d7b 82bd
00000030: ca20 973c 21e0 18bd 38ca b43c 85bf 7a3d
00000040: 9e33 03bd 59d9 16bd 3c8c 393d 5b0b 833c
00000050: 1d52 44bc d84c 17bc cbf9 0fbd 72b9 413d
00000060: 8e7f d5bc 3aa5 5fbd c635 c73c 45ad b83c
00000070: 6062 953a 545c f73c c90a 713d cfd4 34bd
00000080: 9503 113d 1ed6 3b3d 823a 743c ab7c 023d
00000090: 334b 4e3c 39f2 ee3c f641 ae3c 4fa5 dd3c
000000a0: d5cf 3e3d 4626 353d f123 76bd e42e 803d
000000b0: b215 85b9 67aa 033d 4261 44bd e398 b33c
000000c0: 802c 4f3d 7f5d 3abd c96c 74bd 1101 153d
000000d0: 87d3 cd3c fa95 333d 6baf 5e3d 88b9 2a3a
000000e0: f586 8c3d 4585 74bc a16a 463c eb46 103d
000000f0: dbcd 6cbc 21f9 02bd b86f 513d cf27 23bd
00000100: f393 1c3d 2c25 28bd 81ee 60bd 8c47 f8bc
00000110: 5c52 2ebd d895 42bd af27 3fbd 0719 623d
00000120: e2e0 45bd 2602 10bc bda1 7b3c 93ba 02bd
00000130: f813 4e3c c932 183d a6de 7e3d 6e54 053c
00000140: 08b8 ed3b 70b4 623d f9ce febc b338 133c
00000150: 014e 233b a1d4 3abd 173c 33bd 422b 7abd
00000160: b183 a63c ef4d 703d 635d 66bc 0811 163c
00000170: c065 0cbd 083a bebc d099 64bd 602f aebb
00000180: 02f3 9f3c 3e98 443d a59d 16bd 6037 0e3c
00000190: e36b f9bb 5139 5dbc 3f9b f13c 185d 50bd
000001a0: e620 e03c ee28 10bd 9058 b5bc f21c d93b
000001b0: 4a49 103d f6c0 103d f8ca 57bb 1d88 163d
000001c0: 4835 30bd 1ff3 51bd a56a 413c 0b43 213d
000001d0: 979b 7e3d 543d bb3c eddd 3b3d e7eb bebc
000001e0: 154a 83bc 5080 6c3d 9b68 17bd 66fc 9a3c
000001f0: b3a0 66bd 967e 97bb 81ab c23c 08a7 80bd
00000200: e19c 823d 9d1c 4bbd 0d72 613d f7ce 7d3c
00000210: c3a6 2cbb 74ea 1a3d c229 1cbd 2399 e8bc
00000220: 2d5e 04bd 81ce 7ebc 23a6 a63c 6ea3 50bd
00000230: e288 6dbd a3cb 9ebc 7cae 873c 1d5d 0fbd
00000240: 9ab7 323c c9b1 ca3c 447a 61bd f193 25bd
00000250: e6a2 fd3c 9437 f7bc 827a 82bd 2a62 10bd
00000260: 057e 55bd 0712 2fbc 868d 33bd 65c3 2a3c
00000270: 0c81 2cbd 5ee5 82bd 4316 ba3c 3c56 093d
00000280: e560 293d 5c6a 3c3d 4932 2ebd 1e23 49ba
00000290: 94cb 86bd 3815 1d3c 9586 163d d2fd 163d
000002a0: e3e9 123d 2dc6 063c 14d3 55bd 50c9 92bd
000002b0: 1459 373d 38f0 babc f70a 56bd 39a0 153d
000002c0: 5b20 393d 03f9 2ebd 1920 6c3d 071e 88bb
000002d0: 1891 013d 3bb6 823c a4cf b1bc d77e 773d
000002e0: 31c0 903b fe5a 00bd 7b9a e1bc d98b cdbc
000002f0: d757 353d 1e4b 58bc 8f3a f8bc dadb 3d3d
00000300: 99ae 3bbc c475 7dbd ed43 d9bb 0374 20bc
00000310: b19f 0e3d 818c 783d 05d0 82bc daa1 cabc
00000320: 5334 50bc c8da e63c 311d a5bc ebeb 84bd
00000330: 2cf5 4a3d 2bd7 5dbd 061a 4abd e3ee a23c
00000340: 7595 9dbc 7c20 5dbc 9ab8 893c 5b74 d23b
00000350: 8d90 3fbd 779c 093d d54c ce3c c53f 47bd
00000360: 6f99 21bd be8f f7bc 9d4c 8dbc 4ec5 b8bb
00000370: cabe 053d f3ed 87bd 8e49 ec3b e910 3bbd
00000380: 6841 5d3d 13cb 563c 1a3d 47bd 39ee 443d
00000390: 89ea f3bc 744d 59bc 294e 003c 0f1f 4a3d
000003a0: 9873 79bd 50c7 023d 0f7f 503d b45d 933c
000003b0: 7cda 403c 8d18 573d 8fd0 303d bc0b 2f3c
000003c0: 55da b93c edd8 74ba 7f1b 4cbd b7d4 9c3d
000003d0: 225f 3ebd e2b5 54bd 862b 7cbd c45e 923d
000003e0: e7c5 efbb 3a73 543d 20ef 2d3b f09c 51bd
000003f0: 614d 3e3d 9830 1bbd d35c 14bd 4055 c2bc
-0.018419303 -0.021222087 -0.043797046 0.056303445 0.046381533 -0.058988426 0.015979806 0.049198408
0.018870486 0.056958284 -0.04060268 -0.06371222 0.018448252 -0.03732312 0.022069082 0.061217804
-0.032031648 -0.036828373 0.045299754 0.015996626 -0.011982468 -0.00923463 -0.03515033 0.047295995
-0.0260618 -0.05460093 0.024317633 0.022543559 0.0011397116 0.030195393 0.058848176 -0.044148263
0.035403807 0.045858495 0.0149065275 0.031857174 0.012591171 0.029168235 0.021271687 0.027056364
0.046584923 0.044225954 -0.06009287 0.06258944 -0.000253839 0.03214493 -0.047944315 0.021923488
0.050579548 -0.04549932 -0.059674058 0.03637797 0.025125278 0.0438442 0.05436651 0.00065126317
0.068616785 -0.014924352 0.012110383 0.035223883 -0.014453377 -0.03197587 0.051131934 -0.039832886
0.038227033 -0.041051075 -0.054914955 -0.030307554 -0.042559013 -0.047506183 -0.046668705 0.05519965
-0.048310168 -0.008789575 0.015358386 -0.031916212 0.012578003 0.037157807 0.062224053 0.008137805
0.0072546043 0.05534786 -0.031104552 0.008985686 0.002491832 -0.045612935 -0.043758478 -0.06107641
0.020326467 0.058668073 -0.014060351 0.009159334 -0.034276724 -0.02322103 -0.05581075 -0.005315706
0.019525055 0.047996752 -0.036771435 0.008680195 -0.007611738 -0.013502435 0.029492972 -0.05087003
0.027359437 -0.035195284 -0.022136956 0.006625765 0.035226144 0.035340272 -0.0032927375 0.0367509
-0.043019563 -0.05125725 0.011805211 0.039370578 0.0621601 0.022856392 0.04586594 -0.023305846
-0.016026536 0.057739556 -0.036964994 0.018919181 -0.0563056 -0.0046232445 0.02376342 -0.06281859
0.063775785 -0.049587835 0.055040408 0.015491239 -0.0026344515 0.03782125 -0.03812576 -0.028393334
-0.032316376 -0.015552164 0.020342892 -0.05093711 -0.05799187 -0.01938421 0.016562693 -0.03500091
0.010908032 0.024742978 -0.055048242 -0.04042429 0.030961465 -0.030177869 -0.06371023 -0.035249867
-0.052122135 -0.01068545 -0.04383614 0.010422562 -0.042115256 -0.063914046 0.022715693 0.033529505
0.04135217 0.04599987 -0.042528424 -0.00076727744 -0.06581798 0.0095875785 0.03674944 0.036863156
0.035867583 0.00822596 -0.052203253 -0.071673036 0.044762686 -0.022819623 -0.05225655 0.036529753
0.045196872 -0.042717945 0.0576478 -0.00415397 0.031632513 0.015956035 -0.021705456 0.0604237
0.0044174423 -0.031336777 -0.027539482 -0.025091099 0.044273224 -0.013201503 -0.03030136 0.046352245
-0.011455202 -0.06187989 -0.006630412 -0.009793284 0.034820262 0.06068087 -0.015968332 -0.02473538
-0.012707788 0.028180495 -0.020155521 -0.0649031 0.04955022 -0.05416028 -0.049341224 0.0198893
-0.019236306 -0.013496514 0.016811658 0.006422562 -0.046768714 0.033596482 0.02518312 -0.0486448
-0.039452966 -0.030219909 -0.017248446 -0.005638755 0.032652654 -0.06637182 0.007210917 -0.045670424
0.054017454 0.01310994 -0.048642255 0.04807875 -0.029774921 -0.013263095 0.007831135 0.049346026
-0.060901254 0.03192836 0.050902423 0.017989017 0.011770841 0.052513648 0.043167647 0.01068395
0.022687117 -0.0009340186 -0.04983091 0.0765776 -0.046477444 -0.05193127 -0.061564945 0.07146981
-0.007317293 0.0518677 0.0026540235 -0.051175058 0.046460513 -0.03788814 -0.036221337 -0.023722291
