Models/model_1000.pth (torch, 629675 bytes, 28 tensors)

fc1.weight f4 [256, 39]
0	0xc0919e94	-4.5506077
1	0xbded02dc	-0.11572811
2	0xbe0ccce1	-0.1375003
3	0x3e8e0ac2	0.27742583
4	0x3f9e4c77	1.2367085
5	0x3bac1697	0.0052517164
6	0xc0a5e31c	-5.1839733
7	0xbf0011e4	-0.500273
8	0x406bfd71	3.6873438
9	0xbe85ae73	-0.26109657
10	0xbebc9728	-0.36834073
11	0xbfad6549	-1.3546535
12	0x40803be6	4.007312
13	0xc00d5410	-2.2082558
14	0xbf5e4df4	-0.868377
15	0x405e482c	3.473155
16	0x40725c5f	3.786888
17	0x3ee87e08	0.45408654
18	0x3de5878b	0.112074934
19	0xbd24de86	-0.040251277
20	0xc063a56f	-3.5569723
21	0xbefb78b7	-0.49115536
22	0x3f02691b	0.5094163
23	0x3fce6c9c	1.6126895
24	0x3e885e34	0.2663437
25	0xbcc789e1	-0.024357738
26	0x3fc78dc2	1.5590136
27	0x3e54f37a	0.20796004
28	0xbdf4fa8b	-0.1196185
29	0xbe4eeabe	-0.20206735
30	0xc04518b2	-3.0796323
31	0x3f1eb7df	0.61999315
32	0x3da89fe9	0.082336254
33	0xbf68a0b9	-0.90870243
34	0x3e4a4899	0.19754256
35	0xbf4c5af3	-0.7982628
36	0x3dcb82cf	0.09937059
37	0xbfe0479b	-1.7521852
38	0x3dfeb27a	0.124363855
39	0x406e6d98	3.725439
40	0xbfe12607	-1.758973
41	0xbf3ccc4b	-0.73749226
42	0xbf00c3c5	-0.5029872
43	0x3fb5b216	1.4194973
44	0xbf19ac4f	-0.6002855
45	0x3faed1cb	1.3657774
46	0x3fa4025c	1.281322
47	0x3fac0517	1.3439053
48	0x3d61d6ca	0.05513648
49	0x3c60661a	0.013696218
50	0xbec9e2bc	-0.39430797
51	0x404689de	3.1021647
52	0xbf65d19e	-0.89772975
53	0x3f9d7a1b	1.2302889
54	0x4002544e	2.0363955
55	0x404af698	3.171301
56	0xbcf02379	-0.02931379
57	0xbd95a3c5	-0.07306627
58	0x3d58f559	0.052968357
59	0xbf8bf857	-1.0935162
60	0xbdecd8eb	-0.11564811
61	0xc0941dc3	-4.628633
62	0x40825802	4.073243
63	0x3e28816d	0.16455622
64	0x3e31c9f5	0.17362197
65	0x3fc91663	1.5709957
66	0x3e31f7cb	0.17379682
67	0xbeb90cd5	-0.36142603
68	0xbe3cdf85	-0.18444641
69	0x3f83b195	1.0288569
70	0xbf065945	-0.52479964
71	0xc01c4ef1	-2.4423182
72	0x3f7e12e8	0.992476
73	0xbff5e6c6	-1.9211051
74	0x3f549af2	0.8304893
75	0xc1782821	-15.509797
76	0xbfadadbf	-1.3568648
77	0x3f5e2646	0.8677715
78	0x3f5e2fbf	0.86791605
79	0x3fe59840	1.7937088
80	0xbf7ba1a9	-0.9829355
81	0xc086d27e	-4.213195
82	0xc0b94679	-5.7898526
83	0xc05688b3	-3.3520935
84	0x3f36e6c2	0.7144586
85	0x4051541c	3.2707586
86	0xbeea7518	-0.4579246
87	0x3ed94f06	0.42443103
88	0xbf8ebab2	-1.1150725
89	0x402c5451	2.6926463
90	0x404b606b	3.17776
91	0xc0b55a27	-5.667255
92	0xbf614d58	-0.8800864
93	0x3d21ad0a	0.039471664
94	0x407638e7	3.847223
95	0x3f959740	1.1686783
96	0xbf929ea4	-1.1454663
97	0xbe2e2f34	-0.17010194
98	0xc08b76be	-4.358245
99	0xbf82c442	-1.0216143
100	0xbfbef17f	-1.4917449
101	0x3f6b667c	0.91953254
102	0x3f0716ed	0.52769357
103	0x3ef6c907	0.48200247
104	0xc0d15934	-6.542139
105	0xbfb489c9	-1.4104549
106	0xbf113ed1	-0.56736475
107	0xbf14d2b3	-0.58134
108	0xbfa5f5d5	-1.2965647
109	0x3f637dd6	0.88863885
110	0x3e9d6067	0.30737612
111	0xbf0fceed	-0.5617512
112	0xbe8063fd	-0.25076285
113	0xbf145b37	-0.5795168
114	0xc0914372	-4.539483
115	0x3fef35c8	1.8688288
116	0x3edc4b5f	0.43026254
117	0xc0bccd50	-5.9000626
118	0xbeddb363	-0.43300924
119	0x3fa80266	1.3125732
120	0xbf020136	-0.507831
121	0xbe174a19	-0.1477436
122	0xbe380385	-0.17970093
123	0x3fff5a26	1.9949386
124	0x3ff066f4	1.8781419
125	0xc0490120	-3.1406937
126	0xbeaf1a12	-0.34199578
127	0xbf026886	-0.5094074
128	0xc0129396	-2.290258
129	0x400913eb	2.1418407
130	0xbe298125	-0.16553171
131	0x3fc4e35f	1.5381888
132	0x3e49e1cf	0.19715045
133	0xbf1f83f3	-0.62310714
134	0xbfaa017d	-1.3281704
135	0xbe877257	-0.26454422
136	0xbe3e54af	-0.18586992
137	0x3f62b191	0.88552195
138	0xbf2a5c29	-0.66546875
139	0xc079db05	-3.903993
140	0x3f0cbd2c	0.54976153
141	0xc0008a0d	-2.008426
142	0xbe14c603	-0.1452866
143	0xc038d16e	-2.8877826
144	0xbf1b39d5	-0.6063512
145	0x3e2351dc	0.15949196
146	0x3db70cd3	0.08937993
147	0xc0249a64	-2.5719233
148	0xbe4633da	-0.19355717
149	0x3f9ceaec	1.2259192
150	0x3e3ad8a0	0.18246698
151	0x406ba1d4	3.6817522
152	0x3eb77779	0.35833338
153	0x3d413ee3	0.047179114
154	0x3f709360	0.93974876
155	0xbfb3b600	-1.4039917
156	0x4070c7f0	3.7622032
157	0x3e7cdb09	0.2469293
158	0x403bfa85	2.9371655
159	0xc037096c	-2.85995
160	0x406d37bf	3.7065275
161	0x3f72518c	0.9465568
162	0xbffb3650	-1.962595
163	0x3dff6ccb	0.124719225
164	0x3eedf986	0.46479434
165	0xbe89d0b9	-0.26917055
166	0xbab7de9e	-0.0014028137
167	0x3f0f96c9	0.56089455
168	0xc00f8eb0	-2.243084
169	0xbf88ca0c	-1.068666
170	0x3fa6c266	1.3028076
171	0x3ee54f25	0.44786945
172	0xc0a79048	-5.2363625
173	0xbfaeb067	-1.3647584
174	0xbe3c36fa	-0.18380347
175	0xbdd66bde	-0.10469793
176	0x3e038457	0.12843452
177	0xbdd370c5	-0.103242435
178	0xbfd7372a	-1.681371
179	0x3ffa5c20	1.9559364
180	0xbfafd820	-1.3737831
181	0x3eed1736	0.4630677
182	0x4005ea50	2.0924263
183	0x3bc3f443	0.005980046
184	0xbefc9283	-0.4933053
185	0xbf084035	-0.5322297
186	0x4057329a	3.3624635
187	0xbfd91d57	-1.6962079
188	0xbf5c387d	-0.86023694
189	0xbf392dec	-0.72335696
190	0xc09eb991	-4.960152
191	0xbf4956ce	-0.7864808
192	0xbf0cb77f	-0.5496749
193	0x3e4e60a7	0.20154057
194	0x3f7fbe77	0.999
195	0xbfd6e001	-1.678711
196	0x3ee10410	0.43948412
197	0xc0181ca4	-2.376748
198	0xbfe8076a	-1.8127263
199	0x3fa29489	1.2701579
200	0xbea41c63	-0.32052907
201	0xbf3ce365	-0.73784477
202	0x3e412391	0.18861224
203	0x3fba9f85	1.4579931
204	0xbea0e096	-0.31421345
205	0xbf24c30d	-0.64360124
206	0x3f0cd38a	0.55010283
207	0x3fc006e6	1.5002105
208	0x3f0fb11b	0.56129616
209	0x3c05140a	0.0081224535
210	0x3c212318	0.009835027
211	0x408ec81d	4.461928
212	0xbd134079	-0.035950158
213	0x3c1d4d3e	0.0096009355
214	0xbd651bb7	-0.055934634
215	0xbd1e34b5	-0.038624484
216	0xbfbc9794	-1.4733758
217	0xbf5bb27d	-0.85819227
218	0xbdb43411	-0.087989934
219	0xbebbbc9a	-0.3666733
220	0xbe419dfa	-0.1890792
221	0xc00fe767	-2.2484987
222	0xbe08938a	-0.13337532
223	0x3e410e96	0.1885322
224	0x3e0f7844	0.14010721
225	0x3fd904d8	1.6954603
226	0xc043dd1a	-3.06037
227	0x3f0cf138	0.5505557
228	0xc0365fc8	-2.849596
229	0x3e03a735	0.12856753
230	0xc03f8ec4	-2.9930887
231	0xc1ceab07	-25.83351
232	0xbf8071a0	-1.0034676
233	0x3effc40d	0.49954262
234	0xc08dd003	-4.431642
235	0xbf9a94dc	-1.2076678
236	0x402cbcc6	2.6990218
237	0x3f93d0ed	1.1548134
238	0x3f5fee0f	0.87472624
239	0x40045127	2.0674531
240	0x402ae360	2.6701279
241	0x3fb734ce	1.431299
242	0x3fce19b1	1.610159
243	0x3d151c62	0.03640402
244	0xbd4b9881	-0.049705986
245	0x403ae5d0	2.9202766
246	0xbf20cfa4	-0.62816834
247	0x3f4bb00c	0.795655
248	0x3f8c7dbe	1.0975873
249	0xbee29fd4	-0.44262564
250	0xc0a7bc50	-5.2417374
251	0x403f25f1	2.9866908
252	0x3e9a2671	0.30107453
253	0xbe421d00	-0.18956375
254	0xbff3084e	-1.8986909
255	0x3f16481c	0.5870378

fc1.bias f4 [256]
0	0x3d6cd62f	0.05782145
1	0x3dba056e	0.09083067
2	0xbdf722e2	-0.120672
3	0x3e183edd	0.1486773
4	0x3d5fb348	0.054614335
5	0xbe20e2f1	-0.15711571
6	0x3cae3c8b	0.021269104
7	0xbe086aad	-0.13321944
8	0x3d2af9b9	0.04174206
9	0x3dc20abf	0.09474706
10	0xbdef76af	-0.11692559
11	0xbd844cbb	-0.06459948
12	0xbe01233a	-0.12611094
13	0xbde101bb	-0.10986658
14	0x3c12fddd	0.008971659
15	0xbd80fb0e	-0.06297885
16	0xbdd48730	-0.103773475
17	0x3c95310e	0.018211868
18	0x3df2388c	0.11827192
19	0xbdd670dd	-0.10470746
20	0x3cc24a07	0.02371694
21	0x3bf9d549	0.0076243025
22	0xbca01848	-0.019542828
23	0x3c116ad6	0.008875569
24	0xbdc77290	-0.09738648
25	0xbd8904ff	-0.06690406
26	0xbd423485	-0.047413368
27	0xbd8ee1d4	-0.06976667
28	0x3df29ec2	0.11846687
29	0xbca2aba0	-0.019857228
30	0x3e20a1f2	0.15686777
31	0x3dbc401e	0.09191917
32	0x3e19d8e4	0.15024143
33	0xbd81cec6	-0.06338267
34	0xbe003e56	-0.1252378
35	0x3d093e30	0.033506572
36	0x3de0c8ff	0.10975837
37	0x3dbb641d	0.091499545
38	0x3c6ec4e4	0.01457331
39	0xbdba0490	-0.090829015
40	0xbd50fbea	-0.051021494
41	0xbe004ee1	-0.1253009
42	0x3d94156b	0.07230648
43	0xbd9692af	-0.073521964
44	0xbd6e6fd6	-0.058212124
45	0xbda80e7e	-0.08205889
46	0x3d8f8b51	0.07008994
47	0xb9b080aa	-0.00033665198
48	0xbced682b	-0.028980335
49	0xbc83ec3a	-0.016103853
50	0x3d6940bf	0.056946512
51	0xbcf97cb3	-0.030454969
52	0xbe26f930	-0.16305995
53	0x3d97fada	0.07420893
54	0xbe1ef061	-0.15521385
55	0xbd0e7cd0	-0.034787
56	0xbdfbd3ec	-0.1229628
57	0xbe07a7bf	-0.13247584
58	0xbcccec39	-0.025014983
59	0xbc94d0a3	-0.018165892
60	0xbe10ca98	-0.14139783
61	0x3bb03238	0.0053770803
62	0x3d93eafe	0.072225556
63	0x3e020606	0.1269761
64	0xbd28fcde	-0.041256778
65	0x3e08be5d	0.13353868
66	0xbde763be	-0.11298321
67	0xbdff4ca0	-0.12465787
68	0xbd1738b0	-0.036919296
69	0xbd477a85	-0.048700828
70	0xbe041566	-0.12898788
71	0xbdcf50d2	-0.10122837
72	0x3d04dfde	0.03244006
73	0xbdf3a839	-0.1189732
74	0xbdbc30e2	-0.09189011
75	0x3d4c364b	0.049856465
76	0x3da1a6b7	0.078931265
77	0xbcb7c301	-0.022431852
78	0xbe35e385	-0.17762573
79	0x3d51ea06	0.051248573
80	0xbc6bd188	-0.014393218
81	0xbd889db5	-0.06670705
82	0x3e03689a	0.12832871
83	0x3e1f658c	0.15566081
84	0xbe0a33bd	-0.13496299
85	0xbd8d7737	-0.06907504
86	0xbba813cb	-0.0051293126
87	0xbd8c8933	-0.06862106
88	0x3dfa98dc	0.12236187
89	0xbd7650a8	-0.060135514
90	0xbdd384f6	-0.10328095
91	0xbdb6eae2	-0.08931519
92	0xbb481e5c	-0.0030535674
93	0x3db553cc	0.088538736
94	0xbdb3d45b	-0.08780738
95	0xbe1eea89	-0.15519156
96	0xbda2dab3	-0.0795187
97	0xbdc34ed2	-0.09536518
98	0xbda2c597	-0.079478435
99	0xbc9a4aa3	-0.018834418
100	0xbc238c93	-0.009982246
101	0x3d272b6d	0.0408129
102	0xbdb0fb28	-0.08641654
103	0xbdf300fd	-0.11865423
104	0xbe0e7029	-0.13909973
105	0x3c15fcdd	0.009154526
106	0x3dc45279	0.09586043
107	0x3d9ef946	0.07762389
108	0xbdca7307	-0.09885221
109	0xbe021014	-0.12701446
110	0x3e149ea0	0.14513636
111	0xbd0b418b	-0.033998054
112	0x3de1b957	0.11021679
113	0xbb39831b	-0.0028306905
114	0x3e1dc272	0.15406206
115	0x3dd60e19	0.10451908
116	0x3e150f97	0.14556728
117	0x3e0908c1	0.13382246
118	0x3d1c48fe	0.03815555
119	0xbe029e69	-0.12755741
120	0xbe01f251	-0.12690093
121	0x386038ba	5.3458592e-05
122	0x3bee5134	0.0072728638
123	0x3e01abd9	0.12663211
124	0xbde57c37	-0.11205333
125	0xbda2c785	-0.079482116
126	0x3cd6b402	0.026208881
127	0x3e2fe914	0.17178756
128	0xbe271b8d	-0.16319104
129	0xbdfd8522	-0.12378909
130	0xbe17976f	-0.14803861
131	0x3e00afcb	0.1256706
132	0x3dceeb05	0.1010342
133	0xbdfd46a6	-0.12366991
134	0x3d9b8e23	0.0759547
135	0xbdd56b68	-0.10420877
136	0xbbf8efaf	-0.007596932
137	0x3de18437	0.11011546
138	0x3dd2da51	0.10295547
139	0xbdc12bc8	-0.09432179
140	0x3dd8ddcf	0.10589182
141	0x3d2b56d5	0.041830856
142	0x3ac9008f	0.001533525
143	0x3e13eb80	0.14445305
144	0xbcc7edf9	-0.024405466
145	0x3bdc7398	0.006727647
146	0xbb20b3ee	-0.002452131
147	0xbd8f6f39	-0.07003636
148	0x3d68c5b1	0.05682916
149	0x3bc979db	0.0061485595
150	0xbe00e17f	-0.1258602
151	0x3d257649	0.04039601
152	0x3cc023f7	0.02345465
153	0xbd29129c	-0.041277513
154	0xbd887744	-0.06663373
155	0xbdce0c0e	-0.10060893
156	0x3dcbed51	0.09957374
157	0x3d14b342	0.036303766
158	0xbe1f4526	-0.15553722
159	0x3dd085bf	0.1018176
160	0xbd24673c	-0.040137514
161	0xbdb0698e	-0.08613883
162	0x3de6d0af	0.11270272
163	0xbda69dbc	-0.08135554
164	0xbd97199b	-0.07377931
165	0xbdfe1daa	-0.12408002
166	0x3c9c2a03	0.019063001
167	0xbdbe5eb3	-0.09295406
168	0x3d92940d	0.07157145
169	0xbd7a1187	-0.06105187
170	0xbde57789	-0.1120444
171	0x3db63a6a	0.0889786
172	0xbd81455d	-0.06312058
173	0x3dfb48a2	0.12269713
174	0xbe2fd599	-0.17171325
175	0x3da376e8	0.07981664
176	0xbdac03cb	-0.08399161
177	0xbe5ec88e	-0.21756193
178	0x3d47f57b	0.048818093
179	0xbe0ed1c9	-0.13947214
180	0xbb2f0f4c	-0.0026711999
181	0xbd989d99	-0.07451934
182	0x3daacd25	0.083399095
183	0xbd61c85f	-0.05512273
184	0xbd7b1817	-0.06130227
185	0x3cecf14f	0.028923659
186	0xbde0f629	-0.10984451
187	0xbdcb2d90	-0.099208
188	0x3da18f55	0.078886665
189	0xbd1042d8	-0.035219997
190	0x3ddf6aea	0.10909064
191	0xbe07ac36	-0.13249287
192	0xbde385c8	-0.11109501
193	0x3dc6e89a	0.09712334
194	0x3d9e736c	0.07736859
195	0x3d267fcb	0.040649217
196	0xbe00b765	-0.1256996
197	0x3de25d28	0.110529244
198	0xbd9329c9	-0.07185704
199	0x3d2547bc	0.040351614
200	0x3d14e795	0.036353666
201	0x3e49b8ce	0.19699404
202	0x3d8ba317	0.06818216
203	0xbe023c54	-0.12718326
204	0x3daf728f	0.08566772
205	0xbe31ea1a	-0.17374459
206	0xbe0de0d6	-0.138553
207	0x3e077e74	0.13231832
208	0x3c38867c	0.011262532
209	0x3e072568	0.13197863
210	0x3d20fde7	0.03930464
211	0x3cb0789e	0.02154189
212	0x3de84801	0.11341859
213	0xbde6bb8c	-0.112662405
214	0xbd5113b3	-0.051044177
215	0xbd1f29b9	-0.03885815
216	0x3e2a5881	0.16635324
217	0xbca4aee6	-0.02010293
218	0xbc1a3f86	-0.009414559
219	0x3d4b2320	0.049594045
220	0xbe15df48	-0.14635956
221	0x3d8f462a	0.069958046
222	0xbd26c39b	-0.040713888
223	0x3d680927	0.056649353
224	0xbcaa1a32	-0.020764444
225	0xbcfce3af	-0.030870287
226	0xbe17fc31	-0.14842297
227	0x3e097d9b	0.13426821
228	0x3de3b633	0.11118736
229	0xbdfe51d6	-0.12417953
230	0xbc84bd60	-0.016203582
231	0x3e3d5b9a	0.18491974
232	0xbdd4635b	-0.10370513
233	0x3b03d261	0.002011441
234	0x3dc91117	0.09817713
235	0xbdb472e0	-0.08810973
236	0xbd7ac82c	-0.061226055
237	0x3dc12237	0.09430354
238	0x3dda3bee	0.10655962
239	0xbdbf2ae7	-0.09334355
240	0xbd7e6a82	-0.062113293
241	0xbd8059dd	-0.0626714
242	0x3d58b79b	0.052909475
243	0xbc4559eb	-0.012045364
244	0x3d9b8f2f	0.075956695
245	0x3df93b25	0.12169484
246	0x3dc0dc44	0.09417012
247	0x3d3921ca	0.04519824
248	0xbdc75554	-0.09733072
249	0x3d106e12	0.03526122
250	0x3d850105	0.06494335
251	0x3e12a558	0.14320886
252	0xbd21a443	-0.039463293
253	0x3dc62159	0.09674329
254	0xbcd58870	-0.026066035
255	0xbdc79b06	-0.09746365

bn1.weight f4 [256]
0	0x402acd4f	2.668781
1	0x40260721	2.594185
2	0x405de160	3.4668808
3	0x3fd3fe30	1.6561947
4	0x400db280	2.2140198
5	0x3fe0ab9d	1.7552372
6	0x4001247f	2.0178525
7	0x401797f3	2.3686492
8	0x4036eeac	2.8583174
9	0x3fdd430c	1.7286086
10	0x3faccd12	1.3500082
11	0x4024c1b1	2.574322
12	0x402e92d2	2.7277112
13	0x3fba1910	1.4538898
14	0x401daaf4	2.4635592
15	0x3ff3b51d	1.9039646
16	0x3ff1f34d	1.8902375
17	0x3fd8ddda	1.6942704
18	0x400d2dbf	2.2059171
19	0x4023e5d9	2.5609038
20	0x40070001	2.1093752
21	0x408aa99f	4.3332057
22	0x40232af8	2.5494976
23	0x3fae8265	1.3633543
24	0x3fb24701	1.3927919
25	0x402a13f3	2.6574676
26	0x401db300	2.4640503
27	0x4027f6a8	2.6244297
28	0x4012574a	2.2865777
29	0x40266a2e	2.6002307
30	0x4024cbdc	2.5749426
31	0x3ffbfad2	1.9685919
32	0x402f2d4e	2.7371402
33	0x40157f4c	2.3358946
34	0x4002a19e	2.0411143
35	0x3fc1ca73	1.5139908
36	0x4059162d	3.3919785
37	0x4024b943	2.5738075
38	0x401d62fd	2.4591668
39	0x3fea896d	1.8323189
40	0x40315c91	2.7712748
41	0x3fca9d04	1.5829167
42	0x405a9e0f	3.4158971
43	0x3fe2ef84	1.7729344
44	0x403042a8	2.7540684
45	0x3ff0eede	1.8822896
46	0x4029234c	2.6427794
47	0x405c39b1	3.4410212
48	0x404c46b6	3.1918159
49	0x3fc619dd	1.5476643
50	0x403d011a	2.9531922
51	0x402e54c4	2.7239237
52	0x40398512	2.898747
53	0x3ffd05a5	1.9767348
54	0x4067a6b1	3.619549
55	0x402251e2	2.5362477
56	0x3fe52f14	1.7904992
57	0x40920178	4.5626793
58	0x3fd5f96a	1.671674
59	0x40225f87	2.5370805
60	0x4001f3cc	2.0305052
61	0x400497e8	2.0717716
62	0x3fda7217	1.7066067
63	0x3ffee949	1.9914943
64	0x402cd91e	2.7007518
65	0x40538240	3.3048248
66	0x400460c7	2.0684068
67	0x400a5b6d	2.1618302
68	0x40463163	3.0967643
69	0x400b9bcf	2.1813848
70	0x3ffffbc3	1.9998707
71	0x400f2453	2.236592
72	0x400e5ae5	2.2242978
73	0x3fd760f9	1.6826469
74	0x402e6fb6	2.7255683
75	0x4007438a	2.1134973
76	0x40136663	2.3031242
77	0x3fd302b4	1.64852
78	0x40287ec5	2.6327374
79	0x4013ce91	2.3094828
80	0x402db92a	2.7144265
81	0x3fe84764	1.8146787
82	0x4025d707	2.5912492
83	0x400f8cb5	2.242963
84	0x400fa8db	2.2446811
85	0x402588a2	2.5864644
86	0x40897f20	4.296768
87	0x4014b84b	2.3237484
88	0x4031830d	2.7736237
89	0x4021a24d	2.525531
90	0x3fd6ab21	1.6770974
91	0x4028ee9f	2.6395643
92	0x4041974b	3.0248592
93	0x4060f03c	3.5146627
94	0x40045e35	2.06825
95	0x3ff0eea2	1.8822825
96	0x4007683e	2.1157374
97	0x3ff5171f	1.9147681
98	0x40151e63	2.3299797
99	0x4026027e	2.593902
100	0x4000d9e4	2.013299
101	0x401e37c7	2.4721544
102	0x400470e5	2.0693905
103	0x400fe06c	2.2480726
104	0x400ba03f	2.1816556
105	0x402518f1	2.5796473
106	0x40615dc6	3.5213485
107	0x400a0e67	2.157129
108	0x4018c144	2.386796
109	0x3fe76371	1.8077222
110	0x401777c6	2.3666854
111	0x3fd94671	1.6974622
112	0x400b35aa	2.1751504
113	0x3fbb7d84	1.4647679
114	0x40301654	2.7513628
115	0x3fd59762	1.6686823
116	0x401e2732	2.4711423
117	0x40211029	2.5166113
118	0x40392349	2.8927786
119	0x3fdc933e	1.7232435
120	0x4014a598	2.322607
121	0x400629e4	2.0963068
122	0x40351164	2.8291864
123	0x40270f8c	2.610324
124	0x4013588f	2.3022802
125	0x4032090f	2.781803
126	0x40032187	2.0489213
127	0x408a22bd	4.3167405
128	0x4023c5e4	2.5589533
129	0x401ac4a4	2.418252
130	0x40095c96	2.146276
131	0x402dcee6	2.715753
132	0x402a473f	2.6605985
133	0x3f8f26f1	1.1183759
134	0x3fd597d5	1.668696
135	0x3fc8aeaf	1.5678309
136	0x3fb29860	1.3952751
137	0x3faf84d0	1.3712406
138	0x3fa908fd	1.3205868
139	0x3fe4fd60	1.7889824
140	0x3fb1b7ea	1.3884251
141	0x40104e60	2.2547836
142	0x403547f7	2.8325174
143	0x3fad1735	1.3522707
144	0x400eac97	2.229284
145	0x40333acc	2.8004637
146	0x40005a7d	2.005523
147	0x40024ef3	2.0360687
148	0x3fcbd20d	1.5923477
149	0x4003ba2d	2.0582383
150	0x4028cc3e	2.637466
151	0x402b6313	2.677922
152	0x40087b5a	2.1325288
153	0x402be1a3	2.6856468
154	0x3ff8dc14	1.9442163
155	0x3ff05596	1.8776119
156	0x40039da5	2.0564969
157	0x4051e8c5	3.2798321
158	0x404d5d71	3.2088282
159	0x40115ff5	2.2714818
160	0x3ff24c77	1.8929585
161	0x3fd30253	1.6485084
162	0x3fe3ae7d	1.7787625
163	0x401a6a03	2.4127204
164	0x400e77aa	2.2260537
165	0x400344bc	2.0510702
166	0x402be80b	2.6860378
167	0x3ffbbd71	1.9667188
168	0x400a66ba	2.16252
169	0x402e09a2	2.719338
170	0x4004e838	2.0766735
171	0x400b6ffe	2.1787105
172	0x400ea366	2.228723
173	0x40137249	2.3038504
174	0x4018a7fc	2.385253
175	0x40108e02	2.2586675
176	0x3fe85928	1.8152208
177	0x40227fee	2.5390582
178	0x40169e42	2.3534093
179	0x4039863c	2.898818
180	0x40204cad	2.50468
181	0x3fe2bf3d	1.7714611
182	0x4014a9cb	2.3228633
183	0x40294960	2.6451035
184	0x405cf1a0	3.4522476
185	0x3fc06a3f	1.5032424
186	0x400512e9	2.0792792
187	0x3fd12ddc	1.634212
188	0x402d8c2a	2.71168
189	0x3fd377e4	1.6520963
190	0x3ffd74a4	1.9801221
191	0x403c5682	2.94278
192	0x40196159	2.3965666
193	0x401445c1	2.3167574
194	0x40223150	2.5342598
195	0x401d26f4	2.4555025
196	0x4006b723	2.1049278
197	0x4050e1dc	3.2637854
198	0x40273ffe	2.6132808
199	0x400cbb55	2.1989338
200	0x402004c2	2.5002904
201	0x400c65b9	2.1937087
202	0x3fe54993	1.7913078
203	0x3fb1d8e1	1.3894311
204	0x401146da	2.2699494
205	0x40255bd3	2.5837295
206	0x4015d943	2.3413856
207	0x4028ab03	2.6354377
208	0x4045dd74	3.0916414
209	0x401568ab	2.3345134
210	0x3f99ab51	1.2005407
211	0x402c68a8	2.6938877
212	0x40127e33	2.2889526
213	0x4017ccf8	2.3718853
214	0x3ff742d0	1.9317265
215	0x400db166	2.2139525
216	0x400dc57c	2.2151785
217	0x4041d585	3.0286572
218	0x400f83f1	2.242428
219	0x4006b825	2.1049893
220	0x40151a07	2.3297136
221	0x3fd20258	1.6406965
222	0x400d4c45	2.2077801
223	0x40509fd2	3.2597547
224	0x400ad680	2.169342
225	0x3fffc344	1.9981465
226	0x400a1f79	2.158171
227	0x400fce2f	2.2469594
228	0x4001c222	2.027474
229	0x4034bbcc	2.8239622
230	0x401b1e77	2.4237344
231	0x40286897	2.6313837
232	0x40307cfc	2.7576284
233	0x402346f3	2.5512054
234	0x402a15b3	2.6575744
235	0x3feab612	1.8336813
236	0x401734fa	2.3626084
237	0x402279e4	2.5386896
238	0x4018a89b	2.3852909
239	0x407760d5	3.8652852
240	0x40525122	3.286202
241	0x400de170	2.2168846
242	0x402d143e	2.7043605
243	0x3fefe581	1.8741914
244	0x400ec7b1	2.2309382
245	0x40252421	2.5803301
246	0x4072a032	3.7910275
247	0x40339337	2.8058603
248	0x3fe490b9	1.7856666
249	0x4025e8e4	2.5923395
250	0x3fd34cf5	1.650786
251	0x3fe14dfe	1.7601926
252	0x4036785f	2.8510969
253	0x3fe97824	1.8239789
254	0x3faace9f	1.3344306
255	0x404f9a72	3.2438016

bn1.bias f4 [256]
0	0xbf8ef840	-1.116951
1	0xbffb09f2	-1.961241
2	0xbfda80f7	-1.7070607
3	0xbfb79882	-1.4343417
4	0xbf996d42	-1.1986468
5	0xbec3fbf7	-0.3827817
6	0xc0076512	-2.1155438
7	0xc0496182	-3.1465764
8	0xc0315bd3	-2.7712295
9	0xbf816810	-1.0109882
10	0xbf6c1018	-0.9221206
11	0xbff23656	-1.8922832
12	0xbfa28604	-1.2697148
13	0xbed78100	-0.42090607
14	0xc0053256	-2.0811973
15	0xbf9bd286	-1.2173622
16	0xbfa8140e	-1.313112
17	0xbf70ea2a	-0.94107306
18	0xbfb1c90f	-1.3889483
19	0xbf7e9418	-0.99444723
20	0xbf760b47	-0.9611096
21	0xc00c2892	-2.1899762
22	0xbff42251	-1.9072973
23	0xbf08f5ff	-0.5350036
24	0xbf00fa83	-0.5038225
25	0xc0007894	-2.0073595
26	0xbfd49e3e	-1.6610792
27	0xbf95b6d6	-1.1696422
28	0xbfa5d0a8	-1.2954302
29	0xbf88174e	-1.0632112
30	0xbf9a568f	-1.2057666
31	0xbf3bd018	-0.733644
32	0xc005c201	-2.089966
33	0xbfd1d72f	-1.6393794
34	0xbfb654c0	-1.4244614
35	0xbf59d648	-0.8509259
36	0xbfce5772	-1.6120436
37	0xc0017bc2	-2.0231786
38	0xbfc8f706	-1.5700386
39	0xbfb33a42	-1.4002154
40	0xc012e546	-2.2952437
41	0xbf47b04c	-0.7800338
42	0xc017a390	-2.369358
43	0xbfe3a8b0	-1.7785854
44	0xc0089d3f	-2.1345975
45	0xc00a7668	-2.163477
46	0xbffbcebe	-1.9672468
47	0xbfeb156a	-1.836591
48	0xc0054829	-2.0825293
49	0xbfa227da	-1.2668412
50	0xbff92ab6	-1.9466159
51	0xc01daef9	-2.4638045
52	0xc00f2906	-2.2368789
53	0xbff91108	-1.9458323
54	0xc001d41d	-2.0285714
55	0xbfe3e2de	-1.7803609
56	0xbf8c7470	-1.0973034
57	0xc016c820	-2.3559647
58	0xbfb6796c	-1.4255805
59	0xc022c820	-2.5434647
60	0xbfef8406	-1.8712165
61	0xbfb5c56a	-1.4200871
62	0xbf3b1896	-0.7308439
63	0xbf983fb8	-1.1894445
64	0xbf9475b1	-1.1598417
65	0xbfe89551	-1.8170568
66	0xbf9cc9d0	-1.2249088
67	0xc004a56b	-2.0725963
68	0xbfd8a28f	-1.6924609
69	0xbfe40822	-1.7814982
70	0xbf79973d	-0.97496396
71	0xbfb77b8b	-1.4334577
72	0xbffb3f64	-1.962872
73	0xbf35eca6	-0.7106422
74	0xbfa4d2af	-1.2876796
75	0xbfb1fec8	-1.3905878
76	0xbfd1fca6	-1.6405227
77	0xbf2c9ea3	-0.6742956
78	0xbfef7a6e	-1.8709238
79	0xbfab7674	-1.3395524
80	0xbfe18362	-1.761822
81	0xbf5aedc4	-0.8551905
82	0xbfaf4e51	-1.3695775
83	0xbfb671cf	-1.4253482
84	0xbfe58699	-1.7931701
85	0xbf8323fa	-1.0245354
86	0xc0410c19	-3.0163634
87	0xbfc82abd	-1.5638043
88	0xbfc8f23a	-1.5698922
89	0xbfcb2ff2	-1.5874007
90	0xbfab2ee4	-1.3373685
91	0xbf90c847	-1.131112
92	0xbfb46996	-1.4094722
93	0xbfcd0d75	-1.6019732
94	0xc00d20e1	-2.2051318
95	0xbf599091	-0.84986216
96	0xbfb5fd87	-1.4217995
97	0xc00a76d7	-2.1635034
98	0xc0149a06	-2.3219008
99	0xbfe7c181	-1.8105928
100	0xbf84eefc	-1.0385432
101	0xbfc08741	-1.5041276
102	0xbfaa4276	-1.3301532
103	0xbfbdc724	-1.4826398
104	0xbfb82644	-1.4386678
105	0xbfd77703	-1.6833194
106	0xc02ef1ca	-2.7335076
107	0xbf67867b	-0.90439576
108	0xbfeeea0a	-1.8665173
109	0xbf539542	-0.82649624
110	0xbfa653ef	-1.2994365
111	0xbf9951ea	-1.1978123
112	0xbfda9f35	-1.7079836
113	0xbfa33d1d	-1.2753025
114	0xbfebb3e0	-1.8414268
115	0xbf695b4f	-0.9115495
116	0xbfe724ca	-1.8058102
117	0xc002c586	-2.0433059
118	0xbfd27580	-1.6442108
119	0xbf938a5a	-1.1526597
120	0xbf844e54	-1.0336404
121	0xbfdc23e0	-1.7198448
122	0xbfb9dd3e	-1.4520643
123	0xc02bbc47	-2.6833665
124	0xbfe1fe66	-1.7655761
125	0xbf9b5819	-1.213626
126	0xbf79099b	-0.9728028
127	0xc081f859	-4.061566
128	0xbfbfc0f9	-1.4980766
129	0xbfba39f4	-1.4548936
130	0xc0187011	-2.38184
131	0xc01219d5	-2.2828267
132	0xc01e57cf	-2.4741094
133	0xbf28f41f	-0.659975
134	0xbfa29a9f	-1.2703437
135	0xbf067b28	-0.5253167
136	0xbf8b6eba	-1.0893166
137	0xbf2ea532	-0.6822082
138	0xbef31533	-0.4747711
139	0xbfda3061	-1.7046014
140	0xbf23f124	-0.64039826
141	0xbfff3a1c	-1.9939609
142	0xc00bc7e7	-2.184076
143	0xbeee4e2f	-0.46544024
144	0xbfd5fcb6	-1.6717746
145	0xc0047153	-2.0694168
146	0xbfc9ef72	-1.5776198
147	0xbf73e9db	-0.9527871
148	0xbed35df4	-0.41282618
149	0xbfab6a15	-1.3391749
150	0xbff7fff9	-1.9374992
151	0xbfa95413	-1.3228782
152	0xbf89298b	-1.0715803
153	0xbfe80748	-1.8127222
154	0xbf99611d	-1.1982762
155	0xbf4e9681	-0.806984
156	0xbfd80dd6	-1.6879222
157	0xc04d93e6	-3.212152
158	0xbff5a8b8	-1.9192114
159	0xbfe55ebd	-1.7919537
160	0xbfa3943d	-1.2779614
161	0xbf46500e	-0.77465904
162	0xbf8e9621	-1.1139566
163	0xc0169ea5	-2.353433
164	0xbfdf75ca	-1.7457821
165	0xbfb1caca	-1.3890011
166	0xbfe830bd	-1.8139874
167	0xbf965c85	-1.1746985
168	0xbfa798ea	-1.3093541
169	0xc001294c	-2.0181456
170	0xbfacf1f7	-1.3511342
171	0xbf75a089	-0.9594808
172	0xbfcd580e	-1.6042497
173	0xc007d4ee	-2.1223712
174	0xbf70021e	-0.9375323
175	0xbf8ca8e8	-1.0989046
176	0xbf6d3316	-0.92656076
177	0xbfa0d76f	-1.2565745
178	0xbf8c045b	-1.0938829
179	0xbfbdc977	-1.4827107
180	0xbf705c97	-0.9389128
181	0xbf0b832b	-0.5449702
182	0xbfc57c25	-1.5428511
183	0xbfa7b237	-1.3101262
184	0xbfdf5c0c	-1.7449965
185	0xbfeefbb5	-1.8670565
186	0xbfe164a7	-1.7608842
187	0xbf9e9c5f	-1.2391471
188	0xc01b7a69	-2.4293463
189	0xbf8bdc99	-1.0926696
190	0xbfdcdac7	-1.7254266
191	0xbfdba0f4	-1.7158494
192	0xbf98b627	-1.1930588
193	0xbfb58cea	-1.4183629
194	0xbf9065e5	-1.1281096
195	0xbfaf9d64	-1.3719907
196	0xbf9049d3	-1.1272529
197	0xbfe5a178	-1.7939901
198	0xbfed9bf2	-1.8563216
199	0xbfd89896	-1.6921566
200	0xbfb5343f	-1.4156569
201	0xbf6fe42f	-0.93707556
202	0xc0027372	-2.0382962
203	0xbf1dfc08	-0.61712694
204	0xbf875a5e	-1.0574453
205	0xc007ea22	-2.1236653
206	0xbfb309e8	-1.3987398
207	0xbf997e34	-1.1991639
208	0xbfed3cfa	-1.8534234
209	0xc001620c	-2.0216093
210	0xbee65857	-0.44989273
211	0xbfeddde2	-1.8583338
212	0xbf998403	-1.1993412
213	0xbfbcafb3	-1.4741119
214	0xbfa52251	-1.2901098
215	0xc026c20f	-2.6055944
216	0xbfb2ff0b	-1.3984083
217	0xbfd4d65e	-1.662792
218	0xbfb9e8e2	-1.4524195
219	0xbf94c75f	-1.1623343
220	0xc0101d30	-2.2517815
221	0xbf7f76c5	-0.997906
222	0xbfe2566e	-1.7682626
223	0xc010b7d6	-2.2612205
224	0xbfb80937	-1.4377812
225	0xbfc771e9	-1.5581638
226	0xbf9cdb66	-1.2254455
227	0xbf830b9b	-1.0237917
228	0xbf8440f8	-1.0332327
229	0xbff98dd7	-1.9496411
230	0xbfc66c5e	-1.5501821
231	0xbfee3c85	-1.8612219
232	0xbfa37acb	-1.2771848
233	0xbfc25141	-1.5181047
234	0xbfb9257d	-1.4464566
235	0xbf4511f6	-0.7698053
236	0xbf739029	-0.95141846
237	0xbf8a686c	-1.0813117
238	0xbf89d974	-1.0769486
239	0xbfff38fd	-1.9939266
240	0xbfeda0f0	-1.8564739
241	0xbf88d04f	-1.0688571
242	0xc00d2376	-2.2052894
243	0xbf9c2144	-1.2197652
244	0xc00209ab	-2.03184
245	0xbfc8d532	-1.5690062
246	0xc01b7d71	-2.4295313
247	0xc019d8c5	-2.4038556
248	0xbf95c342	-1.1700213
249	0xbfaaf933	-1.33573
250	0xbf92c780	-1.1467133
251	0xbf88427b	-1.0645288
252	0xc0260114	-2.5938158
253	0xbff201e1	-1.8906823
254	0xbf259556	-0.64680994
255	0xc03ec1f0	-2.980587

bn1.running_mean f4 [256]
0	0x3e46a937	0.19400488
1	0x3e8d8abf	0.27644917
2	0xbe97347e	-0.29532236
3	0x3ecd272a	0.40068942
4	0x3ecf169c	0.40446937
5	0xbd3cbdd0	-0.046079457
6	0x3f128561	0.5723477
7	0x3f2fcc7b	0.6867139
8	0xbd8b84d6	-0.06812446
9	0x3e6665dd	0.22499795
10	0xbd66e13d	-0.056367148
11	0xbe9571ab	-0.29188284
12	0x3f053804	0.520386
13	0xbd3e8a1f	-0.04651844
14	0xbed3be3c	-0.41356075
15	0xbeb979e4	-0.36225808
16	0xbf216c1a	-0.63055575
17	0xbd534320	-0.051577687
18	0x3e670a6c	0.2256257
19	0x3e9bbfbd	0.30419722
20	0x3e303401	0.17207338
21	0x3f301c26	0.6879295
22	0xbe8bcb90	-0.27303743
23	0x3ec0e34c	0.37673414
24	0xbf398ebc	-0.7248342
25	0xbe34b671	-0.17647721
26	0xbea06d5c	-0.31333435
27	0x3f4db48e	0.8035363
28	0xbf0860fc	-0.53272986
29	0xbe870c96	-0.2637679
30	0x3f2bad2c	0.67061114
31	0xbed0155a	-0.4064129
32	0x3d779c52	0.060451813
33	0xbe8cd4a3	-0.2750598
34	0xbf01f44f	-0.5076341
35	0xbf2430ee	-0.6413716
36	0x3f014ee2	0.5051099
37	0xbe600d76	-0.21880135
38	0xbebbac48	-0.36654878
39	0xbe6fa8a0	-0.23404169
40	0xbf60ee38	-0.8786349
41	0x3e1e1e59	0.15441264
42	0xbe4aeabb	-0.19816105
43	0x3e2b9289	0.16755117
44	0xbf0f7e1e	-0.56051815
45	0x3e8bb5cf	0.27287146
46	0xbddc0900	-0.10743904
47	0x3e22b3e9	0.15888943
48	0x3e2ca247	0.16858779
49	0x3d827788	0.06370455
50	0xbde1104b	-0.10989436
51	0x3d30cfe9	0.04316703
52	0xbdc15492	-0.09439959
53	0xbdf4bc1b	-0.11949941
54	0xbebaaa11	-0.36457875
55	0xbd8db7d9	-0.06919832
56	0xbdfa0efc	-0.12209889
57	0x3eb5a88c	0.35480154
58	0x3ce2d1ec	0.02768799
59	0x3e74e96f	0.23917173
60	0x3e22ab49	0.15885653
61	0xbdfa55c4	-0.1222339
62	0x3e9d3129	0.3070157
63	0xbeb11341	-0.34585002
64	0xbc193510	-0.00935103
65	0x3f2628f0	0.64906216
66	0xbe87762a	-0.2645734
67	0x3ebc9ca7	0.36838266
68	0x3f01bf49	0.50682503
69	0xbcd129be	-0.0255326
70	0xbf48944f	-0.783513
71	0xbe4d109e	-0.2002587
72	0x3e6f23bc	0.23353475
73	0xbeaf6b68	-0.34261632
74	0xbda43553	-0.08017983
75	0xbd693860	-0.05693853
76	0xbd43107c	-0.047623143
77	0xbee69917	-0.45038673
78	0xbdd68a59	-0.104756065
79	0xbe97ace7	-0.29624102
80	0x3e24a27d	0.1607761
81	0xbe9e7cc2	-0.30954558
82	0xbd992c53	-0.07479157
83	0x3d601328	0.05470577
84	0xbc8c9058	-0.017158672
85	0x3f03cbca	0.5148283
86	0x3edee100	0.43531036
87	0xbe00338a	-0.1251966
88	0x3f51ac20	0.81903267
89	0xbf12a288	-0.57279253
90	0xbde6a174	-0.112612635
91	0x3dbd9895	0.09257618
92	0x3e92a79f	0.2864351
93	0x3c12b5d0	0.00895448
94	0xbeae6488	-0.34061074
95	0xbf850ee6	-1.0395172
96	0xbea0e272	-0.31422764
97	0x3ec4d951	0.3844705
98	0x3d6f0c7a	0.058361508
99	0xbe0034ca	-0.12520137
100	0xbede31de	-0.4339742
101	0xbe327a6a	-0.1742951
102	0xbe3b0c3b	-0.18266384
103	0xbe0ae5b3	-0.13564186
104	0xbef53cdc	-0.47897995
105	0x3d9c0a05	0.076190986
106	0xbef4048c	-0.4765972
107	0x3e4769f8	0.19474018
108	0x3ef40c84	0.476658
109	0x3d86cb0c	0.06581697
110	0x3eeb3d2a	0.45945102
111	0x39390c00	0.00017647445
112	0x3f12f3b5	0.5740312
113	0x3d8e720b	0.06955346
114	0x3cc0b5e0	0.023524225
115	0x3b117880	0.0022197068
116	0x3e7c0056	0.24609503
117	0xbe4de608	-0.20107281
118	0x3f121c1e	0.57074153
119	0xbd98c8fa	-0.07460208
120	0xbe56f993	-0.20993643
121	0xbd948fa6	-0.07253961
122	0xbe930879	-0.28717402
123	0x3e498886	0.19680986
124	0xbe5a247c	-0.2130298
125	0xbe21ab74	-0.1578806
126	0xbf3a8d5d	-0.72871953
127	0x3e9e03b4	0.308622
128	0xb7b80000	-2.193451e-05
129	0xbebb49f5	-0.36579862
130	0xbe586cb7	-0.21135221
131	0x3dc86cb8	0.097863615
132	0xbda802a6	-0.0820363
133	0x3efbac6c	0.49154985
134	0xbdc1390c	-0.09434709
135	0xbf3c7ef1	-0.736312
136	0xbe092a41	-0.13395025
137	0x3ea14d9f	0.31504533
138	0x3d9b3318	0.07578105
139	0x3d62fe50	0.055418313
140	0xbec96b07	-0.39339468
141	0xbe9dd50e	-0.3082661
142	0x3eb7dc04	0.35910046
143	0xbed0fa14	-0.40815794
144	0xbec402d8	-0.3828342
145	0x3dcbfd92	0.09960474
146	0x3dbaf8aa	0.0912946
147	0x3df7c177	0.12097447
148	0xbf071dbd	-0.5277975
149	0xbda599b8	-0.0808596
150	0xbe92880c	-0.2861942
151	0xbd3c5002	-0.04597474
152	0xbec88dc6	-0.39170665
153	0xbec64b37	-0.3872926
154	0xbe636c30	-0.22209239
155	0xbe076f0d	-0.13225956
156	0xbe12b1a2	-0.14325574
157	0x3dbc822f	0.09204518
158	0xbd27edb0	-0.04099816
159	0x3cfc8de0	0.03082937
160	0xbf035ca0	-0.5131321
161	0xbf1f7939	-0.62294346
162	0x3ea32396	0.31863087
163	0x3e731e2f	0.23741983
164	0xbe19564e	-0.14974329
165	0xbde04c30	-0.109520316
166	0xbe541530	-0.20711207
167	0xbee93afa	-0.45552808
168	0xbeaec3db	-0.341338
169	0xbe4f01b3	-0.20215492
170	0x3e4b2a4b	0.19840352
171	0x3dc8d81c	0.098068446
172	0xbefb5c28	-0.49093747
173	0xbed179ca	-0.4091323
174	0x3c84aca0	0.016195595
175	0x3d12a335	0.035800178
176	0xbe184bd8	-0.14872682
177	0xbf0a9d01	-0.5414582
178	0x3f20cbb0	0.628108
179	0x3dd982d6	0.10620658
180	0x3f2898cc	0.6585815
181	0xbe577602	-0.2104111
182	0x3e4074be	0.18794534
183	0xbe14b0a2	-0.14520505
184	0x3c855eb6	0.016280513
185	0x3f1815dc	0.59408355
186	0xbe804604	-0.25053418
187	0xbeb2d637	-0.34929058
188	0x3e997faf	0.29980227
189	0xbe15a85c	-0.14615005
190	0x3df2ad14	0.11849418
191	0xbd8c0922	-0.068376794
192	0x3e3e0a24	0.18558556
193	0xbe3558b6	-0.17709622
194	0xbed3375e	-0.4125318
195	0xbe55cb53	-0.20878343
196	0xbd4ff668	-0.0507721
197	0x3f167e1a	0.58786166
198	0xbf05c19c	-0.5224855
199	0x3f03a35e	0.51421154
200	0xbe848b6e	-0.25887626
201	0xbe3b9cd4	-0.18321544
202	0x3e92faa3	0.28706846
203	0xbd3d4497	-0.04620799
204	0x3eaf7f96	0.34277028
205	0x3d6a5f4f	0.0572198
206	0xbf0814f2	-0.5315696
207	0xbf063ad7	-0.5243353
208	0x3f25dab9	0.6478687
209	0xbe01ffff	-0.12695311
210	0x3e5b2418	0.21400487
211	0x3ebd4f81	0.3697472
212	0x3e003341	0.12519552
213	0xbf874808	-1.0568857
214	0xbc21d919	-0.00987842
215	0x3e0e91ee	0.13922855
216	0xbeeebfe6	-0.46630782
217	0xbe04720a	-0.12934127
218	0x3e5b9bd0	0.21446157
219	0xbed2c2f8	-0.41164374
220	0xbd861f35	-0.06548921
221	0x3ee208bb	0.44147286
222	0x3e6a24c5	0.22865589
223	0x3ddc4edc	0.10757229
224	0x3e079ff8	0.13244617
225	0xbeb597e9	-0.3546746
226	0x3d8bb712	0.06822027
227	0xbe83738c	-0.25674093
228	0xbe9f49a2	-0.31110865
229	0x3f25ffad	0.64843255
230	0x3d23ccc9	0.03999022
231	0x3de4788e	0.111558065
232	0x3edd7650	0.43254328
233	0xbe2ab901	-0.16672136
234	0x3f11fc3a	0.5702549
235	0xbda4a772	-0.0803975
236	0x3eab1e33	0.33421478
237	0x3eb27b36	0.34859627
238	0x3db4fcd0	0.08837283
239	0x3ce44f98	0.027869985
240	0x3ef2d1ae	0.47425598
241	0x3e9fee26	0.3123638
242	0x3f52fe15	0.8241895
243	0xbe522579	-0.20522107
244	0x3eafb221	0.3431559
245	0x3de59bb8	0.112113416
246	0x3f1196f6	0.56870973
247	0xbe755b29	-0.23960556
248	0x3e5c014c	0.2148487
249	0x3f081a86	0.5316547
250	0xbea02c31	-0.31283715
251	0x3f109799	0.5648132
252	0xbcd1b7c0	-0.025600314
253	0x3f16a887	0.588509
254	0x3e8ea1a2	0.2785769
255	0xbe1bf0a8	-0.15228522

bn1.running_var f4 [256]
0	0x42fc6bdc	126.21066
1	0x422e1c0c	43.52739
2	0x4396011f	300.00876
3	0x42c2f2a4	97.47391
4	0x42a4b523	82.35378
5	0x428128cb	64.57967
6	0x4303d9df	131.85106
7	0x43d0084f	416.0649
8	0x42bcbfd9	94.3747
9	0x42fb6a2f	125.70739
10	0x43091462	137.07962
11	0x42573498	53.80136
12	0x43966c80	300.84766
13	0x42c179b5	96.73771
14	0x42f30adb	121.5212
15	0x43036a98	131.41638
16	0x42c75223	99.66042
17	0x42190df5	38.26363
18	0x4299ec95	76.962074
19	0x43475dfe	199.36716
20	0x42eb6c9b	117.71212
21	0x43be4c6a	380.597
22	0x42eaa31d	117.31858
23	0x4309f3d0	137.9524
24	0x43314e08	177.30481
25	0x4312250a	146.14468
26	0x42aac27b	85.379845
27	0x43cdec8d	411.84805
28	0x434e6cac	206.4245
29	0x43a2c208	325.51587
30	0x438d7adb	282.9598
31	0x43877c9d	270.97354
32	0x429a1ea8	77.059875
33	0x42bf45bd	95.63621
34	0x4262d5e5	56.70888
35	0x43429f8c	194.62323
36	0x439e676f	316.80807
37	0x43163982	150.22464
38	0x43ae0de9	348.10867
39	0x426817c8	58.023224
40	0x432e72de	174.4487
41	0x4318a455	152.64192
42	0x43148b71	148.5447
43	0x437c9c44	252.61041
44	0x43064b67	134.29454
45	0x4351bd56	209.7396
46	0x433680c8	182.50305
47	0x432c3f3f	172.24706
48	0x431fb614	159.71124
49	0x43a8fca4	337.97375
50	0x43c65185	396.63687
51	0x425b5dc0	54.841553
52	0x42d832ec	108.09946
53	0x43026414	130.39093
54	0x439f38fb	318.44516
55	0x42332dfb	44.794903
56	0x429b5b7e	77.678696
57	0x439b33d8	310.40503
58	0x42aaaa27	85.33233
59	0x4308558f	136.33421
60	0x423cc9a7	47.196926
61	0x4284b26b	66.34847
62	0x42cee339	103.443794
63	0x424b7000	50.859375
64	0x43677f84	231.49811
65	0x43751593	245.08427
66	0x430fac05	143.67195
67	0x436036a7	224.21349
68	0x43979989	303.1995
69	0x4265e3aa	57.47233
70	0x421db931	39.43085
71	0x4345fe8c	197.99432
72	0x4326ac95	166.67415
73	0x432f33b6	175.202
74	0x43931668	294.17505
75	0x431d287e	157.15817
76	0x43083679	136.21278
77	0x41e7136f	28.88449
78	0x43143b34	148.23126
79	0x433d8b01	189.54298
80	0x43068f1b	134.559
81	0x430cda8c	140.8537
82	0x42835c4b	65.68026
83	0x4308b37d	136.70113
84	0x42e8ae64	116.34061
85	0x43520398	210.01404
86	0x43720558	242.02087
87	0x43220505	162.0196
88	0x423dc624	47.443497
89	0x43330c06	179.04697
90	0x42c9b538	100.85394
91	0x433d8648	189.52454
92	0x430e6485	142.39265
93	0x4396b30f	301.3989
94	0x42a8a76b	84.32699
95	0x42265f4a	41.593056
96	0x43429c1e	194.60983
97	0x435e1875	222.09554
98	0x42f4663c	122.19968
99	0x430119fd	129.10152
100	0x4383eae6	263.83514
101	0x428465c1	66.19874
102	0x429fb90a	79.861404
103	0x41ce7dac	25.811363
104	0x432d2884	173.15826
105	0x4297acca	75.83748
106	0x436aaa19	234.66444
107	0x42b25098	89.15741
108	0x430687ca	134.53043
109	0x428f7cd8	71.743835
110	0x42f28cd4	121.275055
111	0x429a9373	77.28799
112	0x42794601	62.318363
113	0x438d08da	282.06915
114	0x427e11a7	63.51724
115	0x42bd6525	94.69755
116	0x431d5013	157.31279
117	0x4306ea87	134.91612
118	0x42db81f3	109.75381
119	0x42cf2c31	103.58631
120	0x42fca79b	126.327354
121	0x4253e48b	52.973186
122	0x43669a9c	230.60394
123	0x4245e50d	49.473682
124	0x4269019a	58.251564
125	0x434ff912	207.97293
126	0x435b945b	219.57951
127	0x42d1f6fa	104.982376
128	0x435adab9	218.85439
129	0x432cb8cf	172.72191
130	0x42f39079	121.78217
131	0x4305fb8c	133.9826
132	0x42e78d5b	115.776085
133	0x4328c6db	168.77678
134	0x4286bbd1	67.36683
135	0x42239bd9	40.902195
136	0x42fccef4	126.404205
137	0x43600917	224.0355
138	0x42e5ea3d	114.9575
139	0x43371e30	183.11792
140	0x438110b4	258.1305
141	0x42ac94b8	86.29047
142	0x43121a24	146.10211
143	0x425f7b3d	55.87035
144	0x42db8395	109.756996
145	0x43139ecc	147.6203
146	0x42c3fb39	97.99067
147	0x430eb535	142.70784
148	0x42284aec	42.073166
149	0x42a9c227	84.8792
150	0x430687be	134.53024
151	0x43935024	294.6261
152	0x43a0830c	321.0238
153	0x42a70bc7	83.523
154	0x437bd0cb	251.8156
155	0x431721d1	151.1321
156	0x43241b31	164.10622
157	0x42835839	65.67231
158	0x43382b5b	184.16936
159	0x42e2ef18	113.46698
160	0x429d5532	78.6664
161	0x43849c21	265.21976
162	0x43128ff3	146.5623
163	0x42f64b69	123.147285
164	0x42665dfa	57.591774
165	0x43661566	230.08359
166	0x4327a354	167.638
167	0x432c1106	172.0665
168	0x430bb824	139.7193
169	0x4250592b	52.08708
170	0x42bb40d4	93.62662
171	0x42f329f6	121.581955
172	0x43024c7b	130.29875
173	0x42f9a574	124.82315
174	0x4318192a	152.0983
175	0x4360a5e5	224.64803
176	0x43303e30	176.24292
177	0x435a8b41	218.54396
178	0x439f0cc8	318.09985
179	0x4306e39b	134.88908
180	0x43b7e369	367.77664
181	0x4362a9da	226.66348
182	0x433d98ad	189.59639
183	0x4310dac9	144.85463
184	0x431d5fbc	157.37396
185	0x43b5a403	363.28134
186	0x42ea4b3c	117.14694
187	0x4323af41	163.68459
188	0x428a07d9	69.01533
189	0x4355d0b8	213.8153
190	0x4328219d	168.1313
191	0x4338302e	184.1882
192	0x439c4036	312.50165
193	0x42af307a	87.59468
194	0x435b47fe	219.28122
195	0x430c16b6	140.08871
196	0x433dc6cd	189.77657
197	0x438e418b	284.51205
198	0x435d6301	221.38673
199	0x42c37e97	97.747246
200	0x432a0468	170.01721
201	0x43388fdd	184.56197
202	0x434b7545	203.45808
203	0x42fcff88	126.499084
204	0x4360c299	224.76015
205	0x428fdde5	71.93339
206	0x432d0805	173.03133
207	0x43d08f1a	417.11798
208	0x427e7e15	63.623127
209	0x430feff8	143.93738
210	0x42fdfe09	126.99616
211	0x430873c5	136.45222
212	0x42ce23ea	103.070145
213	0x42de5afd	111.17771
214	0x42402e49	48.0452
215	0x42f89a41	124.30128
216	0x42ffb5b9	127.85493
217	0x43552244	213.13385
218	0x4349483f	201.28221
219	0x43221c93	162.11162
220	0x431f8c25	159.54744
221	0x4373640f	243.39085
222	0x42a704ca	83.50935
223	0x42e532ea	114.59944
224	0x426879c8	58.118927
225	0x42d41096	106.032394
226	0x431b7079	155.43935
227	0x43175aa6	151.3541
228	0x42a3074f	81.514275
229	0x424f2ea9	51.795567
230	0x4282aed5	65.34147
231	0x42c3f1c6	97.97221
232	0x43851da4	266.23157
233	0x42ae82f0	87.25574
234	0x4368f31d	232.94966
235	0x43219123	161.56694
236	0x426886c8	58.131622
237	0x4353c74d	211.77852
238	0x4339e4d9	185.89394
239	0x42f98c91	124.77454
240	0x437ac54a	250.77066
241	0x43181269	152.07191
242	0x42779e97	61.904873
243	0x43250025	165.00056
244	0x4258fcfb	54.24705
245	0x42ef91b5	119.784584
246	0x434ac37c	202.76361
247	0x42cb32d5	101.59928
248	0x4323cffe	163.81247
249	0x432afeb8	170.995
250	0x43422e67	194.18126
251	0x431e7357	158.45055
252	0x43258036	165.50082
253	0x43804973	256.57382
254	0x4300fa43	128.97758
255	0x426ce918	59.22763

fc2.weight f4 [256, 256]
0	0xbf8c2133	-1.0947632
1	0xbfe359cc	-1.7761779
2	0xbf80f200	-1.0073853
3	0xbf6427d1	-0.89123255
4	0x3f8914e7	1.0709504
5	0xbd77d3d3	-0.060504746
6	0xbfbbada3	-1.4662365
7	0x3fb10fe1	1.3832971
8	0xbeb6a24c	-0.35670698
9	0xbf717c5d	-0.9433039
10	0x3eb9eb4e	0.36312336
11	0xbfad0bc4	-1.3519216
12	0x3e45e14c	0.19324225
13	0xbedccea2	-0.43126398
14	0x3fb71814	1.4304223
15	0x3fd6bcf2	1.6776412
16	0x3fcdbc8b	1.6073164
17	0xc04dcb78	-3.2155437
18	0x3e5a5333	0.213208
19	0x4003d17b	2.0596607
20	0xbf8160eb	-1.0107702
21	0x3f198e8f	0.5998315
22	0xbe986b8c	-0.29769552
23	0xc00b2645	-2.1742108
24	0x40064da9	2.09849
25	0xbf3fdef2	-0.7494956
26	0x40228aff	2.5397336
27	0x3f9f7139	1.2456428
28	0xbeffc1d6	-0.49952573
29	0x3c52c64b	0.01286466
30	0xbf670344	-0.9023936
31	0xbf2c021e	-0.6719073
32	0xbf1d8046	-0.61523855
33	0x3f6b116c	0.9182346
34	0x3e74d709	0.23910154
35	0xbe89004d	-0.26758042
36	0x3f9a0390	1.2032337
37	0x3d48ea64	0.049051657
38	0xc08f3c4d	-4.476111
39	0xbf88ca56	-1.0686748
40	0x3e8cd100	0.27503204
41	0x4019b57e	2.4017024
42	0xbc7c0076	-0.015380969
43	0x3fb6a6be	1.4269636
44	0xc0016bbb	-2.0222003
45	0xbf6d4616	-0.9268507
46	0xc0abdce2	-5.370713
47	0xbeee0dad	-0.4649481
48	0x3f790fb7	0.97289604
49	0xbff91f05	-1.9462591
50	0x3fa76a09	1.3079234
51	0x3e81e163	0.2536727
52	0xbf9d0eb1	-1.2270108
53	0x3fa24d03	1.2679752
54	0x3f24977c	0.64293647
55	0xbff8744f	-1.9410495
56	0x3f24d801	0.64392096
57	0x3f66d5be	0.90169895
58	0xc0296e32	-2.6473508
59	0x3fe81051	1.8129979
60	0xc0972f04	-4.724489
61	0xc005fe2b	-2.0936382
62	0xbfd55667	-1.6666993
63	0x3e817db3	0.25291213
64	0xbf8dd9bb	-1.1082071
65	0x3fa1c2f3	1.2637619
66	0xc03bd8d3	-2.935109
67	0x4007ea97	2.1236932
68	0xbf2209ab	-0.63296
69	0x3f812f2e	1.0092523
70	0xbf22c380	-0.6357956
71	0x3fa68e39	1.3012153
72	0xc05922b5	-3.3927433
73	0x4019ffc4	2.4062357
74	0xc0197aef	-2.3981283
75	0xc0dc9753	-6.893472
76	0xc01dc771	-2.465298
77	0x40293a34	2.6441774
78	0xbf890287	-1.0703896
79	0x3fb311d5	1.3989817
80	0xbf9becd6	-1.2181652
81	0x3eb70e90	0.35753298
82	0xbf3005b4	-0.687587
83	0xbf1fa220	-0.6235676
84	0x3f07c689	0.53037316
85	0xbf9f6c34	-1.2454896
86	0xc004816f	-2.0704
87	0x3da50738	0.080580175
88	0xbf11bd47	-0.5692944
89	0xc05b364f	-3.4251897
90	0x3ec296f6	0.380058
91	0x3f8fa0b6	1.122092
92	0xbdf0e5e1	-0.11762596
93	0xbfea0847	-1.8283776
94	0x3e93239a	0.287381
95	0x3d96b622	0.07358958
96	0xc09ebfdd	-4.960921
97	0x3f2691ae	0.6506604
98	0xbe0327a9	-0.12808098
99	0x3f48268a	0.78183806
100	0x3f037ccb	0.51362294
101	0xbf4e2791	-0.80529124
102	0xbf4e072a	-0.8047968
103	0xbf0c53ae	-0.54815185
104	0x3eefa77a	0.46807462
105	0x3e385b37	0.18003546
106	0xbf705b65	-0.93889457
107	0x3be0183c	0.0068388265
108	0xbfcc697d	-1.5969692
109	0xbf4d5abd	-0.8021658
110	0xc098a507	-4.770145
111	0xbf31912e	-0.6936215
112	0xbf64effc	-0.8942869
113	0xbfc595b9	-1.5436317
114	0x3f4a1324	0.78935456
115	0xbf39040b	-0.72271794
116	0xbfdcc3d3	-1.7247261
117	0xc00c4301	-2.1915896
118	0xc04a8e10	-3.1649208
119	0xbebf9729	-0.37420014
120	0x3fdb4fb8	1.7133703
121	0xbf2e9411	-0.6819468
122	0xc04808de	-3.1255412
123	0xc01a0b56	-2.406942
124	0x3cceb1bb	0.025231233
125	0x3f9ca1fa	1.2236931
126	0xbfedd0ae	-1.8579309
127	0x3f6c4d43	0.9230539
128	0xc093e009	-4.621098
129	0xc0cc8399	-6.391064
130	0xbfaf57e6	-1.36987
131	0x3f91358f	1.134447
132	0x3f9e577b	1.2370447
133	0xbf71c3cc	-0.9443939
134	0xbfa1e721	-1.264866
135	0xc00ea81b	-2.2290103
136	0xc021df79	-2.5292647
137	0x400ff306	2.249208
138	0xc0c3c744	-6.1180744
139	0x3de51438	0.11185497
140	0x401cb882	2.4487615
141	0x3fc411fe	1.5317991
142	0xbe405d7a	-0.18785658
143	0x3f330e15	0.6994336
144	0xbee588b8	-0.4483087
145	0xc0a6d749	-5.21378
146	0xc09cf72b	-4.905172
147	0x3f80db0d	1.0066849
148	0x3ff96de0	1.9486656
149	0xbe495da5	-0.19664629
150	0x3f650c47	0.8947186
151	0xc0bd2c5d	-5.9116654
152	0x3e0087f3	0.1255186
153	0xbf966d36	-1.1752079
154	0x4054d70a	3.325625
155	0x3f021182	0.50807965
156	0xbfd1d997	-1.6394528
157	0x3fe19765	1.7624327
158	0xbedd546f	-0.4322848
159	0xc0d30196	-6.5939436
160	0x3fcac4d1	1.5841314
161	0x3fd8c4f1	1.6935102
162	0xc0195b6d	-2.3962052
163	0xc0095462	-2.1457753
164	0x3d58334b	0.05278329
165	0xc0e29537	-7.0807147
166	0x3fbf96cf	1.4967898
167	0x3fea4505	1.8302313
168	0xbec2fbc9	-0.38082722
169	0xbf80e634	-1.0070252
170	0xbf48534b	-0.78252095
171	0xc05cf3aa	-3.452372
172	0xbf1afdb1	-0.6054335
173	0xc00ccb46	-2.1999068
174	0xc07ac123	-3.9180381
175	0x3f4ff699	0.81235653
176	0xc0b6b8ba	-5.7100496
177	0xbe2acf58	-0.16680658
178	0xc0d6646b	-6.699758
179	0x3d43fe32	0.04784984
180	0x3f05dbb6	0.5228838
181	0x3f9722dd	1.1807514
182	0xc000446d	-2.0041764
183	0xbf8f894e	-1.1213777
184	0xbf62cadc	-0.8859079
185	0xbf913d3b	-1.1346811
186	0x3f882ee6	1.0639312
187	0xbf8dc860	-1.1076775
188	0x403e834e	2.9767642
189	0x4012297f	2.2837827
190	0xbec3c342	-0.38234907
191	0xc0438ada	-3.0553498
192	0xc0acc1b0	-5.3986435
193	0x3f8661d9	1.0498611
194	0xbe6d5ca5	-0.23179872
195	0xc010796e	-2.2574115
196	0xc0e6f1a4	-7.216997
197	0x3fd5a466	1.6690795
198	0xbf5ffdb1	-0.8749648
199	0xbe072bf6	-0.13200364
200	0xc0aeb2e4	-5.459337
201	0x3ed0d27a	0.4078558
202	0xbea5aa7a	-0.32356626
203	0x3ea53d39	0.32273272
204	0xc0159e7d	-2.3377984
205	0xbf65b7ab	-0.8973338
206	0xc04fcd2a	-3.2468972
207	0x3f8fa23a	1.1221383
208	0xbf8d10c6	-1.1020744
209	0xbf6438a6	-0.8914894
210	0xbe96e947	-0.2947485
211	0x3ed91f95	0.42406908
212	0xbb7834e0	-0.0037873313
213	0x3f44764c	0.76743007
214	0xbfcee0d4	-1.6162362
215	0xbeacca99	-0.3374832
216	0x4013d94b	2.3101375
217	0x3f376b0f	0.71647733
218	0xc0ccccb8	-6.39999
219	0x3ffb5144	1.9634175
220	0x3e5c4283	0.21509747
221	0xbf6167b7	-0.8804888
222	0xbfc35026	-1.5258834
223	0xbf1ceca0	-0.6129856
224	0x3e9973ed	0.29971257
225	0xbf0f8644	-0.5606425
226	0xbfa046b2	-1.2521574
227	0x400dc617	2.2152154
228	0xbef9712e	-0.48719162
229	0xc050cfb6	-3.2626777
230	0xc01d5891	-2.4585307
231	0x3f918e8d	1.1371628
232	0xbeee961c	-0.465989
233	0x3f808746	1.0041282
234	0x3db77129	0.089571305
235	0xc007a375	-2.1193516
236	0xbf2f1190	-0.68386173
237	0xc041c61f	-3.0277174
238	0xbf95c267	-1.1699952
239	0x3fdcd95c	1.7253833
240	0xbfb44b75	-1.4085528
241	0xc08ff597	-4.498729
242	0x400e11ef	2.2198446
243	0xc007fb99	-2.1247313
244	0xbf2f7c87	-0.6854939
245	0xc0c95383	-6.2914443
246	0xc0513abf	-3.2692106
247	0xc01118a6	-2.2671294
248	0xbfc30f3b	-1.5239023
249	0xc0014a82	-2.0201726
250	0x3ff571cb	1.9175352
251	0xbed23518	-0.41056132
252	0xbeee6daa	-0.46568042
253	0xc066dc22	-3.6071858
254	0x3ef7cdaf	0.48399112
255	0xbf3dc9d1	-0.7413607
